weights/sent_attn_model_yelp_preprocessed1536467379.666338.pth (torch_old, 436007 bytes, 10 tensors)

embed.weight f4 [89, 200]
000000 1b 4f 05 40 b0 a6 a7 bf 81 70 77 3d 66 d1 22 3f
       2.0829532 -1.3097744 0.060410026 0.63600767
000010 af bb fb be 09 c1 bd be e2 d5 f4 3e 88 da 79 3e
       -0.4916663 -0.37061337 0.4781943 0.2439977
000020 7b 05 1c bf d7 10 67 be 6e 55 b1 3f b5 42 2b bf
       -0.6094586 -0.22565018 1.3854196 -0.6689866
000030 bd 8e b0 3f 6f 1a a0 3f 11 da 05 3f 3e 37 5c 3e
       1.379356 1.2508067 0.5228587 0.21505448
000040 20 05 f1 3d ab 7e 20 bc 0d 59 bc bf 24 99 cf be
       0.11768556 -0.009795825 -1.4714676 -0.40546525
000050 8d 3e f3 3e 4f 4b 79 3f 0c fd d6 3e ef 45 38 3f
       0.4750866 0.97380537 0.41989934 0.7198171
000060 2f bc 0a 3f e3 15 0d 3f 1b f4 b8 3f 91 c5 8c 3f
       0.54193395 0.5511152 1.4449495 1.0997792
000070 2b 78 42 bf 46 03 40 3e cb 5b f9 bc 06 96 7d 3d
       -0.7596461 0.18751249 -0.030439278 0.06191065
000080 54 1c 8d 3f 79 2e 8d bf ed 27 57 be b2 de 3b be
       1.102427 -1.1029807 -0.21011324 -0.1834667
000090 08 a2 a3 bf 5b 45 a4 be 10 db 8a bf 0c b9 23 3f
       -1.2783823 -0.32084164 -1.0848103 0.63954234
0000a0 24 a3 74 3f f6 b8 6a 3f 1c 84 8c bf 9c 57 09 3f
       0.9556143 0.9168848 -1.0977817 0.53649306
0000b0 bd eb 0f bf 1d c7 a2 3f 77 5d 02 bf 77 61 f7 bc
       -0.56219083 1.2717015 -0.50923866 -0.030197842
0000c0 3d a1 07 c0 7b d8 df 3e 02 9f b5 3e 22 d6 65 3e
       -2.1192162 0.4371985 0.35472876 0.22444966
0000d0 99 f0 c7 3e 83 4b 37 c0 51 10 31 3e c7 a6 0e be
       0.3905075 -2.8639839 0.1729138 -0.13930808
0000e0 07 8f 15 3f fd 3c 94 bf 3f 9a d3 be 1d 2e 94 be
       0.5842137 -1.1581112 -0.41328618 -0.28941432
0000f0 be 84 0b c0 a7 a4 2f 3f 8e 1c 93 3f 9f f7 dc 3e
       -2.179977 0.68610615 1.1493089 0.4315767
000100 ff 5a 97 3d 75 7b bb bf 66 69 ac bf 61 94 93 3e
       0.07390403 -1.4647051 -1.3469665 0.28824142
000110 23 39 4c be e1 25 04 3f 79 ac 07 bf f7 6a 22 3f
       -0.19943671 0.516203 -0.5299755 0.63444465
000120 c5 67 2f 40 01 9f 07 bf 58 4b cd bd e0 44 95 bf
       2.7407086 -0.52976996 -0.10024136 -1.1661644
000130 ae b4 d3 bd 8f ea 8d 3f ae f3 87 3e 01 d5 9b bf
       -0.10337196 1.1087207 0.265531 -1.2174379
000140 58 1a 03 c0 85 f8 c0 3e e3 fc c2 3e c4 d1 2a 3e
       -2.048483 0.37689605 0.38083562 0.16681582
000150 88 5c aa bf 10 86 15 3e 90 6c 8e bf 2b 06 b6 3e
       -1.3309488 0.14601922 -1.1126881 0.3555158
000160 eb dc 9c bf 63 1c 87 bf 6f 4a 3c be 2c 88 9c bf
       -1.2254919 -1.0555538 -0.18387769 -1.2229056
000170 91 91 c9 bf ad a5 0d 3e 79 95 82 3e 1d 7e ff bf
       -1.5747548 0.13832732 0.25504664 -1.9960362
000180 85 c9 e2 bf f4 63 99 bf 65 a4 89 3e 33 04 32 bf
       -1.7717749 -1.1983628 0.26883236 -0.6953766
000190 ee 0d 05 c0 5b 6c 88 3f cb 33 c3 3f aa 3f f9 3e
       -2.0789752 1.0658067 1.5250181 0.48681384
0001a0 fc c7 98 3f a4 7f 81 3d eb d7 87 3e 4a cd d3 3e
       1.193603 0.06323174 0.2653192 0.4136756
0001b0 61 1c 62 3f 78 7f 51 bf ee 51 05 bf 8a 7a 6a 3f
       0.8832455 -0.81835127 -0.5207814 0.9159323
0001c0 1f 6b 00 40 ae 68 95 bf e3 a4 82 3f 16 34 67 bf
       2.0065382 -1.1672571 1.020657 -0.9031385
0001d0 9d 50 9d 3f 7d f2 eb bd fe b5 02 c0 50 19 a7 be
       1.2290226 -0.1152086 -2.042358 -0.326365
0001e0 94 6f 9d bf e0 58 fc bf b5 58 8a bf 66 aa bf bf
       -1.2299676 -1.9714622 -1.0808321 -1.4973876
0001f0 0a 05 e6 bd 4d 51 43 be be 4c 9e bf 0a 9b 19 3e
       -0.1123143 -0.19073983 -1.236717 0.15000549
000200 e0 56 b1 3f 7a 5d 01 3e 87 65 92 3f 2d e3 c0 bf
       1.3854637 0.12633315 1.1437234 -1.5069329
000210 5b 63 29 bf d6 be b8 3f 2c 7b 28 3f 7b 0f ce 3e
       -0.6616723 1.4433239 0.65812945 0.40246186
000220 d8 3b 0d 3f 99 b3 6b be 79 d4 ca be 23 33 74 3e
       0.5516944 -0.2301773 -0.3961523 0.23847632
000230 bd aa 84 3f 55 c8 49 be a0 75 5b bf a5 c6 e0 bd
       1.0364605 -0.19705327 -0.85726357 -0.109753884
000240 67 c5 f6 3f b8 c2 89 3f 92 27 df bf aa ff ff bf
       1.9278992 1.0762548 -1.7433951 -1.9999897
000250 22 5b 82 3f d2 8c ba be 9e 0e 10 3f 50 f6 36 bf
       1.0184062 -0.36435562 0.56272304 -0.71469593
000260 e1 4d 23 3f 9b 94 a3 be 5b 57 90 be bd e6 2d bd
       0.6379071 -0.31949314 -0.28191647 -0.042456377
000270 b9 05 a5 bd ff e1 a6 3f 97 39 f1 be de 64 bf bf
       -0.08057732 1.3037719 -0.4711425 -1.4952657
000280 bd c9 c3 3f 9c a0 cf 3f f4 4a 49 3f 92 7d e7 3f
       1.5295941 1.6220889 0.78629994 1.8085196
000290 90 20 5e be 7e 48 c9 3d 32 f2 e3 3e 81 d3 ba bf
       -0.21692109 0.0982828 0.44520718 -1.4595796
0002a0 a8 0e 24 3f 86 35 1f bf 82 12 7a 3f 39 38 88 3f
       0.64084864 -0.62191045 0.9768449 1.0642158
0002b0 82 c1 a9 3e 0e e0 ee bf 9c c1 1b 40 56 42 bc bf
       0.33155447 -1.8662126 2.433692 -1.4707744
0002c0 85 fb 8f 3f 19 2f d5 be 50 51 cc be b6 a7 07 3f
       1.1248633 -0.41637495 -0.39905787 0.5299028
0002d0 0a c3 e3 bf 27 14 9f 3f b6 07 06 bf db d3 88 bd
       -1.7793896 1.2428025 -0.52355516 -0.06681033
0002e0 2e f5 1b 3f d9 64 a8 3e 77 87 39 3e be 16 c4 3f
       0.6092099 0.3288944 0.18118082 1.531944
0002f0 a7 7d 17 c0 b2 40 30 3f a7 f4 1e 3f dc 12 fe 3f
       -2.3670442 0.6884872 0.6209206 1.9849505
000300 73 b1 1e bf 83 9e 91 3f d4 16 d7 3e 16 48 86 3f
       -0.61989516 1.1376499 0.42009604 1.0490749
000310 29 79 e1 3f e4 54 43 bf 36 f4 ff 3d 64 28 88 bf
       1.76151 -0.7630141 0.124977514 -1.0637326
000320 9f 40 b1 3f d8 e1 f6 3e f0 7e 30 be 36 23 f9 bf
       1.3847846 0.4821918 -0.17235923 -1.946387
000330 f8 a4 d3 bf 09 12 a6 bf b3 38 63 be df d3 f2 3e
       -1.653472 -1.2974254 -0.22189598 0.4742727
000340 26 1b 30 be ed f5 c8 be c0 6b 02 bf 8b 0f 5d 3e
       -0.17197856 -0.39250126 -0.50945663 0.2158796
000350 0b ee af 3e 97 4d 93 3f 3f 9c 53 3f 38 d3 34 3f
       0.343613 1.1508054 0.8266029 0.70634794
000360 f5 7e 86 bf 15 a9 8c 3e c5 43 30 bf cd 6d a3 3f
       -1.0507494 0.2747275 -0.6885341 1.2767884
000370 b8 05 aa be 4a c4 1c 40 00 de 1e bd be a4 88 3e
       -0.33207488 2.4494805 -0.038785934 0.26688188
000380 c8 6d 99 3f 4b 2a 18 bf 9e 19 41 be dc e8 f8 3f
       1.1986628 -0.59439534 -0.18857428 1.9446063
000390 13 f8 87 bf 7b 05 c0 3e ec 24 96 3e cc f9 06 c0
       -1.0622581 0.3750418 0.29325044 -2.1089964
0003a0 5b 87 10 40 d2 62 bd 3e 21 a4 9f be f5 c9 01 be
       2.2582614 0.36989456 -0.31179908 -0.12674697
0003b0 fb f9 80 3f aa a1 75 3f 1a 5c cc bf 21 27 ff 3e
       1.0076288 0.95949805 -1.5965607 0.4983454
0003c0 2c c6 32 bd f8 ea 88 bf 78 8a 97 bf 82 7c 15 3f
       -0.043646023 -1.0696707 -1.1839132 0.5839311
0003d0 ae ec b8 be 97 d1 a7 be b8 13 9f be e3 e3 31 3f
       -0.36118072 -0.32777092 -0.31069732 0.6948835
0003e0 25 c1 94 3f 6e 08 a4 3e fd 3f 5e 3f 7c b3 88 3e
       1.1621443 0.3203768 0.8681639 0.26699436
0003f0 43 a1 3a bf 15 98 a5 3f 9a d1 73 bf d4 73 8e bf
       -0.72902316 1.2937037 -0.952417 -1.1129098

sentCNN.weight f4 [100, 1, 3, 200]
000000 dd ad 83 bb 63 22 c0 3c ad e9 0c bd d6 91 74 3c
       -0.004018529 0.023453897 -0.034402538 0.014927348
000010 61 67 22 3d 4b f3 eb bc 6d a0 c0 3b f5 57 de 3b
       0.03964937 -0.028802535 0.0058784992 0.0067853876
000020 dc 99 15 bd 27 d0 f3 3a 50 e9 74 3c f6 aa 3c 3c
       -0.036523685 0.0018601463 0.014948204 0.01151537
000030 16 40 05 3d 37 72 ff bb 1e 72 02 3b 82 ce c9 3b
       0.03253182 -0.007795598 0.0019904445 0.006158651
000040 d1 eb 69 bc 36 a0 2a 3d 6a 4b 02 bd 4e 4e 20 bd
       -0.014277414 0.041656695 -0.0318102 -0.039137177
000050 bf a5 da bc dd ef 49 3c b8 70 e4 3c 2f 4b bf bc
       -0.026690362 0.012325254 0.02788578 -0.02335128
000060 fe 82 5d bc d9 af cf bc 1c d7 d8 3c 4b b0 9c 3c
       -0.0135200005 -0.025352405 0.02646976 0.019127032
000070 96 49 9b bc f8 f9 e2 3b 28 4f 94 bc db 1d 41 3d
       -0.018955987 0.0069267713 -0.01810415 0.047147613
000080 a4 30 e5 3c 92 51 18 3d 48 86 ae bc 21 01 17 bd
       0.027977295 0.037187167 -0.021304265 -0.03686631
000090 24 46 15 3d 7e 7b f2 bc 71 e2 16 3d 93 2f 2b bd
       0.036443844 -0.029599901 0.036837045 -0.041793417
0000a0 cc 48 6a bb 29 ca e2 bc 59 ec d0 bc 83 b2 8d 3b
       -0.0035748957 -0.027684288 -0.025503324 0.004324259
0000b0 c2 08 98 bc f5 e3 aa bc 9f 81 bc 3b fd 7d b6 bc
       -0.018558864 -0.020860652 0.0057527567 -0.022276873
0000c0 47 c7 03 3d 6f 03 9c bc 7a b1 f8 bc 7d ac 11 3d
       0.032172468 -0.019044606 -0.030358065 0.03556489
0000d0 b6 cd 1c bc 9a 14 f9 bc f4 d8 2f bb db 5a 13 3c
       -0.00957053 -0.030405331 -0.0026832195 0.00899383
0000e0 9c 91 4c ba 45 33 15 bc a7 db df bc 2d d4 11 bd
       -0.000780368 -0.009106462 -0.027326418 -0.035602737
0000f0 0b 89 53 3c 02 ec 21 bd 95 d4 5e bc 87 31 c0 3b
       0.012911092 -0.039531715 -0.013600488 0.005865279
000100 27 04 99 3c 3d 57 07 bd bb 87 ef 3c 68 57 b8 bc
       0.018678738 -0.03304218 0.029239526 -0.022502616
000110 27 50 17 bd 01 33 1f bd df ae 2c bc d8 96 1a bd
       -0.036941674 -0.038867 -0.010539739 -0.037741512
000120 1b 70 d8 bc 0d 4d 75 3b fc ed ea 3a 61 e8 0e bd
       -0.026420644 0.003742996 0.0017923708 -0.034889583
000130 e7 1a 18 3d 17 67 a2 3c 3b 9d 15 3d 01 91 3b 3b
       0.03713503 0.019824548 0.0365269 0.0028620365
000140 62 8e e8 3c 1e ec 45 3d ad be 09 bd b4 40 bb 3c
       0.028388206 0.048320882 -0.03362911 0.022858001
000150 bb 70 27 3d be ca e2 bc d6 5c 2e bc 94 e8 5d 3c
       0.040878993 -0.027684566 -0.010642251 0.0135442205
000160 4a 82 15 3d f5 1b b4 3c cd 99 17 3d a8 a2 53 bc
       0.036501206 0.021985987 0.03701191 -0.012917198
000170 b1 d6 18 3d 0e f8 c2 3c 4d be 88 3c d5 e0 e1 bc
       0.03731412 0.023799922 0.016692305 -0.027573029
000180 b4 3f 2f 3d f2 e1 df 3c 69 e6 0e 3a 56 89 15 bd
       0.04278536 0.027329419 0.0005451204 -0.036507927
000190 93 4f 6f 3c e1 db 85 bc 18 85 89 3c 31 ac da bb
       0.014606374 -0.016340198 0.016787097 -0.006673359
0001a0 d7 09 6c 3c 1f 84 26 3c 5c 51 18 3d fd 43 09 bd
       0.014406643 0.010163336 0.037186965 -0.033512104
0001b0 96 21 10 bd ad 9d 34 bc 04 a1 50 bb a8 14 9b bc
       -0.03518828 -0.011023921 -0.0031834254 -0.018930748
0001c0 ca 36 11 bd 41 fc 04 3d 3a 76 f5 3c a5 ec 51 3c
       -0.03545264 0.03246713 0.029963601 0.012812768
0001d0 39 34 2b bd e5 38 56 3c b0 8c ba bb 3c 9f 0c 3d
       -0.04179785 0.013075088 -0.005693041 0.034331545
0001e0 19 80 41 bc d6 ff fe 3c 7e 18 34 3d 35 12 67 bc
       -0.011810326 0.031127851 0.04396867 -0.014103462
0001f0 0c 6f c2 3c d0 1a 96 3c 79 73 ab 3c 59 d9 ba 3b
       0.023734592 0.018323332 0.020929085 0.0057021794
000200 2e 05 d4 bc b3 a5 13 bc 26 be 17 3d 47 07 b4 ba
       -0.025881376 -0.009011674 0.037046574 -0.0013735079
000210 d1 61 a4 3b 60 f3 10 bd 31 dc 62 3c 48 56 8d bc
       0.0050165434 -0.03538835 0.013846443 -0.017253056
000220 ee 41 da 3c e3 0a 15 3d 8b 29 d7 3c a3 87 03 3d
       0.026642766 0.036387336 0.026264926 0.032111775
000230 0a b9 38 3c 85 bd 20 3d 87 4f 6a 3c 17 45 43 3b
       0.0112745855 0.03924324 0.014301187 0.002979582
000240 10 a5 1e 3c 69 5c 84 3c 18 35 a6 bc 5c ce 8b 3b
       0.009682909 0.016157346 -0.020288989 0.0042665433
000250 c0 e6 0c bd 97 db f3 bc 67 fd 29 bc fd e0 bd 3c
       -0.034399748 -0.029767795 -0.010375357 0.023178572
000260 53 a7 9b bc 24 dd fb bc bd f6 20 bd 23 6b 0e bd
       -0.019000685 -0.030745097 -0.039297808 -0.034770142
000270 87 2a d6 bc 7a 5b 15 3d f9 05 7a b9 48 5c 0e 3d
       -0.026143325 0.036464192 -0.00023844083 0.034755975
000280 51 ac 27 bd d5 4b d1 bc 08 30 69 3c 59 7f d3 bc
       -0.040935818 -0.025548855 0.014232643 -0.02581756
000290 8e 30 fa bc ba 8d 8b bc 69 2d 1a bd 4d c8 76 bc
       -0.03054073 -0.017035354 -0.037640963 -0.015062404
0002a0 8f 15 00 bd 62 d9 01 3d 4a 2b 2d 3d 12 59 c1 3b
       -0.03127056 0.031701453 0.04227761 0.0059005106
0002b0 0d 43 35 bd 8d 8a 08 bc ce ad f5 3b 6a 81 02 bd
       -0.044253398 -0.008333814 0.007497526 -0.0318617
0002c0 1e 4d b3 3c 60 6b 5d bc 9d 42 a9 bc d6 c8 96 b9
       0.021887358 -0.01351437 -0.020661647 -0.00028759864
0002d0 09 f8 04 bd f6 6c 62 3c 46 3d 72 3c cb 8b 01 bd
       -0.032463107 0.013819924 0.014785117 -0.031627458
0002e0 53 7b c9 bc 9c b3 04 bd cc 4c 45 bc 9a 13 9d bc
       -0.024594938 -0.03239785 -0.012042236 -0.019174386
0002f0 e0 26 e0 3c 0b c8 3d 3c f6 7f e9 3c d4 85 21 bd
       0.027362287 0.0115833385 0.0285034 -0.03943427
000300 42 f7 0b bd b2 f7 91 bc 45 9d 21 3d 53 8d 2a 3d
       -0.03417135 -0.017818306 0.039456625 0.041638684
000310 37 88 e1 bc 03 a7 3c 3c 3e c9 bc bb 2d b1 c8 3b
       -0.027530773 0.011514428 -0.0057612946 0.0061246366
000320 d2 c3 c7 bc df 65 dc bc 57 6c 39 3c c1 04 84 3c
       -0.024385367 -0.026904045 0.011317334 0.016115548
000330 c1 b3 1c 3d f2 60 b5 3a d8 06 e3 3c 0d 23 cd bc
       0.038257364 0.0013838096 0.027713224 -0.025041128
000340 f7 2d dc 3c 58 26 c5 3c ce 71 b0 bc 7d 93 bc bc
       0.026877386 0.024066135 -0.021538641 -0.023019547
000350 62 90 a7 bc 44 ce 9c 3c f6 e8 b4 bc f0 87 5f 3c
       -0.02045459 0.019141324 -0.02208374 0.01364325
000360 28 01 d9 bc 1b 8f 1f 3d e4 e7 41 3c f9 d0 1b 3d
       -0.02648981 0.038954835 0.011835072 0.03804109
000370 e6 d6 0e 3c d8 89 70 bc 0d 42 0c 3d 87 fe 8c bc
       0.008718228 -0.014681302 0.03424268 -0.017211212
000380 bc 48 4d bc 3c cc 46 b9 a0 ff 10 bd 29 94 bd bc
       -0.012529548 -0.00018958835 -0.035400033 -0.023141937
000390 7b b1 d0 bc 37 c5 81 bc f6 0c 56 bc a7 c2 e0 3c
       -0.025475254 -0.01584111 -0.013064614 0.027436567
0003a0 62 2c 88 bc af 99 06 bd 84 66 d0 3b 33 df 77 3c
       -0.016622726 -0.032861408 0.006359877 0.015128898
0003b0 94 0d 56 bc 6e df 2b bb f2 48 d4 bc ca 67 a3 3c
       -0.013064761 -0.0026225704 -0.02591369 0.019946951
0003c0 c5 d5 00 bd 5a f6 bc 3b bc e4 12 bd 4a 76 c6 3b
       -0.031453867 0.005766672 -0.03586267 0.0060565816
0003d0 f1 63 2b bb 24 76 22 3c 98 de c6 3b 3a c9 c3 3c
       -0.00261521 0.009915862 0.0060690157 0.023899663
0003e0 03 c6 98 3a d3 2e df 3b 9f 80 93 3c 96 15 66 bc
       0.0011655692 0.006811002 0.018005667 -0.014043232
0003f0 08 b9 7f 3c 25 53 18 bc 88 96 29 3d aa 34 a2 3c
       0.01560808 -0.009297167 0.041403323 0.019800503

sentCNN.bias f4 [100]
000000 b9 d7 9b bb fa 22 ba bc c4 31 79 bc da 3c 0e bd
       -0.0047559408 -0.022721756 -0.015209619 -0.034726
000010 60 b9 8c 3c 4f 63 7f bc 66 c3 2e bc 4b c2 f4 3c
       0.017178237 -0.015587642 -0.010666704 0.029877802
000020 9d e8 31 3c 92 ce 67 3c 77 5a 4c 3a b5 63 c1 bc
       0.010858682 0.014148371 0.0007795463 -0.023607114
000030 4b 61 1c bd df fd 70 bc 3c 06 a0 bc 00 85 2a 3c
       -0.038178723 -0.014708965 -0.019534223 0.010407686
000040 d3 d7 81 3c 34 03 08 bd 2d 38 78 ba 07 a8 5f 3c
       0.015849983 -0.03320618 -0.000946882 0.013650901
000050 16 42 ed bc 26 40 d9 3b 30 68 2c bd 30 4b 6a ba
       -0.028962176 0.0066299615 -0.04209155 -0.00089375954
000060 41 50 08 bd b6 7a 7c 3c 2c 83 ff 3c d0 74 cf 3c
       -0.03327966 0.015410116 0.031190477 0.025324255
000070 d4 9a 39 bd 1d bb a7 3b 24 25 9a 3a 4e ef 26 3d
       -0.04531367 0.005118741 0.0011760336 0.040755562
000080 b0 13 5b bc 75 4e 8f 3c 6e 50 10 3c 71 a7 eb bc
       -0.013371393 0.017493466 0.008808238 -0.028766366
000090 c3 e6 cf 3c 7e 95 3a bd 75 96 c1 3c 41 dc ba 3c
       0.02537859 -0.045552723 0.023631314 0.022810103
0000a0 66 73 a7 bc f2 78 bf ba 5c ff 1e 3c 46 67 61 bb
       -0.020440768 -0.0014608188 0.009704437 -0.003439383
0000b0 be 05 27 3c 9b 03 a3 3c 70 d6 04 bd 99 08 8e bc
       0.01019424 0.01989918 -0.032431066 -0.017338084
0000c0 30 5e a1 3c 88 7e 45 bc 80 04 a4 bc 5c bb 2a bc
       0.019698232 -0.012054093 -0.020021677 -0.0104206465
0000d0 42 14 16 bd 06 99 e8 bc 07 41 c8 bc 61 58 8c bb
       -0.036640413 -0.02839328 -0.02444507 -0.0042829965
0000e0 b9 3a e3 bc 8b 1f 19 3d 2b e3 c4 bc 34 95 aa bc
       -0.027737962 0.037383597 -0.024034103 -0.020823099
0000f0 9f f9 eb 3c 49 d4 13 3d 4b 3d 17 bd 59 b7 83 3c
       0.028805552 0.036091123 -0.036923688 0.016078638
000100 cd 66 cf bb 37 69 df bb d5 fa bf 3c fe 12 d5 3b
       -0.0063293935 -0.0068179625 0.023435036 0.006502508
000110 a8 78 93 ba ad a8 92 3c 2a 9f a0 bb eb ec 7f 3b
       -0.0011251168 0.017902697 -0.0049017863 0.0039051126
000120 ab f4 3e 3c ee f5 b8 bb d1 43 b9 bc f2 5e 33 bc
       0.011655013 -0.0056445515 -0.022615345 -0.01094793
000130 8c a2 18 3c 28 1b f1 3b b3 d3 48 3c 13 31 12 bd
       0.009316098 0.0073579736 0.012257504 -0.035691332
000140 63 d3 6c bb 12 7b 08 ba a5 fd a8 bc 99 d5 56 bc
       -0.0036136738 -0.0005206327 -0.02062876 -0.013112449
000150 a2 df c3 bc e0 f3 07 bd 5a 65 ce bc 0e ea 27 bd
       -0.023910347 -0.03319156 -0.025194813 -0.040994696
000160 19 ee 1f bd 5b 7c 0d bd ba 25 70 bc c8 13 0b 3d
       -0.039045427 -0.034542423 -0.014657432 0.03395441
000170 c5 66 f6 bc 91 52 f9 bc 73 4f 1a bd 81 77 f0 38
       -0.030078301 -0.030434879 -0.037673425 0.00011466351
000180 eb 9e eb 3b e6 bb 07 bd 9c e7 95 3c f1 4b ab bc
       0.0071905754 -0.03313818 0.018298917 -0.020910235

tan1.weight f4 [100, 100]
000000 6a c0 38 bd b2 6c 51 3d 9f 43 8b 3d 8c 74 f2 bc
       -0.045105375 0.05112905 0.06800007 -0.02959659
000010 77 45 72 bd 00 d4 2b 3a ed e8 36 bd a0 11 60 3b
       -0.059148278 0.0006554723 -0.04465573 0.0034190193
000020 c6 36 07 3d 75 4c 84 bd f0 be 24 3c 33 51 c6 3d
       0.03301122 -0.064598955 0.010055289 0.09683456
000030 ba 9e c5 bd b9 e4 c7 3d 23 97 ca 3d b9 90 bb 3d
       -0.09649415 0.09760422 0.09892108 0.09158463
000040 36 0f 4c 3d 4e 2e 2a 3d 4d c4 bb 3d 83 2f 34 bd
       0.049819194 0.041548066 0.09168301 -0.043990623
000050 d4 a5 8d bc c0 25 60 bc 30 35 2c bc a8 75 48 bc
       -0.017290987 -0.013680875 -0.010510728 -0.012235083
000060 12 65 6c 3d fc 8e f8 3c b1 c5 8f 3d 82 5e a2 bd
       0.057713576 0.030341618 0.070201285 -0.07928182
000070 00 f2 8a 3b 3d 43 64 bd de bc 74 3d 43 a7 59 bd
       0.0042402744 -0.055728186 0.05975043 -0.05313803
000080 0d ab 6b bd 39 09 9a 3d 56 23 a3 bd 48 1c ec bc
       -0.057536174 0.0752129 -0.07965724 -0.02882208
000090 ef 14 a7 3d d7 d1 7c bd 3d 52 3a bd 1e d9 00 3d
       0.0815829 -0.061723556 -0.045488585 0.03145706
0000a0 1f dc b7 bd 73 a9 36 bd 09 72 cc 3d 80 ee 97 bd
       -0.08977532 -0.044595193 0.09982688 -0.07418537
0000b0 a0 67 a4 3b 6c ad b8 3c 04 21 17 bd c1 5b 88 3d
       0.005017236 0.022543631 -0.03689672 0.06658126
0000c0 4c 93 d6 3c 40 ce 27 3b d2 5d 01 3d da 9b 0b bd
       0.026193283 0.0025605112 0.031583615 -0.03408418
0000d0 4b f7 85 3d c0 a6 71 3b 98 08 9f bd 83 4c 9c 3d
       0.06541308 0.0036873072 -0.07765311 0.07631781
0000e0 c0 0f ef bc 13 90 6a bd f7 e7 1e bd a0 10 a8 3b
       -0.029182315 -0.057266306 -0.038795438 0.005128935
0000f0 32 38 55 3d e0 28 43 bd 63 3a 90 3d e2 cd 71 3d
       0.052055545 -0.047646403 0.070423864 0.059034236
000100 5c d8 15 bd 3a 60 6f bd 8c 27 9d 3c 36 37 31 3d
       -0.03658329 -0.05844138 0.019183896 0.043265544
000110 6a f6 57 bd c0 f2 ff bc de e5 49 3d c6 f9 93 bd
       -0.052725233 -0.031243682 0.049291484 -0.07225375
000120 98 00 6a 3c dd 66 28 bd 5c 9d d1 3c 34 48 87 bd
       0.014282368 -0.041113723 0.02558773 -0.066055685
000130 c0 8c 41 bc c2 68 7c 3d 28 e0 b4 bc c2 dd 14 3d
       -0.011813343 0.061623342 -0.022079542 0.036344297
000140 77 c9 4c bd 74 eb d7 bc 23 d4 b4 bd 46 3b 3f 3d
       -0.04999682 -0.02635739 -0.08829524 0.046687387
000150 b6 2d 8f bd 8d af a9 bd d0 4c a1 bb 78 0a 95 3c
       -0.069911405 -0.08285437 -0.004922487 0.018193468
000160 ae ff 30 3d b4 b1 f0 bc 45 8a 9b bd 61 79 c2 3d
       0.043212585 -0.02938161 -0.07594732 0.094958074
000170 82 19 57 3d e8 12 87 bd 5f 1b 8e 3d aa 6b a3 bd
       0.05251456 -0.06595403 0.06938814 -0.0797952
000180 c6 7c 5a 3d 76 b8 11 bd cb 13 b3 3d 56 ec 6e 3d
       0.05334165 -0.035576306 0.087440096 0.058330856
000190 95 99 b7 3d ee 3f 83 bd e8 68 05 bc 5a e0 3c 3d
       0.0896484 -0.06408678 -0.008142687 0.046112396
0001a0 a0 53 88 bb 76 43 86 bd 70 65 4a bc b7 21 8b 3d
       -0.0041603595 -0.06555836 -0.012353286 0.0679354
0001b0 61 75 9d 3d 30 9f e1 bb af 0b ae 3d 4a 95 21 bd
       0.07688404 -0.0068854317 0.08498322 -0.039449014
0001c0 c0 83 09 3c 99 f1 87 3d 3d 91 4c bd 42 47 58 3d
       0.008393228 0.06637878 -0.049943198 0.05280233
0001d0 bb 3f c8 bd b9 55 80 3d dc 2d dc 3c 8d a7 5f bd
       -0.097777806 0.0626635 0.026877336 -0.05460315
0001e0 a0 88 a9 bd 00 3a c2 3a 90 76 13 bc 7b 9d 9b 3d
       -0.08278012 0.0014818311 -0.0090004355 0.075983964
0001f0 e5 38 c4 3d 13 b1 4e bd 41 5c bd 3d ca 72 14 3d
       0.09581164 -0.05046184 0.09246112 0.036242284
000200 40 a9 52 3c d8 da c5 bd 03 a1 b4 bd 0c d1 e5 bc
       0.012857735 -0.09660882 -0.08819773 -0.028053783
000210 ac 2c e8 bc da 88 73 3d ab 4d 83 3d 80 3c b7 3b
       -0.028341614 0.059456684 0.06411298 0.005591929
000220 06 09 76 3d 61 27 c6 3d 98 26 cc bd 40 43 41 bb
       0.0600672 0.0967548 -0.09968299 -0.0029489547
000230 fb 5e bf bd 18 f9 80 3c c5 bc c9 bd db 16 c6 bd
       -0.09344288 0.015743777 -0.09850458 -0.09672328
000240 d5 d8 ac bd 8f 11 b4 3d 99 7b b1 3d 42 90 2d 3d
       -0.08439795 0.087924115 0.086661525 0.042373903
000250 22 e8 1f 3d ca 20 1f 3d a8 d4 ed bc 62 a7 63 3d
       0.03903974 0.03884963 -0.029032066 0.05557955
000260 9e 23 71 3d 49 a9 a4 3d 87 f5 8f 3d 66 d5 9b bd
       0.058871858 0.08040101 0.070292525 -0.07609062
000270 3d db 94 3d e8 5f 83 3c a9 bb bb 3d ba 07 33 3d
       0.07268379 0.016036943 0.09166653 0.04370854
000280 d8 5d 7e bc 40 4e 2d 3c 80 23 44 bc 50 78 de bb
       -0.015525304 0.010577738 -0.0119713545 -0.0067892447
000290 30 e8 ca bd 30 17 55 bc b2 69 a1 bd 8a be 87 bd
       -0.099075675 -0.013006017 -0.07881488 -0.06628139
0002a0 a6 d2 58 3d 08 a9 84 bd f0 32 31 bc be 80 52 3d
       0.052935265 -0.06477553 -0.010815367 0.05139231
0002b0 e0 97 da bc ea 57 1b 3d aa fd 92 bd 24 02 19 bd
       -0.026683748 0.03792564 -0.07177289 -0.037355557
0002c0 5a 95 04 3d 11 36 ae 3d e0 28 9c bd 40 45 7c 3b
       0.032368995 0.08506406 -0.07624984 0.0038493425
0002d0 92 7d c9 bd ea 98 33 3d 82 be 1c 3d f1 42 c3 3d
       -0.09838404 0.043847002 0.03826762 0.095342524
0002e0 83 de 1d bd 21 a4 b2 3d c8 ec 88 bc 8f e7 ae 3d
       -0.03854228 0.08722711 -0.016714469 0.0854026
0002f0 54 52 80 bd 3d d4 b2 bd 12 00 c3 bd 43 4e 73 bd
       -0.06265703 -0.087318875 -0.09521498 -0.059400808
000300 30 b4 94 3b 21 ae af 3d 08 9d c1 3c 2b 4c c3 bd
       0.0045380816 0.08578134 0.023634449 -0.09536012
000310 7a 1c 34 bd cb ce 91 3d ba 65 6e 3d 82 73 3b 3d
       -0.04397247 0.07119521 0.058202483 0.045764454
000320 70 39 c3 bd e1 cb c5 3d 70 c2 8a bd b3 a7 b7 bd
       -0.0953244 0.096580274 -0.06775367 -0.08967533
000330 25 fd 9f 3d 21 a2 c7 3d 59 30 a1 3d 6f f2 b8 bd
       0.07811955 0.097477205 0.0787055 -0.090306155
000340 00 e7 f4 3b 20 09 82 bc fe d6 a3 bd 58 d9 36 bc
       0.0074738264 -0.015873492 -0.07999991 -0.011160217
000350 a8 06 6e 3c 95 34 80 3d 28 96 27 bc e3 14 b7 bd
       0.014527954 0.06260029 -0.010228671 -0.08939531
000360 98 d8 86 bc 80 eb 9e bc 80 bd 5c ba 45 d4 c3 3d
       -0.016460702 -0.019399405 -0.00084205717 0.095619716
000370 b8 80 f4 bc c9 48 8c 3d 47 c4 a3 3d 5a c1 2d bd
       -0.029846534 0.0684982 0.07996421 -0.042420723
000380 a8 a2 70 3c bc f5 d6 3c d0 2b b7 bd d3 71 6b bd
       0.014687218 0.026240222 -0.089439034 -0.057481598
000390 74 70 81 bd cd bb 24 bd d2 e0 0b 3d bd 93 cb 3d
       -0.06320277 -0.040218163 0.034149952 0.09940288
0003a0 fa 55 54 bd 3d 8c c4 bd 93 bc 3c bd db 5c b3 bd
       -0.051839806 -0.09597061 -0.046078276 -0.08757945
0003b0 60 1d 65 bb da 6f 2a 3d 50 12 1b bd a8 f1 1f bc
       -0.0034960136 0.041610576 -0.03785926 -0.009762205
0003c0 7f 06 b9 bd 45 bc c9 bd 5a bf 13 bd da f1 1d 3d
       -0.09034442 -0.09850363 -0.03607116 0.038560726
0003d0 d7 37 44 bd fa 0c 1d bd 3a a8 b9 bd 40 30 2d 3c
       -0.047904816 -0.038342454 -0.0906529 0.010570586
0003e0 a6 82 44 3d ce 2a 1e 3d 78 33 f1 bc fb fd b4 3d
       0.04797616 0.03861504 -0.029443488 0.088375054
0003f0 7e 74 80 bd 44 9d e2 3c 3c 02 03 bd f2 04 56 3d
       -0.06272219 0.02766288 -0.031984553 0.05225081

tan1.bias f4 [100]
000000 e0 c2 24 bd e6 1f 3a 3d 16 7d 08 3d 5b 96 a3 bd
       -0.04022491 0.045440577 0.033322416 -0.079876624
000010 e8 ce 9c bd d9 f6 9c 3d d8 fd 69 3c 85 87 a2 bd
       -0.07656652 0.0766427 0.0142817125 -0.079360045
000020 6e 8a 16 3d 97 74 50 bd f6 a6 11 3d 30 c7 3f bc
       0.03675311 -0.05089244 0.035559617 -0.011705205
000030 3e 44 3b 3d a0 7d 68 3b 17 b5 20 bd da 08 85 bd
       0.045719378 0.003547527 -0.0392352 -0.06495829
000040 d1 6d 91 3d 90 a3 46 3c 8e 01 0d 3d 61 58 a5 3d
       0.07101024 0.012123957 0.03442531 0.080734976
000050 98 d1 44 bc 12 9b 3b 3d a0 cb 8e bb 6c cc 87 3c
       -0.012012862 0.045802183 -0.00435777 0.016576968
000060 6f a9 a3 3d e8 8f cc bd 16 6b 73 3d 06 ab 60 3d
       0.07991301 -0.099883854 0.059428297 0.0548506
000070 c0 b9 31 3c 7b 07 ab 3d 15 0b 8d 3d 98 97 8c 3c
       0.010847509 0.08351036 0.06886879 0.01716213
000080 ac 17 fe 3c 23 73 a2 3d 58 71 f7 bc 6c c6 e8 3c
       0.031017147 0.07932117 -0.030205414 0.028414927
000090 17 6e 38 bd 72 05 4c 3d 0c 6b ac 3c ea 7d a4 bd
       -0.045026865 0.04980988 0.021047138 -0.08031829
0000a0 04 c3 d9 3c 21 13 86 3d c5 10 87 3d 00 47 68 3c
       0.026582249 0.06546617 0.065949954 0.014177084
0000b0 c2 1e 5e 3d 6d 7b 68 bd e0 35 b5 3b 29 84 9c 3d
       0.05422855 -0.056758333 0.005530104 0.07642395
0000c0 02 fe 08 3d 35 43 9a bd 07 29 a1 3d 4c ea 09 bd
       0.033445366 -0.0753235 0.078691535 -0.03367071
0000d0 f0 13 ba bd f7 d5 2b bd f9 df 98 3d d0 4f 03 3c
       -0.09085834 -0.0419521 0.074645944 0.008014634
0000e0 80 3b cd 3b f2 6a 02 3d e9 ba 99 3d 57 33 9d 3d
       0.0062631965 0.031840272 0.075063534 0.07675808
0000f0 e0 a1 89 bc 07 d8 9f 3d 0b 58 9d 3d 00 2a fe 3a
       -0.01680082 0.07804876 0.076828085 0.0019391179
000100 b0 1f f6 bb eb 1d c1 bd a5 0f 8b bd 87 84 a6 3d
       -0.0075111017 -0.094295345 -0.06790093 0.08130746
000110 b3 6b 31 bd e2 e9 58 3d 90 9f 27 bd 64 27 ec 3c
       -0.0433156 0.052957423 -0.040923655 0.028827377
000120 89 79 8f 3d 00 f0 d0 3b f0 11 16 bd 60 d7 48 bb
       0.07005603 0.0063762665 -0.0366382 -0.0030645952
000130 a3 f4 90 3d ae cd 09 3d d5 54 96 bd d6 42 69 3d
       0.07077911 0.033643417 -0.07340399 0.056948505
000140 13 fa 7d bd 29 4a b4 3d 8a 4d 12 bd e2 57 42 3d
       -0.062006067 0.088032074 -0.03571848 0.047447093
000150 95 cb 9d 3d 48 b3 ff bc b2 23 1b 3d 39 43 c5 3d
       0.07704846 -0.031213418 0.03787584 0.09631962
000160 a8 f1 77 bc 18 3c 8e bc e8 ce f2 bc 00 f8 50 3b
       -0.015133299 -0.01736264 -0.029639676 0.00318861
000170 40 fc 8e bd 50 cd 7b bd 98 93 71 bc f4 33 ed bc
       -0.069817066 -0.061475098 -0.014744662 -0.028955437
000180 a3 a4 8e 3d e7 f9 b2 bd cc 16 9c bc 95 46 bb bd
       0.06964996 -0.08739071 -0.01905384 -0.09144322

sentattn.weight f4 [100, 100]
000000 0f c2 c3 3c 5e 1d 95 bd 6f 26 ad bd f2 ec b6 3d
       0.023896245 -0.07280992 -0.08454596 0.089319125
000010 13 84 17 3b cc 90 27 3d 81 cc 83 3d 8d d9 96 3c
       0.0023119494 0.040909573 0.064354904 0.018414283
000020 76 f1 d3 bc 2a 29 b1 ba 42 1c e9 bb 74 a3 cb bd
       -0.025871973 -0.0013516296 -0.0071139643 -0.099432856
000030 47 70 ca ba a2 18 96 bc e9 7c 93 3d 79 a6 7d 3d
       -0.0015444838 -0.018322293 0.07201559 0.06192634
000040 69 34 c0 bd 7a 8f 87 bd 8e ae ca bd c8 f6 97 bc
       -0.093849964 -0.06619163 -0.09896575 -0.018550292
000050 a9 e7 9f 3d f7 d5 3f bc 94 f8 91 bd 4f b0 95 3d
       0.078078575 -0.011708728 -0.07127491 0.07309019
000060 82 5a bc bd 12 45 28 3d e5 58 04 3d 43 f7 81 bd
       -0.091969505 0.041081496 0.03231134 -0.063459896
000070 58 5e 96 bd 81 52 af bc 8e 51 68 bd ec 2b f7 bc
       -0.073422134 -0.021401646 -0.0567184 -0.03017231
000080 f3 73 1c 3d 6b 1d 23 3d a9 78 9a bd 9b 28 a7 3c
       0.038196515 0.039822977 -0.07542545 0.020405104
000090 0d 5c c6 bd b8 82 7d bd 70 7c 08 3d 30 44 b3 3c
       -0.09685526 -0.06189224 0.033321798 0.0218831
0000a0 ed 56 54 bd a1 3c a9 bd c9 37 c5 bd d6 34 c3 bd
       -0.05184071 -0.08263517 -0.09629781 -0.09531562
0000b0 08 61 62 3c 9b ff 02 bd e1 6e 9b 3b f0 d5 19 bd
       0.013817079 -0.031982046 0.0047434424 -0.037557542
0000c0 9c aa 15 3d c4 28 76 3d 0c 43 65 bb 1f 6e b2 3d
       0.03653966 0.06009747 -0.003498259 0.0871241
0000d0 6f 1f 0c 3d 7a 57 a6 bd 7c 1f 8a 3d 82 66 33 3d
       0.034209665 -0.081221536 0.067442864 0.04379893
0000e0 8e d4 2b bc 79 45 3c bd 57 0f 9d bc 4b 24 c0 bd
       -0.010487689 -0.04596469 -0.019172354 -0.09381922
0000f0 79 b7 a5 3c 59 16 c6 bc 4b 0f 80 3d aa dd 77 bd
       0.020229088 -0.024180578 0.06252917 -0.06051413
000100 01 9f c7 3d 96 35 03 ba 6f 90 a7 3d f7 e7 4b 3d
       0.097471245 -0.00050052383 0.081818454 0.049781766
000110 b8 c6 3e bd c8 c1 45 bd 5c 96 ac bd 0e 67 cc bc
       -0.04657623 -0.048280507 -0.08427116 -0.024951484
000120 ce 4c c6 3d 88 94 91 bc b3 ad 5d 3d 65 ed de bb
       0.09682618 -0.01777102 0.05412073 -0.006803202
000130 15 91 41 bd 59 b6 6d 3d 09 11 9f 3d b4 d0 b2 3d
       -0.0472575 0.05803523 0.07766921 0.08731213
000140 4d 08 b7 bd 9e fd 6c bd 31 45 85 bd 86 29 dd bc
       -0.0893713 -0.057859056 -0.06507338 -0.026997339
000150 f4 d2 c6 3d 52 7b 39 3d 7d 9f b6 3b 4b e1 14 bd
       0.09708205 0.045283623 0.0055732117 -0.03634767
000160 a7 f5 9a 3d 32 41 c5 3d 8a 01 b7 3d 5f 60 aa bd
       0.07566386 0.09631576 0.089358404 -0.083191626
000170 e1 0e 1c 3d 5c 6d 50 bd 6a 20 c6 bd fa 9b 7a bd
       0.038100127 -0.050885543 -0.09674151 -0.061183907
000180 d8 c9 6b 3d 6a 1d 85 3c 9b b3 9c 3d a3 8f c5 3d
       0.05756554 0.016249377 0.076514445 0.09646537
000190 52 40 23 bc 40 c4 2f bd 59 fd 82 3c 71 80 8a bc
       -0.009964066 -0.042911768 0.015989946 -0.016906949
0001a0 28 62 df 3c 0a 70 c2 bd 00 1e 98 3d e8 2a 5b 3d
       0.027268484 -0.09494026 0.07427597 0.053507715
0001b0 77 ff 8f 3d 44 c9 7e bd 89 33 de bc 04 75 1d bd
       0.07031148 -0.06220366 -0.027124183 -0.038441673
0001c0 11 af fa bc 90 47 ec bc e0 05 b5 bd ae 65 69 bc
       -0.030601056 -0.028842717 -0.08839011 -0.014245434
0001d0 47 e9 c3 3d 37 e4 97 bd 1b 45 2a 3d 42 a7 ba 3a
       0.095659785 -0.074165754 0.04156981 0.001424052
0001e0 b1 9d a2 3d d3 79 77 bd 11 b1 79 3d 35 d2 d4 3c
       0.079402335 -0.060418915 0.06095988 0.02597914
0001f0 f8 ed 75 bc 77 3f c2 3d 40 74 5d bd 82 aa a1 bd
       -0.015010349 0.09484761 -0.054065943 -0.0789385
000200 20 10 a4 bd 10 14 e8 bb 2a 2f 27 bd 1d 0f 76 bd
       -0.08010888 -0.0070824698 -0.040816464 -0.060073007
000210 b0 82 9c 3d c1 5c c9 bb 7e 51 ca 3d 55 91 4d 3d
       0.07642114 -0.0061450903 0.09878825 0.050187428
000220 9e b4 f3 bc 9a 33 d3 3b cb 2c df 3c 2b fb 18 bd
       -0.02974921 0.0064453604 0.027243039 -0.037348907
000230 78 d3 ce 3c d0 d2 54 3d 4e ab 18 bc 86 04 cb bd
       0.02524732 0.05195886 -0.009318186 -0.09912972
000240 cb c5 3b bd 40 44 bf bd 70 02 93 bb 1c 76 24 bd
       -0.045842927 -0.093391895 -0.0044863746 -0.0401517
000250 1a c0 b1 bd dd e1 b9 bb 4f b6 ce 3c ab b1 03 bc
       -0.086792186 -0.005672677 0.025233416 -0.008037965
000260 db c5 aa 3b f3 c5 8b bc b1 02 71 3d dd 14 5f bc
       0.0052115745 -0.017062163 0.058840457 -0.013615814
000270 99 2f 1f bd 26 f5 fb bc f1 80 c3 bd 6c 6e 2c 3c
       -0.038863752 -0.030756544 -0.09546078 0.0105243735
000280 ec 34 07 bd 28 ff b8 3d 5d 7c 8b 3d 36 78 9c 3d
       -0.033009455 0.09033042 0.0681083 0.07640116
000290 0e 60 62 3c f6 39 bf 3b 1d 57 47 bd 7f 92 01 bc
       0.013816847 0.005835767 -0.048667062 -0.007908463
0002a0 03 90 90 3d 30 57 86 3d 8e a8 4e 3d f9 83 87 bd
       0.07058718 0.065595984 0.050453715 -0.06616969
0002b0 25 a7 4a bd b1 26 08 3d 19 40 51 3d 84 cf 0d bd
       -0.049475808 0.033240024 0.05108652 -0.03462173
0002c0 d5 26 fc 3c 68 f9 c9 3d 59 fb b9 bd d5 ca 33 ba
       0.030780235 0.098620236 -0.09081144 -0.00068585324
0002d0 b4 3d 96 3d ca 40 c2 bd b0 3c 7b 3d 17 ad 53 bc
       0.07335988 -0.09485014 0.061337173 -0.012919686
0002e0 e0 12 bd 3d 9c bd cc 3d 60 4d 12 bd 69 57 79 3d
       0.09232116 0.099971026 -0.03571832 0.060874376
0002f0 6b 91 64 3b 09 55 95 3d c8 71 10 bc 6c 59 9e 3d
       0.0034876715 0.0729161 -0.00881619 0.077318996
000300 2c 7c 39 bd 92 b7 9c 3d a9 67 6e bc f1 4b 0a 3d
       -0.045284435 0.07652201 -0.014551082 0.03376383
000310 eb 86 6a 3d 59 ea ae bc f4 9c a2 bd b0 36 75 3c
       0.057257574 -0.02135198 -0.07940093 0.014966652
000320 82 57 bc 3d 7e 1a 11 bd fd 28 ac bd 09 5e a7 3d
       0.09196378 -0.035425656 -0.084062554 0.08172233
000330 9f de 7c bd b6 19 c5 3d c4 2f e7 bc ff 1e bb 3c
       -0.061735746 0.096240446 -0.028221019 0.022841929
000340 70 50 9f 3d 2c 5f 5f 3d a3 fd 3a bc 33 c0 aa bd
       0.07779014 0.054534122 -0.011413011 -0.0833744
000350 73 92 99 bd 05 3a c7 3d 5f 6b 89 3d 21 24 b7 3c
       -0.07498636 0.09727863 0.067099325 0.022356095
000360 8f 08 95 3d 2b b8 a8 3d 84 76 3c bb 7f 7d ba bb
       0.07277023 0.08238252 -0.0028757164 -0.00569123
000370 37 f3 34 bb f0 16 b5 3d d7 fd 5c 3c fe b0 a6 bc
       -0.0027610788 0.088422656 0.0134882545 -0.020348068
000380 5d d0 cc bc 1d 6e b9 3c 2b aa 49 bd 2e c4 07 bd
       -0.0250017 0.022635514 -0.04923455 -0.033146076
000390 79 61 8d 3d f5 01 0e bd 8f 0e 20 bd 69 c2 54 bd
       0.06903357 -0.034669835 -0.039076384 -0.051943216
0003a0 36 e4 97 bc 86 ba b5 bc 23 16 9f bd f9 d4 bd 3d
       -0.018541437 -0.022183668 -0.07767894 0.09269137
0003b0 de f2 10 3b 5b 2e 9c bd fc 7e 9c 3b 93 42 c1 3d
       0.0022117416 -0.07626029 0.00477588 0.09436526
0003c0 ea a6 c1 3d 98 6a 48 3c 85 9b ed 3c 42 05 6f 3d
       0.094556645 0.012232445 0.029004822 0.058354624
0003d0 42 e6 5b 3d 6d b1 e8 bc 53 c5 90 bb 3c dd ad 3d
       0.053686388 -0.028404916 -0.004418054 0.08489463
0003e0 a4 9c 4a 3d c6 2d 3e bd 4a 31 02 bd b0 7f 6b 3d
       0.04946579 -0.04643037 -0.031785287 0.05749482
0003f0 34 81 b4 bd 89 9f 95 3d c6 49 97 3d 45 33 c8 3c
       -0.08813706 0.073058195 0.07387118 0.02443851

sentattn.bias f4 [100]
000000 33 0b ba bd 51 d4 01 bd 06 01 ba bb d8 d8 a9 bd
       -0.09084167 -0.03169662 -0.0056763915 -0.08293313
000010 6d b2 c2 bd 6e 65 3b 3c 88 13 9c bd 5d d1 20 3d
       -0.09506688 0.011437757 -0.07620913 0.039262164
000020 19 0e b6 3d 3b af 40 3b bf a2 ad bd 31 93 a5 bd
       0.08889408 0.002940132 -0.08478307 -0.08084715
000030 d9 4e c3 3d b1 c2 3a 3d ae a9 87 3c af 6f b8 3c
       0.09536523 0.04559583 0.016560402 0.022514192
000040 a6 07 92 3d 12 5f c8 3d 59 d9 92 bd 0a e3 94 bc
       0.07130365 0.09783758 -0.07170362 -0.018174667
000050 16 81 65 bd 23 9a c3 3d 43 f2 9e 3b 3f 31 ad bd
       -0.05603131 0.095508836 0.004850657 -0.084566586
000060 21 0e 7e 3d 3b c4 09 bd 6d 70 51 3c 1c 87 b0 3c
       0.062025193 -0.033634406 0.012783152 0.0215488
000070 43 0a 7a bd 30 7f e9 bc b7 b0 06 bc df 65 a9 bd
       -0.061044943 -0.02850303 -0.008220843 -0.082713835
000080 ba ac 9f 3d 70 22 c1 bd a3 ce 70 bd 32 ce a0 3d
       0.07796617 -0.094303966 -0.058790814 0.07851829
000090 00 16 b2 3d 30 78 bc bd c4 ca 84 bd 24 d5 74 3d
       0.086956024 -0.092026114 -0.06483987 0.05977358
0000a0 8f 64 50 bd b3 42 40 3d f3 b5 1b 3c b3 0e 87 bd
       -0.05087715 0.04693861 0.009503829 -0.065946005
0000b0 c7 f8 b6 3d 3a 0a 61 bc f7 e3 ab bd d0 4e 83 3d
       0.08934169 -0.013735348 -0.0839309 0.06411517
0000c0 76 b4 04 3d 0d 2e 3b bd 78 7c 85 bc b7 b2 c9 3d
       0.032398663 -0.045698214 -0.016294703 0.0984854
0000d0 63 63 5e bd b6 93 a0 3d a0 4a 96 bd 38 2f 94 3d
       -0.054294 0.078406736 -0.07338452 0.07235569
0000e0 e9 90 a3 3d 39 7d 81 3c 21 13 81 bd 4e a3 a3 bd
       0.07986624 0.015806781 -0.06302477 -0.07990132
0000f0 50 f8 aa bd b0 52 4e bd fe 88 18 3d a1 91 24 3d
       -0.08348143 -0.050371826 0.03724002 0.040177945
000100 26 aa 56 bd cb 2a 0b bd 96 36 15 bc 09 97 73 bd
       -0.05240836 -0.033976357 -0.009107253 -0.05947021
000110 44 12 a5 bd 1d 3d 24 3d 42 5b 64 39 6d f6 bc bd
       -0.080601245 0.040097345 0.0002177777 -0.092266895
000120 5c e2 93 3d 6e ca 95 bd ec dd 8b 3d 66 29 90 bd
       0.07220909 -0.07314001 0.068294376 -0.07039146
000130 de ff 2f bd d4 38 47 bd 2b ef ce bc 41 e5 00 3d
       -0.042968623 -0.04863818 -0.025260529 0.031468634
000140 1d 96 4b 3d 26 f0 14 3c 5a e3 a6 3b 80 e7 a4 bd
       0.049703706 0.009090459 0.0050930204 -0.080519676
000150 46 fd 9f bd 64 d5 19 bd cf 35 8e bc c3 d2 5e 3d
       -0.0781198 -0.03755702 -0.017359642 0.054400217
000160 f3 f2 f1 3c 23 d3 a2 bd ce 76 5f bd fa cd 75 3c
       0.029534793 -0.079504274 -0.05455666 0.015002722
000170 ec d1 a1 bc 83 6b 2a 3d ef cd 60 bd 50 df 49 3d
       -0.019753419 0.041606437 -0.054883894 0.049285233
000180 11 0c 95 3d c7 22 89 3d e4 d0 2c 3d ba 32 61 bd
       0.07277692 0.066960864 0.0421914 -0.054980017

attn_combine.weight f4 [100, 100]
000000 33 e3 a9 bd e2 57 c5 3d a8 85 94 bd 6c 6b 1f bc
       -0.08295288 0.09635903 -0.072520554 -0.009730201
000010 5b 49 a0 bd 92 b2 a8 bd 0f 9c 9a bc 5d 2d 4d bd
       -0.078264914 -0.082371846 -0.018873243 -0.05009209
000020 ee 37 3f bd 53 74 99 bd 33 5a be bd b8 e3 b8 bd
       -0.046684198 -0.0749289 -0.09294548 -0.09027809
000030 e6 60 5d 3d ff 16 a6 bd 85 89 5a bd 70 12 b9 3d
       0.054047488 -0.08109855 -0.053353805 0.0903672
000040 c3 43 72 bd 0b 45 b6 bd f8 fc 3d bd 24 3b ca bd
       -0.059146654 -0.08899888 -0.046383828 -0.098745614
000050 7e 95 46 bd 4b cc 24 bd 80 dc 9c 3d 5c 56 16 bd
       -0.04848241 -0.04023389 0.076592445 -0.036703452
000060 00 4e 7f 3c 3a ca cf bb df 98 1a 3c 4a 15 97 3d
       0.0155825615 -0.006341246 0.009435861 0.073771074
000070 d8 6e bb bd be a3 3e 3d e1 b8 b5 bd 92 4f 19 3d
       -0.09152001 0.046542875 -0.088731535 0.0374294
000080 4d 0e c8 bd ca 9d 3f bd e7 26 a6 3d 89 f7 96 bb
       -0.09768353 -0.04678134 0.08112889 -0.004607145
000090 3f 0a 10 3d d9 92 31 bc 72 23 d8 3c 2a 08 b7 3d
       0.03516602 -0.010838234 0.02638409 0.08937104
0000a0 f1 80 89 bd e2 62 a1 bd 75 26 b1 3d 6d f5 bf 3a
       -0.06714047 -0.078801885 0.08649913 0.0014645286
0000b0 fe d7 bf bd c5 f5 c1 bd 1a 45 f1 3c 20 2f 9b bc
       -0.09367369 -0.09470705 0.029451896 -0.01894337
0000c0 31 ed 15 bd cc 8a 86 bd 3e d8 37 bc a3 bf 91 3a
       -0.036603156 -0.06569442 -0.01122099 0.0011119734
0000d0 e8 0a 6b 3d f1 2c 2a bd 93 21 c0 3d c6 6c 4a bc
       0.057383448 -0.041546766 0.09381404 -0.012355035
0000e0 d5 e0 d8 bb 51 d8 97 3d cb 4f bf 3d 91 e7 6b bd
       -0.006618599 0.07414306 0.09341391 -0.057593886
0000f0 6e 84 c4 3c 20 b2 b9 3c 80 b4 b4 bd 4b fa bf 3d
       0.023988929 0.022667944 -0.0882349 0.093739115
000100 a5 24 28 bd a7 af 09 bb a8 b8 cf 3b 7c 20 98 bd
       -0.041050572 -0.0021009238 0.0063391514 -0.07428071
000110 14 e1 af bc d8 ca d9 3c 40 13 c3 3d 6e 14 e8 bb
       -0.02146963 0.026585981 0.09525156 -0.0070825135
000120 9b f7 57 bb 90 10 b0 3d e6 34 cf 3d 3d 3a 52 bd
       -0.003295398 0.08596909 0.101175115 -0.05132507
000130 43 27 a2 3d 37 07 b9 3d b6 d1 0f bd bc cc 1b bd
       0.07917645 0.09034579 -0.035112105 -0.038037047
000140 8a f0 17 3c db d0 1f 3d db 09 5f bd b1 19 f6 bc
       0.009273658 0.03901754 -0.05445276 -0.030041547
000150 bd 04 0d bd da 5f 83 bd e2 f5 0f bb 77 7d c1 bd
       -0.034428347 -0.064147666 -0.0021966626 -0.09447759
000160 f8 ab 93 3d 02 87 25 3d 26 2e ae bd 66 81 63 3d
       0.07210535 0.040411957 -0.08504896 0.055543326
000170 f4 70 e1 bc 0e 1c a5 bd c3 b6 9c bd 67 52 04 3d
       -0.02751968 -0.08061992 -0.076520465 0.032305147
000180 2b 3a 27 bd 3e 07 2b bc ac 50 51 3d 8f 2f 80 bd
       -0.040826958 -0.010438738 0.051102325 -0.06259071
000190 2b 38 17 3d 2d 0b 98 3d 83 64 30 bc 2d f1 86 bc
       0.0369188 0.074240066 -0.010766151 -0.016472423
0001a0 ef 62 b5 3d c8 86 0c bd 93 8d 89 3d fc f2 82 3d
       0.08856761 -0.034308225 0.06716456 0.06394002
0001b0 31 37 b2 3d 21 6d 89 bd 3f 0a b4 bd a9 c8 ec 3c
       0.08701933 -0.06710268 -0.08791017 0.028904276
0001c0 8b 22 20 3d 2a 28 48 bd fd be 7b bd 6f ba 48 3d
       0.039095443 -0.04886643 -0.061461437 0.049005922
0001d0 80 42 98 3d 56 1f 59 3d c0 2d b5 3d 14 2f 27 bd
       0.07434559 0.0530084 0.08846617 -0.04081638
0001e0 18 09 70 3a 95 26 56 3c af 29 cd bd bf 00 82 3d
       0.00091566285 0.013070722 -0.10017716 0.063477986
0001f0 6d 8f aa bb 4d 89 d9 bc 07 d9 a8 bd f0 fa bf bd
       -0.005205086 -0.026554728 -0.0824452 -0.093740344
000200 e3 f8 19 bc ae 80 5c bd 5a e6 59 3d 64 69 69 bc
       -0.009397718 -0.053833656 0.053198196 -0.0142463185
000210 7c 9e 45 bd 59 1c c7 bd 3b 63 97 bd 12 e5 48 bd
       -0.048246846 -0.09722204 -0.073919736 -0.049046583
000220 79 3c cd 3d fd c0 b2 bb a5 fe 99 bd 1f 47 09 bd
       0.100213 -0.005455135 -0.07519273 -0.033515092
000230 5a c7 bb 3d bf 15 33 3d 44 e3 80 3d d4 89 a3 bd
       0.09168883 0.04372191 0.062933475 -0.07985273
000240 7f 8d b8 3d 73 1e 67 bd 7b 94 e9 3c f0 18 3b 3c
       0.09011363 -0.056425523 0.028513184 0.01141952
000250 eb 14 8a bd b3 a8 af 3c 42 e9 c0 3d d7 7c 6d bd
       -0.06742271 0.021442747 0.094194904 -0.057980385
000260 76 2f 9b 3d b9 5d 1f bc 40 d1 c8 3d 85 08 a2 3d
       0.07577412 -0.009726935 0.09805536 0.07911781
000270 f5 a2 4c 3d 2f a5 bb bd 47 c0 90 3d 05 1b c2 bc
       0.049960095 -0.09162366 0.07067924 -0.023694525
000280 40 f5 16 bb 9d 70 2b 3d 8b 5f 6e 3d f1 9f 92 bd
       -0.0023034364 0.041855443 0.058196586 -0.07159413
000290 f4 2b 40 3d 75 be 9e 3d ef 96 59 bc 28 51 ae 3b
       0.046916917 0.077511705 -0.013280614 0.005319733
0002a0 98 19 b0 bd a8 6c 4c bd 1a 91 09 3d 91 bc 2d 3c
       -0.085986316 -0.04990831 0.033585645 0.01060404
0002b0 0c 28 82 bd 25 80 10 3c 5a 8a ba 3d 10 77 c6 3b
       -0.063552946 0.008819615 0.0910842 0.006056674
0002c0 c4 38 ba 3d 3d 36 15 3d de 2e b0 3c 08 67 0c 3d
       0.090928584 0.03642868 0.021506723 0.034277946
0002d0 49 16 1e 3d e3 9a b4 3d ef 6b 94 bd 72 e9 39 bd
       0.03859547 0.08818605 -0.07247149 -0.045388646
0002e0 e6 86 7a 3d b2 f4 9c 3c c2 ba 23 bd 11 44 0d bd
       0.061163805 0.019159649 -0.039973028 -0.03448874
0002f0 c3 98 a1 bd db c8 43 bc d6 94 23 bd 3b 17 62 bd
       -0.07890465 -0.011949743 -0.039936863 -0.055197936
000300 57 3f 47 bd c7 9b 43 bd 0e 78 bf bd 2d dd e7 bb
       -0.04864439 -0.047755983 -0.093490705 -0.0070759268
000310 61 9d a2 bd f9 d7 4e 3c b1 e0 c4 bc 8d 23 0f 3d
       -0.07940174 0.012624734 -0.024032922 0.034946013
000320 dc fb bf bd 0a e2 b0 bd 99 ab b6 bc e2 e6 38 bb
       -0.0937421 -0.086368635 -0.022298621 -0.0028213789
000330 98 a8 07 bd 6e 44 ef 3c f5 16 35 bd c3 bf 96 3c
       -0.033119768 0.029207435 -0.044211347 0.018401986
000340 43 aa 7a 3d e6 6e 0b bd 02 12 c0 bd 21 3f 6e bd
       0.06119753 -0.034041308 -0.09378435 -0.058165673
000350 28 10 79 3d e5 90 c6 bd 26 f2 ac bc 4a 50 1b 3d
       0.060806423 -0.09695605 -0.02111156 0.037918366
000360 e2 5c 83 3d db 70 98 bd 6a b1 1c bd 11 ef 10 3d
       0.064142 -0.074434005 -0.038255133 0.03538424
000370 7b 1a 9b 3b 4b 94 9e 3d 5c 43 8a bd ec ba f1 3c
       0.0047333813 0.077431284 -0.06751129 0.029508077
000380 11 70 9e bd 9c 97 08 bd 15 af 8f bc 71 79 b3 ba
       -0.07736219 -0.03334771 -0.01753954 -0.0013692809
000390 44 b8 40 3d 11 d1 82 3d 0d cd 90 3c b9 5b be 3d
       0.04705073 0.063875325 0.0176759 0.092948385
0003a0 06 90 87 bd 76 ba a4 3d b6 90 13 3d ab 2e c4 bd
       -0.06619267 0.08043377 0.03602668 -0.09579214
0003b0 85 98 61 3c 90 4f bd bd e4 2f 01 3d 82 44 28 bd
       0.013769274 -0.09243691 0.031539813 -0.04108096
0003c0 76 dc 6f bd 23 31 e9 bc ef 50 f9 bc e6 bb 5d 3d
       -0.058559857 -0.028465813 -0.0304341 0.054134272
0003d0 f9 81 28 3d e0 9e cc 3d e4 ce 9a bc f3 c0 7d bd
       0.041139577 0.099912405 -0.018897481 -0.06195159
0003e0 13 e0 a4 bc 34 0f a3 bd 72 09 3c bd fb 1f 6e bd
       -0.020126378 -0.07961884 -0.045907445 -0.058135968
0003f0 e2 38 8f 3d f3 e1 62 3c 84 1c b3 3c 58 b5 aa 3d
       0.069932714 0.013847816 0.021864183 0.0833537
