weights/sent_attn_model_yelp_preprocessed1536426608.7283049.pth (torch_old, 436007 bytes, 10 tensors)

embed.weight f4 [89, 200]
00000000: c45c af3e 7dce 91bf 4bff 1e3f 59a6 a03e
00000010: 53bb 18c0 aec6 4cbf a27d 9cbd 3fff ba3e
00000020: 25af 08be dce5 c23e fa98 ffbe ddfc 73bf
00000030: 3e65 c8be e3b0 e1bd b092 a9bf b4ac 9f3e
00000040: ddb3 c33f 2b4f b13f 9ec9 13bf 925a 9ebe
00000050: eccc f03f 03a0 38c0 2704 163f f06d f6bf
00000060: da4c 853d 6b5f a43f 6d24 693f 69d4 ca3e
00000070: 426c d2bf 3381 37bf 3928 963f 08a3 b53f
00000080: f4b2 79bf ce5a 373e 762f b1be 47d0 89bf
00000090: 94e3 acbe 7bc9 4cbf 58be 63be d94e 9b3f
000000a0: 2b76 e5be bb5a 453f 3d1c 28bf 84f6 1e3e
000000b0: b8f7 10bf 3d2a a23f f8c2 b93f 2dc0 653f
000000c0: c368 8b3d edde 4a3e 076f a5bf 50e5 26be
000000d0: f6ac ebbd ef00 18be e017 3abf 7cf2 4dbe
000000e0: 0bfe 273f 5279 04c0 ca23 053f 48ff 283f
000000f0: 4afe c8be 725d 1ec0 5430 46be 2cf3 3c3f
00000100: 2d3d 45bd 0e24 4f40 f65f 06bf ad88 503f
00000110: 4233 9c3e 29be f8bf 459f 95be 884d 6cbf
00000120: 4181 92bf 5a49 093e 9f0b a03e 02c0 7e3f
00000130: cab1 91bf 9874 e33e b4be 60bf a864 683d
00000140: 3d15 c3be 15f6 9abe ecb0 3a3f cfb4 f73a
00000150: f3fa ee3e 4b2d c1be 09ce 4c3f c6d2 98bf
00000160: 070d 2ac0 2045 1b3f 4910 543f a49a 223f
00000170: a2e5 63bf 51f7 193f ee1d 60bf fd2c 553f
00000180: f66f 17bf 835b 8c3e 21fe b8bf 32bc 28bf
00000190: e835 c23f ae6b b2bd ae15 ccbe 8d6f 213f
000001a0: 913f 803d 4f65 97bf 25de 1a3e e00d 763f
000001b0: f418 02c0 ea72 783f f777 99bf cdba 9dbf
000001c0: f8c4 33bf 8722 383f 32d5 613e fac6 2c3a
000001d0: 2188 573d 20b6 6dbd 5b3d ef3f c746 4840
000001e0: d734 afbf 6ffe d7bf 0b9c b2bf 2436 df3e
000001f0: b97e 833f 4fa5 5cbf 4694 c5be 0063 72bf
00000200: 2c92 04c0 5db9 cb3e 547a 703f c7f7 96be
00000210: 6456 c5bd 4a6a 5d3e f38e 0e3f d215 07bd
00000220: ab70 bd3e c805 dbbe 1e37 b63d b820 c73e
00000230: c88f bf3e a853 863f a213 05bf 9de7 473e
00000240: 92f8 cb3e 0bbc 073f acf6 87bf 73ef d3bc
00000250: 8146 82be aa35 a4bf a4fc f3bf 11ac fd3e
00000260: 106e ca3e f0cc dd3f 0af8 883f a677 983f
00000270: 9c08 a13e 64a5 50bf e03a 15bf b4de d03f
00000280: 3a37 663f d8fe eabf e831 a1bf c6ec 0b3e
00000290: e449 de3e 2c8f 153f 3a06 0ec0 0054 053f
000002a0: 72f2 e4bd 6070 8cbe 8f35 8bbd a703 acbd
000002b0: 294a 143e a368 9abe 84d8 4ec0 cc02 5d3f
000002c0: 67c6 05c0 9b7b 2c3f 9d74 d53f ca36 27bf
000002d0: 2033 6bbe 3f57 54be 28f8 9abf ad8a 8d3d
000002e0: f735 c83f 21ce a33f 27b4 b7be 96a5 603f
000002f0: 6031 3e3d 9127 e3be baeb 99be de73 6e3f
00000300: 4846 673f 2d68 a83e 4d31 0bc0 92bc 793f
00000310: 2d20 4a3f 19d3 c13e 2c1d 33bf a6b0 493f
00000320: fb7a 6c3f f5b9 233f c26e 253f 9614 c6bf
00000330: eb09 ec3f f222 38bf d069 afbf fab6 433f
00000340: 4241 3b40 396b c2bf db03 abbf ec97 df3d
00000350: 8e54 75bd bc9f ad3f 5713 d8bf a137 f33f
00000360: f8ef fc3f dc5c b53c 766d 1b3e dd09 a0be
00000370: d3af 96bf 4a17 443f c2ba 0b3e 9460 3a3f
00000380: d182 c53e 9052 153f cb80 8cbe 3e22 e43e
00000390: e3b1 e13d a764 ccbf f0af 98be dd1d cc3e
000003a0: dfd6 b0bf 524e 8d3f f298 143e d6b9 35bd
000003b0: 0243 8f3f b992 553e d711 d2be 9fc5 33bf
000003c0: c990 c2be cbf4 a4be e1f1 babf 3dba 323e
000003d0: b9d5 e7bf 3afa 063f 8b33 373e ad80 3a3f
000003e0: 162e c83f f1f3 cc3f a07c d03f 6e26 54bf
000003f0: 4b0c ae3e b3e5 f63e 65bf fdbf 8ebc 7f3e
0.34250462 -1.139114 0.62108296 0.31376913 -2.3864334 -0.7999066 -0.0764115 0.36522862
-0.13348062 0.38065994 -0.499214 -0.95307714 -0.39139742 -0.110200666 -1.324789 0.3118645
1.5289265 1.3852285 -0.5772952 -0.30928475 1.8812537 -2.8847663 0.58600086 -1.92523
0.06508799 1.2841619 0.91071206 0.3961518 -1.6439288 -0.7168152 1.1731025 1.4190378
-0.97538686 0.17905733 -0.34606522 -1.0766686 -0.33767378 -0.79994935 -0.22240579 1.2133437
-0.44816718 0.7709157 -0.6566809 0.15523726 -0.5662799 1.266914 1.4512625 0.8974636
0.06807091 0.19811602 -1.2924508 -0.16298413 -0.11507599 -0.14844106 -0.7269268 -0.20112032
0.65622014 -2.0699048 0.52007735 0.6601453 -0.39256507 -2.4744534 -0.19354373 0.7380855
-0.048154045 3.2365756 -0.52490175 0.8145855 0.30507857 -1.9433032 -0.29223076 -0.92305803
-1.1445695 0.13406888 0.31258866 0.9951173 -1.1382382 0.4442489 -0.8779099 0.05673662
-0.3810214 -0.3026587 0.7292621 0.001889849 0.46675834 -0.37729868 0.80001885 -1.1939323
-2.6570451 0.6065235 0.8283735 0.6351721 -0.89022267 0.60143 -0.8754567 0.8327177
-0.59155214 0.27413568 -1.4452554 -0.65912163 1.5172701 -0.087119445 -0.3986029 0.6306084
0.06262124 -1.1827792 0.15123804 0.9611492 -2.032773 0.97050345 -1.1989735 -1.2322632
-0.70222425 0.71927685 0.22053984 0.0006590929 0.052620057 -0.058035016 1.8690599 3.12932
-1.3688 -1.6874522 -1.395387 0.43595994 1.0273048 -0.8618974 -0.38589686 -0.9468231
-2.0714216 0.39789858 0.9393666 -0.29485914 -0.09635618 0.21622577 0.55686873 -0.032979794
0.3700002 -0.42777848 0.088972315 0.3889215 0.37414384 1.049428 -0.5198308 0.19521947
0.39838082 0.53021306 -1.0622153 -0.025871014 -0.25444415 -1.2828877 -1.9061475 0.4954534
0.39537096 1.7328167 1.0700696 1.1911514 0.3145188 -0.81502366 -0.5829296 1.6317964
0.8992802 -1.8359022 -1.2593355 0.1366454 0.4341575 0.5842159 -2.21913 0.520813
-0.11179055 -0.27429485 -0.06797325 -0.08399134 0.14481415 -0.30157956 -3.231965 0.8633239
-2.0902345 0.67376107 1.6676213 -0.65317976 -0.22968721 -0.20736407 -1.2106981 0.06911216
1.5641469 1.279728 -0.35879633 0.87752664 0.046433806 -0.44366124 -0.30062658 0.9314555
0.90341616 0.3289198 -2.174884 0.9755336 0.78955346 0.37856367 -0.6996639 0.7878517
0.92375153 0.6395562 0.6462213 -1.5475032 1.8440527 -0.7192832 -1.3704166 0.76451075
2.925858 -1.5188972 -1.3360552 0.10917649 -0.05989509 1.3564372 -1.6880902 1.9001352
1.9760733 0.022139005 0.15178475 -0.31257525 -1.1772407 0.76598036 0.13645461 0.72803617
0.38576367 0.58329105 -0.2744201 0.44557375 0.11020257 -1.5968217 -0.2982173 0.39866534
-1.3815573 1.1039526 0.14511469 -0.04436668 1.1192324 0.20856752 -0.41029236 -0.7022342
-0.38001087 -0.32218012 -1.4605066 0.17453857 -1.8112098 0.52725565 0.17890756 0.72852594
1.5639064 1.6011945 1.6288033 -0.8287114 0.33993754 0.48222122 -1.9824034 0.24974272

sentCNN.weight f4 [100, 1, 3, 200]
00000000: 2bba 903b 98b3 813c 3377 263d b52d a9bc
00000010: 3409 793c 979c 133c 7208 d23c bb6e aa3a
00000020: ade5 1a39 019d 9dbc 45e7 163d 8f5d 033d
00000030: 88c4 3dbc 14ba ae3c 07d8 0e3d 70fc f3bb
00000040: 746c e43b fc8d c1bc f244 d33c 8148 bcbb
00000050: f515 05bd 8a36 073d 33b3 1c3d 6bdf f0bc
00000060: b848 e6bc e3dc 3a3d c371 b03c 983a 093c
00000070: 6e49 14bd 8126 30bc 386a 92ba 3bab 5c3c
00000080: de80 b83b f590 c7bc 40d9 f2bc 25c5 18bd
00000090: 4cb5 92bc 5a59 643b 4052 ef3a 77fe 79bc
000000a0: 10bb dc3c 4404 5f3c df9b 0dbc 76c6 ddbc
000000b0: a749 8c3c d5b2 ce3c 6045 07bd 3802 1f3d
000000c0: dfae ffbc f4c5 1dbc 7f64 ac3c 20b4 1abd
000000d0: c427 c0bb 0c38 193d 1694 1ebd 14e7 cd3c
000000e0: ce8a 94bc 50b6 1cbb 9acb a3bc c287 15bb
000000f0: c2f7 e2bb 111d 1fbd 30be e03b bb92 0e3d
00000100: 96d6 bbba d3d9 383d 172d ef3c 17ea 033d
00000110: 5aaa 20bd 5b43 f33c 8e31 f13c b09c 17bd
00000120: 18bd 173d f763 81bc bb0a 1cbd 1ad4 233b
00000130: 291b 203c fa4a cebc 8ef7 053d 1ce4 a0bb
00000140: 2b22 c83b c5ef fcbc 17f0 10bd 2513 023d
00000150: 54e3 d73c 66df fd3c 6e97 e9bc 0268 f1bc
00000160: 9e09 ef3c 2ff8 323d 1983 4f3c bb38 e2bc
00000170: a2b6 3dbc d893 693c 59e4 af3c b799 6d3c
00000180: 558b 2c3d 08eb 8fbc 7272 e73b de06 5e3a
00000190: 38bc afbb 3dc3 0bbc 0989 28bc 0a42 b8bb
000001a0: d61c 63bc 3b79 483c ce23 04bd 1fb5 ff3c
000001b0: 6a28 b9bc 4860 1eba 5075 f1ba 2732 8cbc
000001c0: 8052 783c d844 1fbd 5dd8 4d3c e161 a83c
000001d0: 0761 82bc 3b12 973c 1b4a 9ebc 329d 5bbc
000001e0: 656d fdbc 1511 023d 22f2 16bd 13c8 3ebc
000001f0: fe01 103d d19d 003d c919 9f3c 19cb 343c
00000200: 63c1 e8bc c515 9a3c 99db d0bc 6a83 bcbc
00000210: 4aaf 1c3d 9610 77bc c9fc 29bd 75be 38bd
00000220: e084 16bd b196 e1bb c5bc f83b 26b5 8f3c
00000230: 6ad4 303d f6b7 b03c 5584 0dbd 9ce7 0dbd
00000240: 55fd d9bb 1c67 7f3c 8985 2b3c cc81 88bc
00000250: dacd edbb e885 d53b 0342 afbc 772f 153c
00000260: 7dfe 8b3c a33f 5bbc f3c5 ce3c c276 06bd
00000270: 82b0 aebc 2192 f43b 62c6 29bd 836e febc
00000280: 7f80 2cbb 7dcf a5bc 2871 b0b9 458c 01bd
00000290: 775a 993c 4855 c6bb 45d9 ef38 949a 9ebc
000002a0: a679 01bd 5dc6 8cbc 2fe9 c3bc 13ad f33c
000002b0: a927 b13c 3b30 a9bc bec6 d0bc 19a9 0abc
000002c0: 4d22 d3bb fc66 e9bc 6f9e 58bc 9f17 c0bb
000002d0: 5057 843c eeee 2f3d 035a 9fbc 6c95 d3bc
000002e0: 0361 5a3b e10b 263b 1cb9 e83c ee2d c33c
000002f0: 1149 17bd a763 13bd acee 7739 438e 103d
00000300: 9b61 ac3c d6dc 103d 1954 4f3c c4b4 093d
00000310: 754c 883c 7631 6e3c 510d 0e3d 55ef d43b
00000320: b8f3 fcbc fead e63c e8e8 8bbc 8f77 c1bb
00000330: 68ef 1cbd 157e a43b 90c5 f8bc 9a54 a43c
00000340: 490f 583a 5fe5 8f3c 2792 2bbc 18b1 843c
00000350: 0b02 29bd cbda 0c3d 18a5 08bd c7b3 c93c
00000360: c6fa d2ba ff06 163d 088c 183d 4414 a63c
00000370: 2373 203d bdef e93c 6b32 fb3c 3dab 92bb
00000380: 85c1 20b9 ccdf 0f3d c0a6 16bc 0596 d6bc
00000390: 8dd2 ffbb df31 d43a d7ff d9bc 32d3 a13a
000003a0: 4c93 423c 4273 373c 1233 b13c 7502 583c
000003b0: aa92 ad3c a500 2c3c a2a0 433c df92 ac3c
000003c0: 6e03 733c 4686 0dbd 46ad cc3b 3f1a 803b
000003d0: 4668 fc3c 8dc4 16bd da65 913c ef1f cf3c
000003e0: 4bd3 8c3b 1641 c23c bf1e df3c d273 7e3b
000003f0: 6899 8ebc 6722 813c 1cce abbc 5869 153d
0.004416724 0.015832707 0.04064102 -0.020651678 0.015199948 0.009009502 0.025638793 0.0013002971
0.00014772145 -0.019239904 0.03684165 0.032071646 -0.011582501 0.021328963 0.03487399 -0.0074458644
0.0069709364 -0.023627274 0.025789712 -0.005745948 -0.032491643 0.033010997 0.038256835 -0.029403409
-0.028110847 0.04562081 0.02153862 0.008375786 -0.03620284 -0.010751368 -0.0011170572 0.013468559
0.0056305965 -0.024361113 -0.029644608 -0.037297387 -0.017908715 0.0034843297 0.0018258765 -0.015258423
0.026944667 0.013611857 -0.00864312 -0.027072173 0.017124964 0.025231758 -0.033025146 0.038820475
-0.031211315 -0.009629715 0.021044014 -0.037769437 -0.0058641154 0.037406966 -0.038715445 0.0251346
-0.018132593 -0.0023912378 -0.019994546 -0.0022816514 -0.0069265077 -0.03884608 0.0068586096 0.0348079
-0.0014330919 0.04512961 0.029196305 0.032205667 -0.03922496 0.029695204 0.029442575 -0.037014663
0.03704557 -0.015794737 -0.03809617 0.0024998249 0.0097721005 -0.025182236 0.03270679 -0.0049100053
0.0061075888 -0.03087605 -0.035385218 0.03175654 0.026353516 0.030990314 -0.02851459 -0.02946854
0.02917939 0.043693718 0.012665533 -0.027614942 -0.011579188 0.01425644 0.02147119 0.0145019805
0.042125065 -0.017568126 0.0070632035 0.0008469651 -0.0053630136 -0.008530435 -0.010286578 -0.005623107
-0.0138618555 0.012235935 -0.03226071 0.031214295 -0.022602279 -0.00060415687 -0.0018421803 -0.017113758
0.015156388 -0.038884014 0.012563792 0.020554485 -0.015915407 0.01844131 -0.019322446 -0.0134041775
-0.030935952 0.031754572 -0.03685201 -0.011644381 0.03515815 0.031400505 0.019421475 0.01103475
-0.028412526 0.018809209 -0.025495337 -0.023011882 0.038253106 -0.015079638 -0.04150084 -0.04510351
-0.036747813 -0.006884419 0.0075908625 0.017542433 0.043171324 0.021572094 -0.03455003 -0.034644708
-0.006652514 0.015588548 0.010468849 -0.016663454 -0.0072572054 0.006516207 -0.021393782 0.009105555
0.017089123 -0.013381871 0.025240874 -0.0328281 -0.0213244 0.007463709 -0.04144896 -0.031058555
-0.0026321707 -0.02024054 -0.00033653644 -0.031627912 0.018719895 -0.006052647 0.00011436878 -0.019360818
-0.031610154 -0.01718443 -0.023914902 0.029745614 0.021625357 -0.02065288 -0.025485393 -0.008463168
-0.006443298 -0.02849149 -0.013221367 -0.005862191 0.016154915 0.04295247 -0.0194521 -0.025828086
0.0033321984 0.002533667 0.02840858 0.023825612 -0.036934916 -0.035983708 0.00023644668 0.03529192
0.021042636 0.035366856 0.012654328 0.033619657 0.01663802 0.01453816 0.03468067 0.006498257
-0.030877933 0.028159138 -0.017078832 -0.005904145 -0.038314253 0.005019913 -0.030367643 0.020059872
0.0008242024 0.017565427 -0.010471857 0.016197726 -0.041261714 0.034388345 -0.03336057 0.024621857
-0.0016096465 0.036627766 0.03724292 0.020273335 0.039172303 0.028556699 0.03066369 -0.0044759796
-0.0001533088 0.03512554 -0.00919503 -0.026194582 -0.007807082 0.0016189179 -0.026611252 0.0012346266
0.011875939 0.011196913 0.021630798 0.01318418 0.021188099 0.010498201 0.011940153 0.021066127
0.014832361 -0.03455188 0.0062462417 0.003909379 0.03081144 -0.03680854 0.017748762 0.025283782
0.004297649 0.023712676 0.02723634 0.0038826359 -0.017407134 0.015763475 -0.020972304 0.036477417

sentCNN.bias f4 [100]
00000000: 3268 cb3c e3bb d1bc 1953 f1bc 4852 87bc
00000010: 4481 03bd 0dc5 ba3c 0e5f cfbc c9c3 fbbc
00000020: d479 0abd 97b3 903c c77f 643c cda6 af3b
00000030: 0194 e93c 9ca3 783b 1321 a93c 180f 21bd
00000040: d6e2 183b c6f4 d4bb 2fd9 b73c 9b92 00bd
00000050: 024f 0f3d aa09 2bbd 370c 01bd e96a d13c
00000060: 24e9 04bd 1594 15bc e0d6 783b 8166 b93b
00000070: 61df 0d3a 48ec 14bd 89e3 89bc b8f7 213c
00000080: 18fb 96bb 7062 08bd 0d4e f3bb 84fb 1dbd
00000090: a113 f3bc 344a bc3c 980a 61bc d3cc 0bbd
000000a0: c0f5 2bbc a86c f7bc 70ec 1bbd cf8e 6a3c
000000b0: 80ec 7d3c a16c e93c 9e93 b63c 87fc ca3c
000000c0: c7f9 1a3d a256 bebc 8c10 ab3c 3b27 b03b
000000d0: 999b 0cbd ea0b ffbc 0ad5 aabc 0f5b 6a3c
000000e0: 3c4e 3c3c de77 ec3b a34b 0d3d 7d39 dcbc
000000f0: 5e85 04bd d9cc 843c 74ef 8d3c 5b6e 003d
00000100: d2d6 043c ef49 79ba 1c60 353b c2fc 033d
00000110: 8f41 60bc 36f4 c23c 90a5 243d 9d9b 85bb
00000120: c1b1 02bd 2329 10bd cd54 8ebb 6b05 10bd
00000130: 88b2 a93b 441c ebbc ecca 11bd e3ff dcbc
00000140: c2cc edbc 8c34 073d fb17 0fbd f2a5 483c
00000150: 34f8 e83b 56f9 c73b 4248 d4bc 0313 11bd
00000160: 8771 d1bb e1d6 c2ba 4bd7 543c 333e 4c3c
00000170: 7ef3 13bd d320 adbc d2c8 3abc 24fe 2cbd
00000180: 5268 fdbb 94e9 8fbc a5f6 c83c e3bb 133d
0.024829958 -0.025602287 -0.02945857 -0.016518727 -0.0321057 0.02279904 -0.02531388 -0.030733006
-0.03380759 0.01766376 0.01394648 0.0053604604 0.028512957 0.0037939316 0.020645654 -0.039321035
0.0023328564 -0.006498906 0.022442428 -0.031389814 0.034987457 -0.041757263 -0.03150579 0.025563674
-0.032448903 -0.009129544 0.0037969872 0.0056579714 0.0005412009 -0.036358148 -0.01683213 0.009885721
-0.0046075694 -0.033297002 -0.007425076 -0.038569942 -0.029672446 0.022984602 -0.013735436 -0.034130882
-0.010495603 -0.030203179 -0.03806728 0.014316275 0.0154982805 0.028494181 0.022287186 0.024778618
0.037835862 -0.02323467 0.020881914 0.0053757704 -0.034328077 -0.03113361 -0.020853538 0.014303937
0.011493262 0.0072164377 0.03449596 -0.026882881 -0.03235375 0.01621096 0.017326094 0.031355243
0.008107858 -0.0009509613 0.0027675694 0.03222347 -0.013687505 0.02379809 0.040196955 -0.0040773884
-0.0319078 -0.03519548 -0.004343605 -0.035161417 0.0051787533 -0.028700002 -0.035593912 -0.026977485
-0.0290283 0.033009097 -0.03493498 0.012246596 0.0071096662 0.006102721 -0.025913361 -0.03541852
-0.0063917073 -0.0014865064 0.012990783 0.012466001 -0.036120884 -0.021133816 -0.011400418 -0.042234555
-0.007733383 -0.017567433 0.024531672 0.036067855

tan1.weight f4 [100, 100]
00000000: 986b 073d a575 e9bc 61d3 be3d 1302 3ebd
00000010: 5771 b33d 54fb 93bd 3747 9b3c 6df6 9fbd
00000020: 8d2e 83bd 6077 bf3d 39c1 883d 13f1 023c
00000030: e587 393d 5194 b4bd 3cbe 6ebd 3508 123d
00000040: 89bf aa3d 4176 89bb 33cc c3bd 4c47 0bbd
00000050: 410d 393d bc6b bdbd 90c5 0a3d 2168 f73c
00000060: f8e6 a3bd 387d a03d 903c a33d 3d2b 403d
00000070: 0980 343d fdf6 d2b8 a965 56bd e4d1 cc3c
00000080: e946 b23d 407c adbd 2ce5 4dbc b0b9 64bd
00000090: ed19 cd3d 4a8c 46bd 84d5 bb3d c82a 86bd
000000a0: 4562 bcbd 2615 be3d d65c 37bd 7e1d 273c
000000b0: aa12 8dbd 7b69 8e3c 314f 9abd 4003 ba3d
000000c0: 30ad 9cbd 13a0 1abd 9733 78bd 7036 c6bc
000000d0: 9ad1 76bd 98b5 86bd 2a37 68bd d011 35bd
000000e0: 6987 7cbc c724 673d 2dc8 45bc 0323 e5bc
000000f0: ecbf 1fbd f0f3 863c 3647 13bd 0ccc b3bb
00000100: 8b54 c23c 8fdb 80bd bfa9 b4bc da6c bebd
00000110: 211b 9fbd 4e00 fa3a 4e3c a43d 6a4e da3c
00000120: 3215 963d 8db5 a03d aa7c 20bb b195 833d
00000130: eed9 ce3d ec7e b73d b912 a4bd 1194 c73d
00000140: c2e2 6cbd cc63 2c3d cc1e 6dbb a501 b03d
00000150: eaf1 b5ba 7fc5 d73c 30db d8bc a3c1 573d
00000160: 58b6 2d3d a352 c73d 7b07 b63d 0ca1 983d
00000170: c73c 753d da1e 233c 034a ab3b d69b b13d
00000180: f7c3 13bd 467f c6bd 0abd 6bbd 36dd b0bd
00000190: 048e b73d 15b2 313d b81d 8e3c c651 86bd
000001a0: cc35 2ebd 93a8 b7bd 2bfc 863d 51e0 e8bc
000001b0: c989 c8bd 0fb0 873d 0810 613d 47ed 3a3d
000001c0: a70f dabc 9162 93bd 153f 3ebc 5462 ab3d
000001d0: e853 44bd 1e28 943d 8914 c03d a176 6abc
000001e0: 25ef 493d 70a7 733c b419 283c 155c 283d
000001f0: b9cf c7bd 2cfa b43d 8afd a5bd f476 30bd
00000200: 0f31 a63d e4c7 7b3c 0cde 0cbd 05a6 bbbd
00000210: 10ad 213d 5985 bd3d f66e 823d c860 343c
00000220: 55cf 4abd 6ca7 643d b7c7 c3bd 5be6 d1bc
00000230: 4b7c 7fbc 9a28 42bd eb43 c53d 953b 7b3d
00000240: 37d9 afbd c353 b93c ce96 b63d 4e01 b43c
00000250: bef4 12bd 627b 113d 5c38 d13c 1291 573d
00000260: 688b 053c 8c78 21bc d4eb d63c 2b01 9b3d
00000270: 55e2 bc3d 99bf ccbc 9807 c23d f4dc b0bc
00000280: 7ce8 abbd b8c8 7e3d c186 9d3d b090 edbc
00000290: 6d5e da3c 320e 3fbd 7b8c 1abd 4499 713d
000002a0: 115b f7bc 501e 963d e80d b33d 2ef2 193d
000002b0: 8247 bfbd a90a 403c e4d7 88bb 47c6 913c
000002c0: 1dc1 df3c e185 2f3d e534 35bb f93f 643d
000002d0: ac10 bd3d 7e6c c13d af3d 92bd 678b 873d
000002e0: 7942 7dbc 6089 c63c 8d1a f13c f708 8b3d
000002f0: d811 62bd 45b4 abbd b12d a53d 9a96 383c
00000300: 2949 8eba 54f2 5f3d 26b8 46bc cd37 1f3d
00000310: 25b4 ae3d 491b 3e3d c2a6 35bd 0957 733c
00000320: 1e9b 803c 9043 9a3d dfa0 8abd 4c5c a23d
00000330: b30d b23d 4e11 33bd 45a5 4b3d e1bc 2cbc
00000340: 4191 12bd ff22 6b3d 6f28 fa3c 7b92 09bd
00000350: 554d 703d 3ac4 833d 39f5 39bd 0106 64bd
00000360: 71c5 c43d ffe7 093d babc d0bb 703a 9cbd
00000370: 2a54 aa3c 9242 8c3d 014c 7dbd 09e8 3f3c
00000380: a877 ff3b d364 80bd d389 c53d b9d8 aabb
00000390: 4526 15bb a4b7 9f3d c8b5 0ebd 1a8e 94bd
000003a0: fe5b 633d 5e75 43bd c2b4 483c a8b1 4a3d
000003b0: cf4b bfbd 96ad 69bd ea78 a93d f89b b9bd
000003c0: 38f1 0f3d 915c b3bd ab62 12bd 10fa b2bd
000003d0: 2b5a fabc ec0b b03b defb b0bd 8e48 ab3d
000003e0: 83d3 f2bc b980 923d 7ff1 8b3d c077 7ebd
000003f0: 1fa2 ecbc b172 843d fa18 aabd d54a bf3d
0.033061594 -0.02849848 0.09317661 -0.046388697 0.08761852 -0.072256714 0.018954856 -0.07810674
-0.06405363 0.09348941 0.06677479 0.007992047 0.045295615 -0.088173516 -0.05828689 0.035652358
0.08337314 -0.004195005 -0.09560432 -0.03400354 0.045178656 -0.09249064 0.033879817 0.03020102
-0.08003038 0.078363836 0.07970536 0.046916235 0.044067416 -0.000100595855 -0.052343044 0.025002427
0.08704931 -0.084709644 -0.012566846 -0.055841148 0.100147106 -0.048473634 0.09171584 -0.065511286
-0.09198431 0.092813775 -0.04476627 0.010199903 -0.068883255 0.017384281 -0.07534636 0.09082651
-0.076502204 -0.037750315 -0.060596075 -0.02419588 -0.060258485 -0.06577605 -0.056693234 -0.04420644
-0.015413144 0.056431558 -0.012071651 -0.027970796 -0.03900139 0.01647374 -0.035956584 -0.005486971
0.023721954 -0.062918775 -0.022053597 -0.092981055 -0.07768846 0.0019073577 0.08019315 0.026648719
0.073282614 0.07847128 -0.0024488368 0.06425036 0.101001605 0.08959755 -0.080113836 0.09745038
-0.05783344 0.04208736 -0.0036181686 0.08594064 -0.00138813 0.02633929 -0.026471704 0.0526749
0.042410225 0.097325586 0.088881455 0.07452592 0.059872415 0.009956086 0.0052273287 0.086723015
-0.03607556 -0.09692244 -0.05755333 -0.08635943 0.08962634 0.043382723 0.017348155 -0.06558566
-0.042531773 -0.089677 0.06591066 -0.028427275 -0.097919054 0.066253774 0.05494693 0.04563644
-0.026618792 -0.071965344 -0.01161172 0.08368364 -0.04793158 0.07234214 0.09378917 -0.01431051
0.04930033 0.014871463 0.010260034 0.04110344 -0.09756417 0.08836779 -0.08104999 -0.043082193
0.08114826 0.015367482 -0.034391448 -0.09162525 0.039471686 0.0925395 0.0636882 0.011009403
-0.049514133 0.05582373 -0.09559577 -0.025622537 -0.015593599 -0.047402002 0.09632095 0.06133612
-0.08586352 0.022622949 0.089154825 0.021973278 -0.035877936 0.035518058 0.02553957 0.052628584
0.008150913 -0.009855401 0.026235498 0.07568582 0.09222857 -0.024993705 0.09474105 -0.021589734
-0.08393952 0.06220314 0.07691718 -0.028999656 0.026656354 -0.046644397 -0.03773163 0.058984056
-0.030194791 0.073300004 0.08742887 0.037584476 -0.09339811 0.011721292 -0.004176127 0.017794741
0.027313763 0.042852286 -0.0027649936 0.05572507 0.092316955 0.09444521 -0.071406715 0.06618386
-0.015457743 0.024235427 0.029431606 0.06788819 -0.0551928 -0.08383993 0.080653556 0.011266375
-0.0010855544 0.05467446 -0.012128865 0.038871575 0.085304536 0.04641274 -0.044348486 0.014852294
0.015698966 0.07532418 -0.06768965 0.079277605 0.08694019 -0.043717675 0.04971816 -0.010543079
-0.035783056 0.05740642 0.030536858 -0.03358696 0.0586675 0.064339116 -0.04539988 -0.05566979
0.096079715 0.033668514 -0.006370154 -0.076283336 0.020792086 0.06848635 -0.06184006 0.011713036
0.0077962466 -0.06269231 0.096454285 -0.0052138236 -0.0022758406 0.077986985 -0.03484133 -0.07253666
0.055507652 -0.047719352 0.012250127 0.049485832 -0.09340631 -0.05705031 0.08275016 -0.09062952
0.035142154 -0.0875789 -0.03573863 -0.08739102 -0.030560574 0.005372515 -0.0864179 0.08363448
-0.029641872 0.07153458 0.06833171 -0.06212592 -0.0288859 0.06467188 -0.08305545 0.09340445

tan1.bias f4 [100]
00000000: a061 ba3d 2ddd bfbc 084a ac3d 7621 b7bd
00000010: 2a4a 85bb c63e 0cbd 9a05 cf3c 29ad 563d
00000020: 4b77 ab3d fd72 cbbd d16d 71bd fb7a 8f3d
00000030: 5809 893d b605 86bd 7796 99bd f191 ce3c
00000040: 3a52 c53d a5ce 13bd 821e a5bc 17cc cdbc
00000050: a268 9abd 71c5 113d d36d 8e3d 7059 95bb
00000060: 9e80 863c 5745 c83d a804 303b f518 893d
00000070: 32ea c23d ca83 24bd 8724 30bd 2ecc 873d
00000080: 0b1e b33c 4c34 94bd 281f 7cbc 4093 aebd
00000090: 0048 1dbd 9373 273d d009 be3d e88c 78bd
000000a0: 2848 c03d 1900 5f3d 0985 653c 1b8c 8b3d
000000b0: 6723 93ba c2ac bd3c 343e 06bd e838 afbd
000000c0: e9a8 27bd 1da0 0b3d c7dd b2bc 01e8 8f3b
000000d0: a68e 4dbd fe41 85bc e071 4fbc 6520 2c3d
000000e0: c1f6 bd3c 0dca 943b 5070 0dbd fed6 e4bc
000000f0: 9665 ccbd 2bc2 11bd ff7f c1bd 398f ab3d
00000100: e675 753c 1bf0 083d 0975 a4bc a4b1 c83d
00000110: 3179 1d3d 728c be3c 8d41 90bd 8c79 9bbd
00000120: db49 b43d 1021 c7bb f093 543d 71a6 f43c
00000130: 323b 60bd 25c1 be3d ce9f de3c 56f3 a2bd
00000140: f744 953c f359 cebd 61df efbc 70a4 d3ba
00000150: 8973 9dbc 1df0 dc3c 043c 873d 5537 b33d
00000160: 7669 1bbd 2765 dbbc c1b2 d2bd ddd5 a9bd
00000170: 2228 103c 8e7a 86bd bd0a fa3b 725c 803d
00000180: 97b3 aa3d 3b3b 5a3d 671c c8bd f8a4 d9bc
0.09100652 -0.023420895 0.08412558 -0.08941929 -0.004067679 -0.034239553 0.025271226 0.052411232
0.08372363 -0.09934042 -0.05894262 0.070058785 0.06691235 -0.06544058 -0.07499402 0.025216075
0.09634824 -0.036085743 -0.020156149 -0.025121732 -0.075394884 0.035588685 0.06954541 -0.004557781
0.016418751 0.097788505 0.0026858244 0.06694213 0.095173255 -0.040164746 -0.043003585 0.06630741
0.021864912 -0.07236537 -0.015388288 -0.085241795 -0.038398743 0.040881705 0.09279215 -0.060681254
0.09388763 0.054443453 0.014008769 0.06813832 -0.0011225761 0.023153666 -0.032774165 -0.08555776
-0.04093257 0.034088243 -0.021834267 0.0043916707 -0.05018487 -0.01626682 -0.012661427 0.04202308
0.02318895 0.004540688 -0.034530938 -0.027934548 -0.099803135 -0.035585564 -0.094482414 0.08376927
0.014981722 0.033432107 -0.020075338 0.09799507 0.038445655 0.023260329 -0.07043753 -0.075915426
0.08803149 -0.0060769394 0.051898897 0.029864522 -0.054743953 0.09314183 0.02717581 -0.07956569
0.018221362 -0.1007575 -0.02928132 -0.0016147029 -0.01922013 0.026969964 0.06603244 0.08750788
-0.037942372 -0.026781632 -0.10288001 -0.08292744 0.008798631 -0.06566344 0.0076306746 0.062676325
0.08335035 0.053279143 -0.09771042 -0.026567921

sentattn.weight f4 [100, 100]
00000000: 42cd 943d c2d0 8b3d 28c9 be3d b576 823d
00000010: 945a 0a3c ca79 5dbc ef65 173d 5e86 713c
00000020: ace0 3cbd 7c3c 353d e070 4abd ae8b 7cbd
00000030: d2ab a5bd be81 6ebd 1fb6 b6bd ba40 ba3b
00000040: d223 74bc 3dca d83c c6f2 a43c facd b8bd
00000050: 5ae7 81ba b10a ab3c c65c 4e3b d4ee 89bc
00000060: 9222 7d3c 02c7 39bd e5c5 263d 59e6 b0bd
00000070: e243 ba3d fc3c 1dbd c2ab b93d 0c3e a3bd
00000080: 099f 28bd 69c5 ca3d e2cd b7bc 3345 c73d
00000090: f097 92bd 6eca 3a3c 458c 963d 5a46 3a3d
000000a0: a1bf 7cbd fd6a 193d c308 24bb 0392 9e3c
000000b0: db86 22bd 811d cebc 2208 9abd 437b 72bc
000000c0: 7d79 45bd 4d02 33bd 683c e2bc cfc7 a2bd
000000d0: eac0 07bc 2985 b13a 3e74 0e3d 881d 9d3d
000000e0: fcda 283c 3c0a f9bc dd9a 113d 422d a93d
000000f0: 17e6 a03d 06bb 2a3d 6c68 aebd f50a c23d
00000100: 995b 20bd c984 943d 0aa1 c5bc 4d1c 35bd
00000110: 5498 a43c cd14 8e3b 9cc4 bc3d 3fb5 07bc
00000120: 5711 ca3d 002e bc3d 5bd3 36bd 0bbc 28bd
00000130: 8f03 3cbd 019c 543d 30ba f8bc ae0b 893d
00000140: 0efe 8ebd ce4a cabd 0f10 963d cf53 9e3d
00000150: df6e aabd 6568 47bd d619 093d 565f 633c
00000160: 2718 a83d 274c c4bc 7b06 983d 0a81 893d
00000170: 9fe3 02bd 87f2 953d 3c96 fc3c d45e 90bd
00000180: 787a bbbd aff7 733b 20bc 933d 7170 e5bc
00000190: 1f25 5dbd 1bb1 9c3d bd9f 82bb 1bac 83bd
000001a0: 07de aa3d 30b5 f3bc c84b 233d 13c8 913d
000001b0: 5ea8 57bb 4f90 39bd a1e7 a13d ae84 bd3d
000001c0: 9b55 2e3d 7020 3fbb f4b4 3fbd 5a0f 7fbc
000001d0: 9ebf 8dbd ead1 93bc b13e 0bbd f4c2 a7bc
000001e0: 6529 b83d 7d93 903c c0aa b13d ddf9 c93d
000001f0: c739 683d d79c c9bd baba 1bbc 25db b73d
00000200: 9083 0d3d a936 4abd 64e2 61bd 6daf 3abd
00000210: c06d 053d 5254 ab3d c11e 543d 7e15 1e3d
00000220: 9127 bc3d 01a7 ecbc 9c7f 263d 98ab 91bc
00000230: be2b b13b 10ad 9ebb 2a9c f3bc 44ab 83bd
00000240: e4b4 baba 55de c13d 3195 71bd d9a4 553d
00000250: 3106 8c3d b9fb 32bc 7487 94bd 8cc4 9fbc
00000260: a6fb c23d 1e00 46bc 5fd0 0bbd df53 0e3d
00000270: c5c0 cc3d fb04 a73d 66c6 883d 4984 a2bd
00000280: f986 aebd 5e9e 5e3d 54a3 4f3d b494 a33c
00000290: 538a e2bc 7a0e b1bd 5391 e73c a48c 853d
000002a0: 1bc4 b7bd c06b b53d 0618 85bd 22bf c03d
000002b0: 2251 23bd 55d0 e1bc 810b a53d 19b0 443d
000002c0: 5957 713d 9c4b 3f3d ec65 893d d560 94bd
000002d0: 6429 9fbd 39ad 10bd 3922 c53c 9a3a a93d
000002e0: edae c6bc b7aa e73c 2fdb 5fbd 59bf 12bc
000002f0: 022a bdbd 707c 863d f2bd c83d 3c86 83bc
00000300: 0cc0 4f3d de41 703d f00d a2bc 6846 c83c
00000310: 6162 e539 e3ae cabd 557a b1bd 9258 ba3c
00000320: 785a bd3c f70e c2bc 1b55 893d 09b4 8dbd
00000330: 80bb 6fbb c1f0 63bd 3b99 65bd 6d53 2abd
00000340: f56b 1ebd c515 c6bd dc5c 8bbd 464f fbbc
00000350: f1ba a63d ca42 10bc 26da edbc 71ab 303d
00000360: e108 78bd c324 893d b274 943d 3544 2d3d
00000370: 1cdc 27bd 76e0 f9bc bff7 bdbd e9f4 d0bc
00000380: 91a3 5abd 22fd 393d 2886 263d 5e5c a6bd
00000390: 061f c63d ab4c a4bd 062e 673d 462b 1abd
000003a0: 5bad 82bd 57d8 893d bc68 80bd 4631 8fbc
000003b0: 8c37 8f3c 40b2 9abd 6a1d b0bd 929a a5bd
000003c0: b4e8 613d 1875 043d e842 af3d dc95 febc
000003d0: 6f46 8ebc 3dd5 84bd 71d7 c0bd f033 7a3d
000003e0: 8c5e a5bd 2db4 193c 48e7 8bbb b659 42bd
000003f0: d11f c0bc 3169 6e3c 06fc a2bd c500 73bc
0.07265712 0.06826927 0.09315711 0.06370298 0.008444447 -0.013517806 0.036962446 0.014741508
-0.0461127 0.044247136 -0.049424052 -0.061656646 -0.08089413 -0.0582292 -0.089214556 0.0056839855
-0.014901118 0.026463622 0.020135295 -0.09023662 -0.0009910867 0.020879121 0.0031488403 -0.016837515
0.015450137 -0.045355804 0.04071607 -0.08637685 0.09094979 -0.038388237 0.09065963 -0.07970819
-0.041167293 0.09900934 -0.02243704 0.097299956 -0.07157886 0.011400802 0.07350973 0.04547725
-0.06170619 0.037455548 -0.0025029636 0.019356733 -0.03967939 -0.025160553 -0.075210825 -0.014799896
-0.048211563 -0.043703366 -0.027616695 -0.07948267 -0.00828574 0.0013543713 0.034778826 0.07671648
0.010306116 -0.030400388 0.03554808 0.08260585 0.07856386 0.041682266 -0.08516011 0.09474746
-0.039149854 0.07251889 -0.024124641 -0.044216443 0.020092167 0.0043359757 0.09217188 -0.0082829585
0.098665886 0.09188461 -0.044635158 -0.041194957 -0.04590183 0.05190659 -0.030362219 0.06691681
-0.06982051 -0.09877549 0.07327282 0.07730829 -0.08321928 -0.048683543 0.033471905 0.01387771
0.08207732 -0.023962094 0.07423111 0.067140654 -0.031955358 0.07321649 0.030833356 -0.07049337
-0.091542184 0.0037226488 0.07213616 -0.028007718 -0.05399048 0.07650968 -0.0039863274 -0.06429311
0.083431296 -0.029749483 0.039867193 0.07118239 -0.003290675 -0.04530364 0.07905508 0.09253822
0.04256211 -0.0029163621 -0.04680343 -0.015567625 -0.06921314 -0.01804443 -0.033995334 -0.020478703
0.089922704 0.017648453 0.08675146 0.09862111 0.056695726 -0.09844368 -0.009504968 0.089773454
0.034549296 -0.049368534 -0.055147544 -0.045577455 0.03257537 0.08365692 0.05178714 0.038594715
0.09187234 -0.028888227 0.04064904 -0.017782018 0.005406826 -0.004842408 -0.02973755 -0.06429151
-0.0014244583 0.094662346 -0.05898017 0.052159164 0.068371184 -0.010924273 -0.07252398 -0.0195029
0.095206544 -0.012084989 -0.034134265 0.034747954 0.09997705 0.08155247 0.066784665 -0.07935388
-0.08521838 0.05435025 0.05069287 0.019968368 -0.027653849 -0.08645339 0.028267538 0.06520966
-0.08972951 0.08858442 -0.06498723 0.09411456 -0.039872296 -0.02756516 0.08058835 0.048019502
0.05892119 0.046702966 0.06708893 -0.07245032 -0.077715665 -0.035321448 0.02406417 0.082631305
-0.024253333 0.028279645 -0.05465239 -0.008956754 -0.09236528 0.06566703 0.09801854 -0.016055219
0.05072026 0.058656566 -0.019782037 0.024447635 0.00043751582 -0.09896638 -0.08665911 0.022747312
0.023114428 -0.023688776 0.06705686 -0.069191046 -0.0036580265 -0.055649523 -0.056054335 -0.041583467
-0.038677175 -0.09672121 -0.06804821 -0.030677449 0.08141125 -0.008804986 -0.029034685 0.04313225
-0.060555343 0.06696465 0.0724882 0.042301375 -0.040981397 -0.03050254 -0.092757694 -0.025507407
-0.053378645 0.045407422 0.040655285 -0.081230864 0.09673886 -0.08022436 0.056440376 -0.037638925
-0.06380721 0.06730717 -0.062699765 -0.01747955 0.017482542 -0.0755353 -0.0859936 -0.080861226
0.055153564 0.03233823 0.08557683 -0.031077318 -0.01736757 -0.064859845 -0.09416092 0.061084688
-0.08074674 0.009381336 -0.0042695142 -0.047448836 -0.023452671 0.014551447 -0.07958226 -0.014831726

sentattn.bias f4 [100]
00000000: 1fcf 453d 9ee7 f53c a39a 8e3d fc52 9dbb
00000010: bcc3 473d a6ed 833d f61d 8dbd 0963 ca3c
00000020: ef2f 9c3d 7f4f 443d 74b2 aabd 6bdf babd
00000030: afdc 6a3d 929a d33c b9be 82bd bc2a bd3d
00000040: 86aa 1c3c 9a35 48bd 968d 81bc 1217 063d
00000050: aa73 babd 1b7e 26bd 63f2 84bd c29d 9d3d
00000060: a619 e5bc d845 b43d 4c81 24bc 1868 60bb
00000070: 28d8 ee3c 3936 b33c 2bc8 a4bd b4c3 b9bb
00000080: 3021 193d 10e0 86bd a2bf c33c eb86 3d3d
00000090: 69ce 0a3b 8428 8fbd ef0d 85bd fc91 99bd
000000a0: ce6b cb3d a9cd 773d 34bf adbd bc49 a53d
000000b0: 2fa7 5bbd 9583 12bc a738 8b3c edd5 0dbd
000000c0: b31e cc3d 598b ac3d 9847 82bd 64ba 9fbd
000000d0: 25b6 b73d 35e5 c43c 413e 02bd 56a9 6c3d
000000e0: 8dbc 96bd ccb9 893d 6f53 973d 2c1d 90bd
000000f0: 2691 90bc e6d5 a73c 72d3 843d ffb4 9e3d
00000100: 9fea 6f3d b95f a6bd 4b1e c6bd 2b51 64bd
00000110: 87bd cabc a497 40bd 9821 3f3d d785 4d3d
00000120: c1dd 42bd 9c78 2cbd 0c6f d1bc 7b42 bc3d
00000130: e1f9 a53d 0d8e a8bd 15b3 82bc ce31 2c3d
00000140: 4dc5 5ebd a4b1 8ebc f4ba 413d b427 cb3d
00000150: 1587 0abd 34ad b83d 36c3 8cbc 2c34 c23c
00000160: 2b4d ccbc d04c 5a3d 0a34 b4bd 71fc c6bb
00000170: bb31 9e3c 3d0b af3d a38e 4d3d 8e45 febc
00000180: 54f2 8a3d 7b50 a2bd e75b b8bb adc9 0dbb
0.04829323 0.03001767 0.06963088 -0.0048011523 0.04877065 0.06441812 -0.0689048 0.024705427
0.0762633 0.047927376 -0.083348185 -0.09124645 0.057339367 0.02583054 -0.06384034 0.092366666
0.00956214 -0.048879243 -0.015814584 0.032736845 -0.091040924 -0.040647607 -0.06491544 0.076961055
-0.027966332 0.08802384 -0.010040592 -0.0034241732 0.029155806 0.021876441 -0.080459915 -0.0056690816
0.037385166 -0.06585705 0.023895089 0.046271246 0.002118016 -0.069901496 -0.06496798 -0.074985474
0.099326715 0.060498867 -0.08483735 0.08070704 -0.053626236 -0.008942504 0.016994787 -0.034627844
0.09966793 0.08425016 -0.06361312 -0.07799223 0.08970288 0.024035076 -0.03179765 0.05777868
-0.07360182 0.06724891 0.073889606 -0.07036814 -0.017647337 0.020487737 0.064856425 0.07749366
0.05857336 -0.081237264 -0.09673747 -0.05574147 -0.024748577 -0.047019616 0.046662897 0.050176468
-0.047574762 -0.04210721 -0.025565647 0.09192368 0.08104301 -0.08230219 -0.015954534 0.042039685
-0.05438738 -0.01741869 0.047297433 0.09919682 -0.03382023 0.09017411 -0.017182928 0.023706518
-0.02493914 0.05329591 -0.08798988 -0.006072574 0.019310823 0.085470654 0.050184857 -0.031039026
0.06784502 -0.07925507 -0.00562619 -0.00216351

attn_combine.weight f4 [100, 100]
00000000: 5682 25bd ada6 bf3d 1a5b 1bbd 017e c83d
00000010: a0c7 e53c 6174 66bd eff8 97bd 480e a83d
00000020: 3f5a b9bc fac2 af3c 04ad 233d 675a 9cbd
00000030: aeb8 afbd 126c 633d c8d1 073d b1d8 b23d
00000040: 63d6 95bd bb2f 1fbd f9d8 83bd 82d0 cbbd
00000050: 1fc0 4ebd feef 19bd ba7f afbd 0f76 1cbd
00000060: 38e5 52bd f4fc c3bc 21df 5ebd a294 153d
00000070: 8c06 bfbd c971 a1bd b096 bb3d 4763 a03d
00000080: 78f6 b7bd dbd3 86bd d783 4b3c eba8 c9bd
00000090: 20b0 643d 6d90 aebd 16e0 3bbc cd8a 95bd
000000a0: ec1a 96bd e32d ab3d 2e96 a0bd 9ab7 9a3d
000000b0: 4711 c43d c75b ad3d f0f0 c9bd eb37 513c
000000c0: e4c1 8dbd 852c 283d 5366 8e3c ca1f 6f3d
000000d0: 9964 233c 43f9 b6bd e69d 34bd f030 98bd
000000e0: 2380 923d 8b75 98bd 56a9 c9bc 09bb c93d
000000f0: 0c86 bcbd f46b 4abc d239 5ebd 2956 a43c
00000100: 24bc c73d 3a97 89bc b941 103b adde aa3d
00000110: 93b2 c53b e889 b13d d042 903d bb07 8e3d
00000120: 84cd 1d3d 8c56 89bd 3046 2dbd ac5d 76bd
00000130: 4a24 8f3c d345 583c bf55 cbbd 0687 783d
00000140: cea8 903d 67bb 4b3c 0c49 75bd 9eea 20bd
00000150: 4e54 95bd 33f3 913d abce bdbd 0acf 7d3d
00000160: b013 5d3d ef52 13bd 485d 403d c831 42bb
00000170: c9b4 61bd 2481 023c fa48 9c3d cc4e 88bc
00000180: 931d 7b3d 8ef3 69bd 97eb 8abd 4034 883d
00000190: 6b04 a9bb ba70 7cbd 49ca 803d 54ce a83c
000001a0: dcf1 87bd 72f1 dcbb 7d00 77bd 0845 5fbd
000001b0: 6eac 68bd f2e7 b63d 18d5 8e3d a465 0cbd
000001c0: 6dfd b33d 35a6 363d b519 95bd f2a8 02bd
000001d0: 9fda 11bd f74f ba3d 7f84 9fbd 081c 003b
000001e0: 99a2 5fbd 047e 903c 54d9 cb3b bf39 b03d
000001f0: feff 9a3c 2748 263d 4b42 d9bc 4c82 8a3d
00000200: 4dee 143d 428a 26bc ac10 c8bc 30e8 52bd
00000210: cd4f 1fbd 4c0f 0fbd 9364 64bd 4a9c 2d3b
00000220: 981a e8bc 353c 063d ab0b 4f3d 7c99 9c3c
00000230: e641 253d dbb7 53bd 1734 9a3d 551b c53d
00000240: 50d2 b4bd a9aa b5bd 1f98 e43c b7df 59bd
00000250: c757 993c 7044 4d3d 9eaa 7bbd d3ee 50bd
00000260: 4aeb 3d3d 6cfb 3dbd a985 633d d9f5 c23d
00000270: e883 bc3d d318 ddba e57c 303c 3d94 c0bd
00000280: daa6 023c e989 f23c 46fe 803d 1c7b 66bc
00000290: c171 843d e2b0 483d 4251 ad3c 05c3 a23d
000002a0: 6c05 c73c bb58 d6bb 4517 a83d 323b 913d
000002b0: 7e75 a1bd 0f49 61bd 70af bb38 d6d3 a0bc
000002c0: b4c1 50bc 78ce 85bc 1ae5 85bc 0859 9d3a
000002d0: 4f21 973b 8041 f73c 5e67 96bd 01e5 a1bd
000002e0: b22a c3bd 7208 b13c 2b42 6fbd 10d9 393d
000002f0: 4f24 f33b 1301 c9bd fd26 81bc ab55 413d
00000300: b1d0 863d 8450 d33a 3e20 66bd e198 623c
00000310: 9df4 81bc f079 263d d8e6 90bd 13a2 f9bc
00000320: 1e81 433d d25e 483d f575 34bd 35d1 01bd
00000330: 8575 4cbc e27a 733d dbf4 9e3d 7ade 50bd
00000340: 0ee7 cbbc e522 b83d d5c0 be3d 3c8b b0bb
00000350: 201e b3bd 5f08 113d a54c f2bc a814 063d
00000360: 34f9 82bd 30f3 293d 5b0c 023d 3a0d 9fbd
00000370: 5893 a6bd 0540 833d 12c6 763d 1766 64bd
00000380: 61c0 413d 6fe8 9dbd 68e2 5c3a 84b7 66bd
00000390: a3f6 7b3b 0f89 1c3d 6f78 203d ca0a c7bd
000003a0: 4136 973d 3f33 8bbd e4da 9e3c 5317 053d
000003b0: 1d06 3e3d 06ce c0bc fd5e 483d e387 a73c
000003c0: fc3c 1ebd 461d 853d 6b2b a23d 1ced 80bd
000003d0: 79dd 193c 7d6c c2bd 2d05 cc3d a025 13bd
000003e0: b630 bb3d f4c8 c9bd 78ce 79bd be1b 8ebc
000003f0: 42f1 f0bc e691 cc3d 1a86 2c3d aee2 b3bc
-0.0404075 0.09357963 -0.037928678 0.09789658 0.02804929 -0.05626333 -0.07420527 0.08205849
-0.02262604 0.021455277 0.039959922 -0.076344304 -0.08580147 0.055522986 0.033159047 0.08732737
-0.07316282 -0.03886388 -0.064378686 -0.09951879 -0.05047619 -0.03758239 -0.08569284 -0.038198527
-0.05148813 -0.023924328 -0.05441201 0.0365187 -0.093274206 -0.07883031 0.09159601 0.07831436
-0.08982557 -0.06583377 0.01242157 -0.09846672 0.05583203 -0.08523641 -0.0114670005 -0.07301865
-0.07329354 0.083583616 -0.078411445 0.075545505 0.09573608 0.08464771 -0.09860408 0.01276968
-0.06921747 0.041058082 0.017382776 0.058379926 0.009972715 -0.08934262 -0.044095896 -0.07431209
0.071533464 -0.074442945 -0.024616878 0.09850127 -0.09205255 -0.01235484 -0.05425436 0.020060616
0.09752682 -0.016795743 0.002201183 0.08343253 0.0060332506 0.08668882 0.070439935 0.06935068
0.038526073 -0.06705961 -0.042303264 -0.060147926 0.017473359 0.013200241 -0.09928464 0.060675643
0.07063447 0.012434817 -0.059884116 -0.03928625 -0.072914705 0.07126465 -0.092679344 0.061965026
0.053973854 -0.035967764 0.04696396 -0.0029631723 -0.05510405 0.00796536 0.07631107 -0.016639136
0.0613075 -0.057117037 -0.067832164 0.06650591 -0.0051579974 -0.061630942 0.06288583 0.020606197
-0.06637928 -0.0067426497 -0.0603032 -0.054509193 -0.056805067 0.08930959 0.06974238 -0.03427662
0.087885715 0.0445921 -0.07280294 -0.0318994 -0.035608884 0.09097283 -0.077889435 0.0019547958
-0.054598425 0.017638214 0.006220976 0.08604764 0.018920895 0.040596154 -0.026520869 0.067631334
0.036360074 -0.010164799 -0.024422012 -0.051490963 -0.038894463 -0.034926698 -0.055759978 0.002649086
-0.028332993 0.03277226 0.050548237 0.019116156 0.04034605 -0.05168901 0.075294666 0.09624354
-0.088291764 -0.088704415 0.027904568 -0.053191867 0.018718613 0.050114095 -0.06144201 -0.05100901
0.046366967 -0.046382353 0.05554739 0.09519548 0.092048466 -0.001686836 0.010771965 -0.09403274
0.007974351 0.029606776 0.06298499 -0.0140674375 0.06467009 0.048996814 0.02115691 0.07947353
0.024294578 -0.006541339 0.08207563 0.07091369 -0.07883738 -0.055001315 8.949533e-05 -0.019632261
-0.012741495 -0.016333804 -0.016344596 0.0012004683 0.004612125 0.0301826 -0.073439345 -0.07905007
-0.09529628 0.021610472 -0.058412712 0.045373023 0.0074201 -0.09814658 -0.015765661 0.04720084
0.065827735 0.0016122018 -0.056183092 0.0138303945 -0.015863711 0.040643632 -0.0707528 -0.03047279
0.047730558 0.048918553 -0.044057805 -0.031693656 -0.012479191 0.059443362 0.07761546 -0.05099342
-0.024890449 0.089910306 0.093141235 -0.005387692 -0.0874598 0.035408374 -0.029577563 0.032734543
-0.06395188 0.041491687 0.031750064 -0.07766195 -0.08133572 0.06408695 0.06024749 -0.055761423
0.047302607 -0.07710349 0.0008426071 -0.056327358 0.0038446567 0.038216647 0.039177354 -0.09718855
0.07383395 -0.06796884 0.019391485 0.032492947 0.04639255 -0.02353574 0.048918713 0.020450538
-0.038632378 0.06499724 0.079184376 -0.06295225 0.009391182 -0.09493349 0.09961925 -0.035924554
0.0914015 -0.09852782 -0.06098792 -0.017347213 -0.029411916 0.099887654 0.042120077 -0.021958675

doc_linear.weight f4 [5, 100]
00000000: a065 15bd 5e19 d9bc b5cc 233e 6e21 123e
00000010: cf04 0f3d b862 5bbd a9f8 dd3d 3f7f 5f3d
00000020: 7f0a f4bc 55e7 363d 142f a43d a80c 7b3c
00000030: 6d1c cd3b 03b5 b93d 3c83 d8bc f1ba 89bd
00000040: ae19 85bc 705c fb3d c1d0 443b 6ea6 2bbd
00000050: f414 a2bc 96fa d5bc dd1b 9fbc 30d0 12bc
00000060: eaf0 b63d cdc9 a73d 1dab 183d 3a97 5d3d
00000070: e09e 6d3d 5d86 8e3d 93f5 f23c 5881 033a
00000080: 691a 403c 911d c9bc 47f8 29bd 3c77 e13c
00000090: 3dce bf3d 1957 863d f88b 1a3d 7e7d bb3d
000000a0: 22a8 423c 51e2 ed3d 3e4c dc3d 3255 b2bd
000000b0: cd32 233e 2484 42bd c511 ff3c 512e 1d3e
000000c0: 73e0 913b bde5 0f3d 7886 103d aa2c 253d
000000d0: 8509 3abb 9c4f 5fbd f147 bb3c 7d8c 3bbd
000000e0: 466c 2bbd a9ea 0b3e 4324 47bd cec8 d03d
000000f0: e9d6 93bc 087d 0e3d 4ad3 c5bc 6c70 213e
00000100: 3b2f 1d3c f8a8 80bc 81f2 b03d 0697 1ebd
00000110: 02e1 033e 5147 62bb 9cce ed3c 641d 073e
00000120: b77f 183e 2611 4ebc f226 a63d df12 9cbd
00000130: 133c 6dbd d5ea bc3c 25e1 203d 9376 553d
00000140: 708f 41bd 750a be3d 304b 553d a30a 033d
00000150: e563 60bd d670 9e3d 792b 9f3d 4028 d23d
00000160: 0d48 01ba 18c9 f43d 49f6 1a3e 47ad 863c
00000170: afa7 e83d c913 f33c 1684 2d3e e73e ff3d
00000180: c313 003e a0a2 ad3d fc0b 0ebd e7a6 0fbd
00000190: 91c1 833d 320c 933d 76aa 93bd 0c23 193d
000001a0: aca4 37bd ae68 1abc 0308 863d 36bc 8b3d
000001b0: c5cc 0cbd 7199 163d 79c5 5cbb abbb abbd
000001c0: 05b9 a93d e2f9 283d 6352 c93d 45eb e23d
000001d0: 5087 653d 9338 96bd a727 8c3d 5390 49bd
000001e0: e49b 9a3b 8414 c53c 13d1 7e3d b0ad a33c
000001f0: a816 cfbd da39 18bb 5a7b 89bd 53d5 d83d
00000200: 1b40 b7bb e5ef a8bd d0b5 b33d fe7d 00bc
00000210: fe29 6abd 5732 d13c 0b9a b6bc 506a f1bc
00000220: 6826 79bd ed58 35bd df99 bc3d 428f be3d
00000230: a51d ac3d 26da 29bd 076b c9bd 6630 2f3d
00000240: 1041 a83d 3646 dfbb 0249 c83c c647 923d
00000250: 73d6 933c 62dc 643d 9405 4a3c 73ce da3d
00000260: 0c94 f13d e6b2 0c3d 43d8 c2bc 6d13 9abd
00000270: 7f7d 96bd 8e18 c13c b17c 943d f82b 74bd
00000280: 3b5e 9ebc 9c65 9a3b 338e 8a3d c2a6 613d
00000290: bd37 abbc 89d1 903d 4b08 ccba eca0 c93d
000002a0: 3a8d 953d 7b44 d63d 3772 b73d 4a08 a83d
000002b0: 8810 e2bc 9fc9 bd3d d097 833b ceb9 693d
000002c0: 48d2 69bd 19ec a0bd 2e6b babd ada0 e7bd
000002d0: b101 b23c 2d2c babd 7f06 89bd adaa 80bd
000002e0: 4893 90bd 0907 b93c 82ca 9abd 4c8f 7e3b
000002f0: cd8b 9abd d8f0 65bd 063f 9e3c 2edf d3bc
00000300: 8a95 1b3d 440d 78bd f5b4 b8bd 14af a13b
00000310: 5c37 163d c5ad be3d cf06 b0bd 7f2a c3bd
00000320: 9d05 833b fa08 9bbd b5a1 09bc a9b1 c2bd
00000330: fdbf 1abe 5306 da3b d9d0 12bd 5896 b1bd
00000340: 4025 8bbc 685b 87bd 8099 a03b 796a ba3c
00000350: 86fc 353d 6c86 adbd 56fc 4abd 92a7 633b
00000360: 15c6 87bc adbf d1bd 97e8 c0bd cc12 413c
00000370: 653d f73c 645f eebd 0978 70bd f4a2 87bd
00000380: b37c 593d 93dc 6d3c 8c9a 1a3d 5319 b6ba
00000390: b121 0fbe a3e2 88bd 99ad afbd 16ab 0bbe
000003a0: 53b6 ccbd 9db9 113c 4c1a 763d a5b9 bfbd
000003b0: 83be a6bd 65d8 a0bd c40f dabd 903d f13b
000003c0: b97e eabc 5507 1a3d 8609 babd da63 8bbb
000003d0: 2dd4 b2bd ba96 e1bb fcc5 1c3d c03a a9bd
000003e0: 17fe 493d 62ee e7bd e279 debd 284c 01bd
000003f0: 9808 443d 28a6 083c 78b0 04bd 553e b2bc
-0.03647387 -0.026501354 0.15996058 0.14270565 0.034916695 -0.053560942 0.10838444 0.05456471
-0.029790161 0.04465421 0.08016792 0.015322842 0.006259492 0.09067728 -0.026429765 -0.06725109
-0.016247597 0.122734904 0.0030031654 -0.041906767 -0.019785382 -0.026120465 -0.019422466 -0.008960769
0.089326695 0.08192787 0.03727256 0.0540993 0.058012843 0.069592215 0.029658115 0.0005016527
0.011725047 -0.024550231 -0.04149654 0.027522676 0.09365509 0.06559581 0.03773114 0.09154795
0.011880906 0.11615432 0.107567295 -0.08707656 0.15937348 -0.0474893 0.031136403 0.153497
0.0044518053 0.035131205 0.03528449 0.040325798 -0.0028387022 -0.05451928 0.022861453 -0.045788277
-0.041851304 0.13663734 -0.048618566 0.101945505 -0.018046813 0.034787208 -0.024148602 0.15765542
0.00959378 -0.01570557 0.08640004 -0.038718246 0.12878802 -0.0034527371 0.029029183 0.13194805
0.1489247 -0.012577331 0.08112897 -0.07620787 -0.05791862 0.023061195 0.039277215 0.052115034
-0.047255933 0.09279338 0.052073658 0.031992566 -0.054782767 0.077363655 0.077719636 0.10261583
-0.0004931696 0.11952418 0.15133013 0.016440047 0.11360108 0.02967252 0.16944918 0.124631695
0.12507538 0.08478284 -0.034679398 -0.03507128 0.06433404 0.071800604 -0.07210247 0.03738694
-0.044834778 -0.009424372 0.06544497 0.06823008 -0.03437497 0.036767427 -0.0033687039 -0.08385404
0.08287243 0.04125393 0.09830167 0.1108003 0.056037247 -0.073350094 0.068435006 -0.049209904
0.0047182906 0.024057634 0.062211107 0.019980282 -0.10111743 -0.0023227842 -0.067129806 0.10587563
-0.0055923588 -0.08248881 0.08774912 -0.007842539 -0.057168953 0.0255367 -0.02229025 -0.029469639
-0.060827643 -0.04427426 0.09209036 0.09304668 0.08404092 -0.04146781 -0.09834867 0.042770766
0.08215535 -0.0068137897 0.024448875 0.07142596 0.018046593 0.055874236 0.0123304315 0.10683908
0.11795816 0.0343503 -0.023784762 -0.075232364 -0.07348155 0.023571279 0.072503455 -0.059612244
-0.019332042 0.00471182 0.067654036 0.055090673 -0.020900602 0.07071216 -0.0015566436 0.098451465
0.073023275 0.1046228 0.08957332 0.08204706 -0.027595773 0.09266972 0.0040159 0.057061963
-0.057085305 -0.07857532 -0.09102474 -0.11309943 0.021729322 -0.09090457 -0.06690692 -0.06282554
-0.07059342 0.022586362 -0.075581565 0.0038842736 -0.07546196 -0.05613789 0.019317161 -0.025863256
0.03798441 -0.060559526 -0.0901889 0.004934201 0.03667389 0.09310488 -0.08595049 -0.0952959
0.003998472 -0.075700715 -0.00840037 -0.09506542 -0.151123 0.006653586 -0.035843704 -0.08671254
-0.016985536 -0.06609231 0.004901111 0.022755848 0.04443028 -0.084729046 -0.049557053 0.003473733
-0.016573945 -0.102416374 -0.09419363 0.011784267 0.030180642 -0.11639288 -0.058708224 -0.06622878
0.053097438 0.014517921 0.037745044 -0.0013893045 -0.13977696 -0.066838525 -0.08578033 -0.13639483
-0.09995713 0.008894351 0.060083672 -0.09361581 -0.08141806 -0.07853774 -0.10647538 0.007362075
-0.02862488 0.03760465 -0.09083848 -0.0042538466 -0.087318756 -0.006884423 0.03827475 -0.08263159
0.049314585 -0.11324765 -0.10863091 -0.03156677 0.04785976 0.008340396 -0.032394856 -0.021758238

doc_linear.bias f4 [5]
00000000: 274d ca3e f7fb 26bd 6bb9 d1be 2545 e13c
00000010: 1a62 5fbd
0.39511988 -0.040767636 -0.40961775 0.027498791 -0.054536916
