weights/sent_attn_model_yelp_preprocessed1536422790.6866286.pth (torch_old, 395375 bytes, 8 tensors)

embed.weight f4 [89, 200]
0	0x3ef72517	0.48270485
1	0xbe44ceaf	-0.19219469
2	0x3f24382b	0.64148206
3	0xbfef8e9c	-1.8715396
4	0x3ccee287	0.025254501
5	0x3e02ddeb	0.12779967
6	0xbe9d53c6	-0.30727977
7	0x3e584380	0.21119499
8	0xbf3dd4cb	-0.7415282
9	0x3c19e1c0	0.009392202
10	0xbedccd5e	-0.43125433
11	0x3eab5490	0.33462954
12	0x3f1792ce	0.5920838
13	0x3fe2a27e	1.7705839
14	0xbd869b32	-0.0657257
15	0x3f9e1317	1.2349576
16	0x3e9ac8f8	0.30231452
17	0x3da47f31	0.08032072
18	0xbfe50f50	-1.7895298
19	0x3ec6a05d	0.38794222
20	0x3f9984e0	1.1993675
21	0x3e95fb05	0.29293075
22	0xbf170666	-0.5899414
23	0x3e92e9ad	0.28693905
24	0xbefddc3b	-0.49582085
25	0x400498fa	2.071837
26	0xbeb6fb60	-0.3573866
27	0x3ec7a354	0.38991797
28	0xbf7296b4	-0.94761205
29	0x3fa21276	1.2661884
30	0xbec90149	-0.39258793
31	0x3e2e8919	0.17044486
32	0x3f16d65e	0.5892085
33	0xbd8b89af	-0.068133704
34	0x3f903e25	1.1268965
35	0x3dc09d21	0.0940497
36	0xbd7e2698	-0.062048525
37	0xbea76210	-0.32692003
38	0x3f614bef	0.8800649
39	0x3f922ae8	1.1419344
40	0xbe69bd2e	-0.22826073
41	0xbec45f2f	-0.3835387
42	0xbf486a59	-0.78287274
43	0x3ed0892a	0.40729648
44	0x3c45ecad	0.012080354
45	0xbe68ee84	-0.22747236
46	0xbe67814a	-0.22607914
47	0xbf864bbf	-1.0491866
48	0xbf49c824	-0.78821015
49	0x3f14cca3	0.5812475
50	0x3e9240f3	0.28565177
51	0x3f70e587	0.9410023
52	0xbe656795	-0.22402795
53	0x3e207d95	0.15672906
54	0xbf19816b	-0.599631
55	0x3eef1250	0.4669366
56	0xbed79e9a	-0.4211319
57	0xbe09e500	-0.13466263
58	0x3da1effd	0.07907102
59	0xbeba7cd2	-0.36423355
60	0xc0232f57	-2.5497644
61	0x3ec4b1ea	0.38416988
62	0xbf90975f	-1.1296195
63	0xbf97eef3	-1.1869797
64	0x3e763c7d	0.24046512
65	0xbf65a382	-0.8970262
66	0xbfbe27f5	-1.4855944
67	0xbf18d63c	-0.59701896
68	0x3f26cfe4	0.65160966
69	0x3e8b7e05	0.27244583
70	0x3fa501f9	1.2891227
71	0xbfad93d9	-1.3560745
72	0xc01004f1	-2.2503016
73	0xbd9ce468	-0.076607525
74	0x3f0adc64	0.5424254
75	0xbdbea2d4	-0.09308401
76	0xbd04ef0e	-0.032454543
77	0x3f7c9541	0.98665243
78	0xbdf83aed	-0.12120614
79	0xbf4d3deb	-0.80172604
80	0x3f09845b	0.53717583
81	0xbf6e992c	-0.9320247
82	0x3fb0e659	1.3820297
83	0xc020de62	-2.5135732
84	0xbbd0be86	-0.0063703684
85	0x3ee6e632	0.450975
86	0x3f4bd363	0.79619426
87	0xbf75e38c	-0.96050334
88	0xbfa55205	-1.2915655
89	0x3f457acd	0.77140504
90	0xbf86acbc	-1.0521464
91	0x3f14a01e	0.5805682
92	0xbfdb470c	-1.7131057
93	0xbe2803c3	-0.16407685
94	0x3f4fe14a	0.8120314
95	0x3e632e00	0.22185516
96	0x3f856e71	1.0424329
97	0xbf1887b0	-0.5958204
98	0xbf6879dd	-0.9081095
99	0x3f304195	0.6885007
100	0x3f770e10	0.9650583
101	0xbf487ea6	-0.7831825
102	0x3fccdb6f	1.6004466
103	0xc030873c	-2.758254
104	0xbe01926f	-0.12653516
105	0xbf1e3927	-0.6180596
106	0x3fac392c	1.3454947
107	0x3de63e14	0.11242309
108	0xbc362b9e	-0.011118798
109	0xbfeb3f26	-1.8378646
110	0xbfbebef1	-1.4902021
111	0x3f49f3c8	0.78887606
112	0x3f05c256	0.5224966
113	0xbf4ab574	-0.79183125
114	0x3f5718bc	0.84022117
115	0x3f0e011f	0.5547046
116	0xbf485673	-0.7825691
117	0xbf23ec91	-0.64032847
118	0x3f8b7e77	1.0897969
119	0x3ea3acc9	0.31967762
120	0x3e2239b1	0.1584232
121	0xbfb9c575	-1.4513384
122	0x3f9055f7	1.1276234
123	0x3f5e00f3	0.867202
124	0x3f6c9325	0.92412025
125	0x3f487f32	0.78319085
126	0xbee76c7f	-0.45199963
127	0xbf1bc9d1	-0.6085482
128	0x3f565f15	0.83738834
129	0x3fb158a4	1.3855176
130	0x3fae8b53	1.3636268
131	0x3f34b4c9	0.70588356
132	0xbf1e2d85	-0.6178821
133	0xbe9d8555	-0.30765787
134	0xbfa272d7	-1.2691296
135	0x3f59f94a	0.8514601
136	0xbf608fc0	-0.87719345
137	0xbfa845fb	-1.3146356
138	0x401584b5	2.3362248
139	0xbf9a296d	-1.2043892
140	0xc01ec200	-2.4805908
141	0x3d847c71	0.06469048
142	0xbf1fb97c	-0.623924
143	0x3e6f0941	0.23343374
144	0x3fc25656	1.5182598
145	0x3f6e704b	0.93140095
146	0xbf183067	-0.59448856
147	0x3f11aca4	0.56904054
148	0x3e02fe6e	0.1279237
149	0x4014f9d9	2.3277495
150	0x3ef4f97a	0.47846586
151	0xbf982d71	-1.1888868
152	0xbf31a56b	-0.6939303
153	0x3f142c64	0.57880235
154	0x3ea04bb9	0.31307772
155	0x3fb3e807	1.4055184
156	0xc0229cfe	-2.540832
157	0xbf0a3276	-0.5398325
158	0xbf81a2ef	-1.0127848
159	0x3f9bead7	1.2181042
160	0xbfc193a7	-1.5123185
161	0xbfdeb1c8	-1.7398005
162	0xbec98603	-0.39360055
163	0x3e60c30f	0.21949409
164	0xbf2b32fe	-0.6687468
165	0x400988b4	2.1489687
166	0x3f9684de	1.1759298
167	0xbfe8c468	-1.8184938
168	0x3f31e240	0.69485855
169	0x3f39e5f9	0.72616535
170	0xbd891ab4	-0.06694546
171	0xbe100adb	-0.14066641
172	0x3ea26744	0.3171941
173	0x3f497c6e	0.7870549
174	0xbfe5043e	-1.789192
175	0x3f80112c	1.000524
176	0x3e7394b4	0.23787194
177	0x3dc12aa2	0.0943196
178	0x3f266a97	0.65006393
179	0x3fe14de1	1.7601892
180	0xbde3ea12	-0.1112863
181	0xbe870685	-0.26372162
182	0xbf3f8d19	-0.7482467
183	0xbfe7e897	-1.8117856
184	0x3f2de0ed	0.67921335
185	0xbfc5c1ab	-1.5449728
186	0xbeec4b53	-0.46151218
187	0x3fb8a5a6	1.4425552
188	0x3f1120e1	0.56690794
189	0x3f1ed1bb	0.62038773
190	0x3ece7d85	0.4033014
191	0xbf886348	-1.0655298
192	0x3fa33ab2	1.2752287
193	0x3fdbc2d7	1.7168835
194	0xbfd03409	-1.626588
195	0xc00234bc	-2.0344687
196	0x3fcb0d08	1.5863352
197	0x3fa735fe	1.3063352
198	0xbfdc6152	-1.72172
199	0xbfa23ece	-1.2675416
200	0xbefb5464	-0.49087822
201	0xbf11176f	-0.5667638
202	0x3f7e49f1	0.99331576
203	0xbe946307	-0.28981802
204	0x3dab61ff	0.08368301
205	0xbf4a1027	-0.78930897
206	0x3fa93523	1.3219341
207	0x3e8bd416	0.27310246
208	0x3fb631dc	1.4233966
209	0x3f76fc01	0.9647828
210	0x3eb8b22e	0.3607344
211	0xbf0e58db	-0.5560433
212	0xbf7d06fa	-0.9883877
213	0xbddd735a	-0.10813017
214	0xbdda93e9	-0.10672743
215	0x3fe5089f	1.7893256
216	0x3db3f452	0.08786835
217	0xbf2f7fd7	-0.68554443
218	0x3ef27241	0.47352794
219	0x3fa378de	1.2771261
220	0x3e1160e8	0.14197123
221	0x3e460904	0.19339377
222	0xbe5d94d0	-0.21638799
223	0xbf686c70	-0.9079046
224	0xbde7cc1f	-0.1131823
225	0xbf14a327	-0.5806145
226	0x3f1fa0d4	0.6235478
227	0x3f88609b	1.0654482
228	0xbf123a27	-0.57119983
229	0xbf75bc5c	-0.9599054
230	0x3faca5b6	1.3488071
231	0x3f67bd56	0.9052328
232	0xbfcd82ca	-1.6055539
233	0xbdf2c708	-0.118543684
234	0x3e025288	0.12726796
235	0xbeaa2720	-0.33232975
236	0xbdb6fcc4	-0.0893493
237	0xbca448de	-0.020054277
238	0xbf15c653	-0.58505744
239	0xbf5fe7a4	-0.8746283
240	0xbf3933c1	-0.72344595
241	0x3fa31260	1.2739983
242	0xbeacdcdb	-0.3376225
243	0x3d70ba69	0.058771525
244	0xbf1d7c3c	-0.6151769
245	0xbf9fe7bb	-1.2492594
246	0x3c238e0f	0.0099826
247	0x3f87323c	1.0562205
248	0xbf5bb6b5	-0.85825664
249	0x3f9ae53b	1.2101206
250	0x40010b0e	2.0162997
251	0xbe3ee800	-0.18643188
252	0x3f7955dc	0.97396636
253	0x3e984d49	0.29746464
254	0x3dd9c642	0.10633518
255	0x3ddd01b5	0.10791341

sentCNN.weight f4 [100, 1, 3, 200]
0	0x3d43cdad	0.04780357
1	0x3c8a2082	0.016861204
2	0x3a553f38	0.00081347255
3	0xbbc65ef8	-0.0060538016
4	0xba1165e2	-0.0005546493
5	0x3cf032d5	0.029321114
6	0xbc04db90	-0.008108988
7	0xbae074a8	-0.001712461
8	0xbcc4bcf6	-0.024015885
9	0x3cd46b58	0.025930092
10	0x3d28dbd9	0.041225288
11	0x3c90c3fd	0.01767158
12	0x3cf0e00c	0.029403709
13	0x3a5411ff	0.000808984
14	0x3b150acf	0.0022742038
15	0xbc25ab2d	-0.010111612
16	0xbcaa4ed1	-0.020789536
17	0x3d0e6f94	0.034774378
18	0xbbe52c29	-0.0069937897
19	0xbc8b493c	-0.017002694
20	0x3c77cf27	0.015125073
21	0xbcc7f856	-0.024410408
22	0x3d1ba907	0.038002994
23	0xbcb734f3	-0.022364115
24	0x3d4c6374	0.049899533
25	0xbbcb04d2	-0.006195643
26	0x3d030069	0.031982813
27	0x3d134edf	0.03596389
28	0x3c7ecb7d	0.015551445
29	0x3bd5459d	0.0065085427
30	0x3d121478	0.03566405
31	0x3cea1b1a	0.028577376
32	0x3c0d53c4	0.008625928
33	0xbc54ccf6	-0.01298832
34	0xbd279bab	-0.04091994
35	0xbd919b45	-0.071096934
36	0xbcaf9e86	-0.021437895
37	0x3c04a813	0.008096713
38	0xbc1674c2	-0.009183111
39	0x3c99ad12	0.018759284
40	0x3d130376	0.035891972
41	0x3d6ceaf1	0.057841245
42	0xbc8e4f53	-0.01737181
43	0x3a2373ce	0.0006235213
44	0x3c4a5a24	0.012350593
45	0xbab66fe7	-0.0013918848
46	0x3d492628	0.049108654
47	0xbcacc14e	-0.021088269
48	0xbcfda960	-0.030964553
49	0xbcde2206	-0.027115833
50	0x3d13d61a	0.036092855
51	0x3cf9dedd	0.030501777
52	0x3c8e6970	0.01738426
53	0xbd16db36	-0.03683015
54	0xbcc98c04	-0.024602897
55	0xbd2e90cd	-0.04261856
56	0xb98c9ad8	-0.00026818248
57	0x3cab4b00	0.020909786
58	0x3b716d98	0.0036839005
59	0x3bc1167e	0.005892574
60	0x3d005ba7	0.031337406
61	0xbd098149	-0.03357056
62	0x3c1b04d7	0.009461603
63	0x3c03d822	0.008047136
64	0xbd04cd17	-0.03242215
65	0xbd01c88d	-0.0316854
66	0x3ce1b3d6	0.027551573
67	0x3ce4dc2c	0.027937017
68	0x3ca24796	0.019809525
69	0x3c8a2cad	0.016867006
70	0xbbecc34f	-0.007225431
71	0xbc0310c8	-0.007999606
72	0x3d501261	0.050798777
73	0x3c5080a2	0.012725981
74	0x3cdbe198	0.02684097
75	0xbb7e96b5	-0.0038847153
76	0xbc9f743e	-0.019464608
77	0x3c964e35	0.018347839
78	0x3a1327ec	0.0005613554
79	0xbc4219ef	-0.011847003
80	0x3ced4bbe	0.02896678
81	0x3ad77b2a	0.0016439904
82	0xbd0f5340	-0.034991503
83	0xbc2b3289	-0.01044906
84	0xbd577f73	-0.05261178
85	0x3ca046e0	0.019565046
86	0xbd357051	-0.044296566
87	0xbccaf6f7	-0.024775965
88	0xbb99781b	-0.004683507
89	0x3b89068d	0.004181689
90	0xbc9eb77f	-0.019374607
91	0x3c35dde1	0.011100263
92	0xbcb6ad58	-0.022299454
93	0xbbe6258e	-0.00702352
94	0xbc4fabff	-0.012675284
95	0x3cd3479b	0.02579098
96	0x3d2b48ba	0.041817404
97	0x3ca19206	0.01972295
98	0xbc0aacf9	-0.008464091
99	0xbc3726a7	-0.011178649
100	0x3cbf45d5	0.023348728
101	0x3cef785d	0.029232198
102	0x3c9f180b	0.019420644
103	0x3d0da956	0.03458532
104	0x3c8f21bc	0.01747214
105	0xbd705874	-0.058678105
106	0x3d9978eb	0.074937664
107	0x3c01e84a	0.007928917
108	0xbcd614bf	-0.02613294
109	0x3b477685	0.0030435633
110	0xbd0091bd	-0.031388987
111	0xbcb11f09	-0.021621244
112	0xbc765023	-0.0150337545
113	0xbcd8ef7d	-0.026481384
114	0x3d33456e	0.043767385
115	0xbc5e37ac	-0.013563078
116	0x3b9373cf	0.0044998894
117	0xbc7e0f2f	-0.01550655
118	0xbd08b9a1	-0.033380155
119	0x3cbb140a	0.022836704
120	0xbcb96dcc	-0.022635363
121	0x3a205936	0.0006116809
122	0xbb9b4fa9	-0.004739721
123	0xbc36f5c1	-0.011166991
124	0xbd24cd13	-0.040234637
125	0xbc654341	-0.013993085
126	0xbd3936d8	-0.04521832
127	0xba40143f	-0.00073272357
128	0xbd117d47	-0.035519864
129	0xbb628497	-0.0034563893
130	0x3d30702e	0.043075733
131	0x3bad6919	0.0052920696
132	0x3c41fdae	0.011840267
133	0xbd8099ec	-0.06279358
134	0x3d16936c	0.036761686
135	0xbc9185c3	-0.017763978
136	0xbd140906	-0.036141418
137	0xbac4e21b	-0.0015020998
138	0x3c2c11e6	0.010502314
139	0x3cb4b67c	0.022059672
140	0x3d06e103	0.03292943
141	0x3ae5ec87	0.0017541804
142	0xbd3a7403	-0.045520794
143	0xbd80bcc8	-0.06286007
144	0x3d02954b	0.031880658
145	0x3cc8d21e	0.024514254
146	0xbcc0e4a3	-0.023546522
147	0x3bb69254	0.005571643
148	0xbcd1016f	-0.025513379
149	0xbcc8327e	-0.024438139
150	0xbd6b5e6f	-0.057463106
151	0x3cbac76d	0.022800172
152	0x3cfc9b2c	0.03083571
153	0x3d04f45f	0.032459613
154	0x3c2bad5f	0.010478347
155	0x3c3cb477	0.011517636
156	0xbd130498	-0.035893053
157	0xbc5a41e4	-0.013321374
158	0xbd005e9a	-0.03134022
159	0x3c7c0f9b	0.01538458
160	0x3c145d3a	0.00905543
161	0x39eff082	0.00045764825
162	0xbc891307	-0.016732706
163	0xbcf5a68f	-0.029986648
164	0x3d1575f6	0.03648945
165	0xbc376514	-0.0111935325
166	0x3c4c95e4	0.012486909
167	0x3d052e74	0.032515004
168	0x3bf4dbcb	0.0074724904
169	0xbc047a80	-0.008085847
170	0x3b280036	0.0025634891
171	0xbc38b7bc	-0.011274274
172	0xbcfac76d	-0.030612672
173	0xbcfe044b	-0.031007906
174	0xbb8e0d2a	-0.0043350654
175	0x3d2830c8	0.041062146
176	0xbcd6ce0e	-0.026221301
177	0xbaa8f39f	-0.0012889988
178	0x3c45125f	0.012028306
179	0xbcc35f3d	-0.023849124
180	0x3cfa82ed	0.030580008
181	0x3c711a2d	0.014715713
182	0x3ca6dd4a	0.02036919
183	0xbd2c7dcb	-0.042112153
184	0x3c910ed7	0.017707272
185	0x3c5e3e10	0.013564602
186	0xbbb8f166	-0.0056440113
187	0x3cb21df5	0.0217428
188	0xbcdca643	-0.026934749
189	0xbba3b957	-0.0049964595
190	0x3cb2fdb8	0.021849498
191	0x3b868c9f	0.004106119
192	0x3b5c3211	0.0033599178
193	0xbd021594	-0.03175886
194	0xbc2e9d72	-0.010657655
195	0x3d3df2a8	0.046373993
196	0xbd73dbbb	-0.059535723
197	0x3cd8db20	0.026471674
198	0x3d2b6388	0.041842967
199	0xbcafd78c	-0.021465085
200	0xbc706c4b	-0.014674257
201	0x3d28d017	0.041214075
202	0x3bb1663f	0.0054138
203	0xbd5070a1	-0.05088866
204	0x3d04c5a5	0.03241505
205	0xbc538770	-0.012910709
206	0xbd263a5e	-0.040583007
207	0x3d0bde97	0.034147825
208	0xbc85d14a	-0.016335148
209	0xbcdc3132	-0.026878927
210	0x3ae6f46a	0.0017620448
211	0xbbd51552	-0.0065027857
212	0xbbe9c939	-0.0071345833
213	0xbce9dcc5	-0.028547654
214	0xbc5ebf60	-0.013595432
215	0x3d2170f3	0.039414357
216	0x3c8fabca	0.01753797
217	0xbd02211f	-0.031769868
218	0x3ce9bb1c	0.028531604
219	0x3c6c736b	0.014431815
220	0xbd1941b5	-0.03741618
221	0x3a22be6a	0.00062081835
222	0x3bb7d9f9	0.005610701
223	0xbc7c1a20	-0.015387088
224	0x3ab7a75b	0.0014011668
225	0xbc7a2fda	-0.015270198
226	0xbc1942db	-0.0093543185
227	0xbc62d323	-0.013844284
228	0xbc4061d6	-0.011742076
229	0x3d061487	0.03273442
230	0xbbc1f42a	-0.005918999
231	0xbd2ccff9	-0.042190526
232	0x3d09e774	0.033667997
233	0xbcb5c2d7	-0.022187633
234	0xbd1d2803	-0.038368236
235	0x3c4bda5c	0.012442198
236	0x3cbc6a33	0.022999858
237	0xbcdeccfc	-0.027197354
238	0xbca213d4	-0.019784845
239	0x3d11a7ba	0.035560347
240	0xb9a47ccc	-0.00031373498
241	0x3bcc0823	0.006226556
242	0x3b9601d5	0.004577855
243	0xbb5025ba	-0.0031760768
244	0xbc4b17bd	-0.012395796
245	0x3a4c7caa	0.0007800559
246	0x3c85fdd8	0.016356394
247	0x384a05ee	4.8166075e-05
248	0xbcfb0fb4	-0.030647136
249	0x3cb2d474	0.021829821
250	0x3d049e01	0.032377247
251	0x3cf55a5d	0.029950315
252	0xbc8d65a8	-0.017260388
253	0x3c575128	0.013141908
254	0x3d07070e	0.032965712
255	0xbcb4b3d4	-0.022058405

sentCNN.bias f4 [100]
0	0x3c940608	0.018069282
1	0x3cf458a8	0.02982743
2	0x3ba58cdb	0.0050521917
3	0x3b70f295	0.0036765684
4	0x3cdd717a	0.027031649
5	0xbd170fba	-0.036880232
6	0x3c83929f	0.016061125
7	0xbbda43ad	-0.0066608996
8	0x3bc9769b	0.006148172
9	0xbcff0865	-0.031131933
10	0x3828eca9	4.027473e-05
11	0x3d21c27b	0.03949211
12	0xbbecdc52	-0.0072284127
13	0xbca9524b	-0.020669123
14	0x3c81d246	0.015847337
15	0x3cbd9659	0.02314298
16	0xbd12f13c	-0.03587459
17	0xbd17e561	-0.037083987
18	0xbd22c75c	-0.039740905
19	0xbaf4bebe	-0.0018672568
20	0xbd185f2a	-0.03720013
21	0x3cabaa30	0.020955175
22	0x3cd47a3b	0.02593719
23	0xbc593407	-0.013257033
24	0x3b26e9cf	0.002546895
25	0xbc8e53c1	-0.017373921
26	0x3d161929	0.03664509
27	0x3b1775ca	0.002311098
28	0xbc61e11a	-0.013786579
29	0xbd03b853	-0.032158207
30	0x3d11a5ff	0.035558697
31	0xbd1b5e37	-0.037931647
32	0x3d2fdb57	0.04293379
33	0xbcdf63d2	-0.027269278
34	0x3c882dcc	0.0166234
35	0x3c9295a6	0.017893624
36	0x3817f73a	3.6231453e-05
37	0xbc8942cb	-0.016755482
38	0x3bc249ca	0.0059292065
39	0xbca98cdd	-0.020697052
40	0x3c292cf0	0.010325655
41	0x3cfe36ea	0.031032044
42	0x3a181bc4	0.0005802477
43	0xbc1a036c	-0.00940023
44	0x3b815aa5	0.0039475732
45	0x3b8bc008	0.0042648353
46	0xbd13f9f0	-0.03612703
47	0xbd0b1c2e	-0.03396242
48	0xbcd2e0d3	-0.02574197
49	0x3d30bac3	0.04314686
50	0xbce31fd5	-0.02772514
51	0x3d0ae984	0.033914104
52	0xbc8f9d9b	-0.017531207
53	0x3caee4b8	0.021349296
54	0xbc4b9dca	-0.012427757
55	0xbd144859	-0.03620181
56	0x3d2a6b19	0.041606043
57	0xbc9cff67	-0.019164754
58	0x39689b2f	0.00022183055
59	0x3d1df874	0.03856702
60	0xbd214a57	-0.039377537
61	0x3c6aecc1	0.014338673
62	0x3cda204f	0.026626734
63	0x3c2a4e46	0.010394638
64	0xbc421201	-0.011845113
65	0x3d0064f5	0.03134628
66	0x3d099873	0.033592653
67	0xbcc9e194	-0.024643697
68	0x3be2154e	0.0068995124
69	0x3bdb4a9f	0.006692245
70	0xbcf0d62d	-0.029399002
71	0x3c9fa98c	0.019490026
72	0xbc49b4aa	-0.01231114
73	0xbcf1c1ff	-0.02951145
74	0xbc00114f	-0.007816627
75	0xbc86a448	-0.016435757
76	0x3c4e9793	0.01260938
77	0xbc790b0d	-0.015200389
78	0x3d0cbb03	0.034358036
79	0xbced06f9	-0.028933989
80	0xbb2a61b5	-0.002599818
81	0xbc20054e	-0.00976689
82	0x3b27ae01	0.0025585892
83	0x3bb869d6	0.005627851
84	0x3cf534a3	0.029932326
85	0xbcce8377	-0.025209172
86	0x3d3178f9	0.04332826
87	0xbc5082f9	-0.012726539
88	0xbcee09da	-0.029057432
89	0xbc1717d0	-0.009221986
90	0x3c4757fd	0.012166974
91	0xbcf6b457	-0.03011529
92	0x3c671855	0.014104922
93	0x3d1a5e6b	0.0376877
94	0x3c920c1e	0.017828044
95	0x3c636e5f	0.013881295
96	0x3c8ecb33	0.017430877
97	0x3d22a2d1	0.039706055
98	0x3bf369de	0.007428392
99	0x3d1017f3	0.03517909

sentattn.weight f4 [100, 100]
0	0x3db01dce	0.08599435
1	0xbd8bc834	-0.06825295
2	0xbc97ea1e	-0.018544253
3	0x3d97c724	0.0741103
4	0xbdb4f9d9	-0.08836717
5	0x3c7f60f4	0.01558708
6	0x3db8a159	0.090151496
7	0x3d28f4b8	0.041249007
8	0x3d50969a	0.050924875
9	0xbb5b1714	-0.0033430504
10	0xbd69b420	-0.057056546
11	0xbc56a245	-0.0131002115
12	0x3da0888e	0.07838546
13	0xbb813f50	-0.003944315
14	0xbd80a6c7	-0.0628181
15	0xbdaed452	-0.08536591
16	0x3d2c4544	0.042058244
17	0x3d7441b4	0.059632972
18	0x3d083376	0.033252202
19	0x3d83a382	0.06427671
20	0xbd0280ed	-0.031861234
21	0x3db77c1d	0.089592196
22	0xbc0f51e5	-0.0087475525
23	0x3d9f0e7b	0.07766434
24	0x3d514ef8	0.0511007
25	0x3b98d32b	0.004663845
26	0xbd70ea1e	-0.05881702
27	0x3dc49e6b	0.09600528
28	0xbd50acae	-0.05094593
29	0xbd794e1b	-0.060865503
30	0x3d320fbb	0.043472033
31	0xbd22968a	-0.039694346
32	0xbd91cca5	-0.07119111
33	0xbd13c1d1	-0.03607351
34	0xbbc94e9a	-0.0061434032
35	0x3d8c850b	0.068613134
36	0x3cd5cd9f	0.026099024
37	0xbd72f28f	-0.059313353
38	0x3d28587e	0.041100018
39	0xbc9e5fd7	-0.01933281
40	0x3d0134af	0.031544384
41	0x3bb241c9	0.005439971
42	0x3d9b0d98	0.07570952
43	0xbd84809a	-0.06469841
44	0x3b1f0f0a	0.0024270439
45	0x3d8331df	0.064059965
46	0xbd4d7dbd	-0.05016874
47	0xbb8cc8b6	-0.0042963875
48	0xbd9714a4	-0.07376984
49	0xbda0565f	-0.07828974
50	0x3d9a7fb7	0.07543891
51	0x3d31526c	0.043291494
52	0x3d2edb2c	0.042689487
53	0xbd81f131	-0.06344832
54	0xbd70134d	-0.058612157
55	0x3d8ea264	0.06964567
56	0x3a81247f	0.0009852796
57	0x3d8b96b3	0.06815853
58	0x3ca573fe	0.020196911
59	0xbd56a475	-0.052402932
60	0x3c24e22f	0.010063692
61	0x3d7875b1	0.060659114
62	0x3d37dece	0.044890217
63	0x3d2efffd	0.0427246
64	0xbcd33e24	-0.025786467
65	0xbc0611ae	-0.008182926
66	0x3b9da634	0.0048110727
67	0x3d0575fc	0.03258322
68	0xbcf6e65c	-0.03013914
69	0xbdc9445b	-0.09827491
70	0x3c15e71f	0.009149342
71	0xbc8c5945	-0.01713241
72	0xbd56dc17	-0.052455988
73	0xbda9b0c6	-0.0828567
74	0xbdc5ad39	-0.0965218
75	0xbc76aa42	-0.015055241
76	0x3da44fec	0.080230564
77	0x3d8e958f	0.0696212
78	0x3c3a4d13	0.011370915
79	0x3d100e99	0.03517017
80	0x3d5c1022	0.053726323
81	0x3da8794e	0.08226262
82	0x3d298c47	0.041393545
83	0x3d6e3004	0.05815126
84	0x3cb8872c	0.022525392
85	0x3ce209c3	0.027592545
86	0x3d7b1253	0.061296772
87	0x3d12408a	0.03570608
88	0x3da49557	0.08036297
89	0x3dabd758	0.08390683
90	0xbd85aa4c	-0.06526622
91	0xbd055c35	-0.03255864
92	0x3ccbeaf4	0.024892308
93	0xbcbf448e	-0.02334812
94	0xbb84e2c8	-0.0040553547
95	0xbd7046b7	-0.05866119
96	0xbd1ab548	-0.03777054
97	0x3d9a9286	0.075474784
98	0x3dc78424	0.09742001
99	0xbd817083	-0.06320288
100	0xbd809b6f	-0.062796466
101	0x3db182ce	0.08667527
102	0x3d9de193	0.077090405
103	0xbd9a3b50	-0.07530844
104	0x3d9ddfe5	0.0770872
105	0xbc2377fc	-0.009977337
106	0xbd7bb178	-0.061448544
107	0x3d0daf27	0.034590866
108	0xbbca84f0	-0.006180398
109	0xbc925544	-0.017862923
110	0x3d76af87	0.06022599
111	0xbd015df1	-0.03158373
112	0xbd034d0b	-0.032055896
113	0xbda81f12	-0.08209051
114	0xbd414cb6	-0.047192298
115	0x3cd8c81d	0.026462609
116	0xbd09c59a	-0.033635713
117	0x3d4030ff	0.046921726
118	0xbdc1173b	-0.09428259
119	0xbcd79d0d	-0.026320005
120	0x3d92a65d	0.071606375
121	0xbd5a6e3d	-0.053327788
122	0xbd5af02c	-0.053451702
123	0xbda1a2e7	-0.07892399
124	0x3db3f8d2	0.08787693
125	0x3d323cbd	0.043514956
126	0x3d232d05	0.039837856
127	0x3d4c364d	0.049856473
128	0x3da3bbe3	0.07994821
129	0x3dc0041c	0.09375784
130	0xbdca6100	-0.098817825
131	0xbca1d04a	-0.01975264
132	0x3d84f333	0.06491699
133	0xbdb0d109	-0.0863362
134	0x3d8d150d	0.06888781
135	0xbdc768a1	-0.09736753
136	0x3db46e46	0.088100955
137	0x3d81fedf	0.06347441
138	0x3d3d237b	0.046176415
139	0x3d09039b	0.033450704
140	0x3dbfb08d	0.09359846
141	0x3db58289	0.08862788
142	0xbd8de31d	-0.06928084
143	0xbcbbb6f2	-0.022914384
144	0x3db5fc46	0.08886008
145	0xbbdca677	-0.0067337113
146	0xbc83e9fb	-0.016102782
147	0x3d83859a	0.06421967
148	0x3db9880a	0.090591505
149	0x3d1e17f4	0.038597062
150	0x3c48cdf0	0.012256131
151	0xbd038075	-0.032104928
152	0x3d83ffab	0.06445249
153	0xbceffaea	-0.02929445
154	0x3daa3705	0.083112754
155	0xbd3e41de	-0.046449535
156	0xbd991506	-0.07474713
157	0x3d13686a	0.03598825
158	0x3d76d43e	0.060261004
159	0xbdcb2a31	-0.09920157
160	0x3daf6a99	0.08565254
161	0x3d885127	0.066561036
162	0x3dac509d	0.08413813
163	0xbccb828c	-0.024842523
164	0x3b1a0b9a	0.002350545
165	0xbd467c9b	-0.048458677
166	0xbb14274c	-0.002260643
167	0x3d84e5ff	0.06489181
168	0x3ca72e87	0.020407928
169	0x3d5d4e8c	0.054029986
170	0x3c10e5d1	0.008843855
171	0x3b2ea117	0.002664631
172	0xbbb51028	-0.0055256076
173	0xbc3e228f	-0.011604919
174	0xbcad1a56	-0.021130722
175	0xbd6b5a87	-0.05745938
176	0x3dc7e1aa	0.09759839
177	0x3d89609a	0.067078784
178	0x3d18e097	0.03732356
179	0x3d46e682	0.048559673
180	0x3d051f98	0.032500833
181	0x3c693116	0.014232894
182	0x3b81e516	0.0039640767
183	0xbd1d23c8	-0.0383642
184	0x3c2e5153	0.010639506
185	0xbda7da85	-0.08195976
186	0xbd26ac60	-0.040691733
187	0xbda91d66	-0.082575604
188	0x3d57b350	0.05266124
189	0xbdb79151	-0.08963264
190	0xbcea62fc	-0.028611653
191	0xbd4e6ffb	-0.05039976
192	0xbcfde2f8	-0.030992016
193	0xbd4c510d	-0.049881984
194	0x3c7a8203	0.015289786
195	0xbdc18ca9	-0.09450657
196	0x3d77449e	0.060368173
197	0xbc9dcf36	-0.019263845
198	0x395745c9	0.00020529995
199	0x3b9b0486	0.004730764
200	0xbd7839e1	-0.060602073
201	0x3d9194db	0.0710847
202	0xbc2911e8	-0.010319211
203	0xbdc12c07	-0.09432226
204	0xbd5e60a1	-0.05429137
205	0x3b8c850e	0.0042883223
206	0xba668133	-0.0008793056
207	0xbd67fbc3	-0.056636583
208	0xbdac07fd	-0.08399961
209	0xbd5a706c	-0.05332987
210	0xbcba01ab	-0.022705873
211	0x3d224a29	0.039621506
212	0xbd5bedef	-0.053693708
213	0x3d86bfb7	0.065795355
214	0xbce8b8af	-0.028408377
215	0xbd657177	-0.05601641
216	0xbd8c687e	-0.06855868
217	0x3c274d06	0.010211235
218	0xbd2f78f9	-0.042839978
219	0xbda6f2c2	-0.08151771
220	0xbd677666	-0.056509398
221	0x3dd1b206	0.102390334
222	0x3d3432fd	0.04399394
223	0xbd774324	-0.060366765
224	0x3dca259b	0.09870454
225	0xbdb8d3d9	-0.09024782
226	0xbd9b772a	-0.07591088
227	0x3dadc5fe	0.0848503
228	0x3d2a85fa	0.041631676
229	0x3d94217c	0.07232949
230	0xbdc08526	-0.09400396
231	0xbd7f5b80	-0.06234312
232	0xbc112c4d	-0.00886066
233	0x3b59f7f9	0.0033259375
234	0xbd7ac624	-0.061224118
235	0xbd6d408a	-0.057922877
236	0xbd005566	-0.031331442
237	0x3c4a9254	0.012363989
238	0x3d1674f7	0.03673264
239	0xbd6b4e6e	-0.057447843
240	0x3dcaeb47	0.09908157
241	0xbdc93b7e	-0.098258
242	0x3d06a81a	0.032875158
243	0xbdae6f11	-0.08517278
244	0x3d8a5103	0.06753733
245	0xbdb3f0dc	-0.08786175
246	0x3d7588bc	0.059944853
247	0xbda57bd8	-0.08080262
248	0xbd7a7313	-0.0611449
249	0x3cfa3dc0	0.030547023
250	0x3db98be6	0.09059887
251	0x3db67e61	0.089108236
252	0x3c3e2f6d	0.011607987
253	0x3d0feced	0.03513806
254	0x3d4e8c0f	0.05042654
255	0xbdad21bf	-0.08453702

sentattn.bias f4 [100]
0	0xbbd805c9	-0.0065924865
1	0x3d9af108	0.07565504
2	0xbc68515f	-0.014179557
3	0xbc9c03e2	-0.01904482
4	0x3dbd280b	0.09236153
5	0x3c367bb2	0.01113789
6	0x3d8aa2e3	0.067693494
7	0xbbfbd8c7	-0.007685754
8	0x3c03c124	0.008041654
9	0xbc9533b6	-0.018213134
10	0xbd8368c9	-0.064164706
11	0x3c8dda0e	0.01731589
12	0xbd229f99	-0.039702985
13	0x3d5b48d4	0.05353625
14	0xbd9e6e9b	-0.0773594
15	0x3d4026dc	0.04691206
16	0x3cc46bde	0.023977216
17	0x3c6bc48b	0.014390121
18	0x3cb345f8	0.02188395
19	0x3c1a4017	0.009414694
20	0x3d14f42b	0.03636567
21	0xbd799fb6	-0.060943328
22	0xbdb33e84	-0.08752158
23	0x3ca6aaef	0.02034518
24	0x3dac6e08	0.08419424
25	0x3ce64938	0.028111085
26	0xbd090e72	-0.03346104
27	0xbc4045b2	-0.011735367
28	0x3dbaa288	0.091130316
29	0xbdaff91b	-0.08592435
30	0x3cf7b3c6	0.03023709
31	0x3c2b6f05	0.010463481
32	0x3d808550	0.06275427
33	0x3d31d6f7	0.043417897
34	0x3da5dc0d	0.08098612
35	0x3d811abb	0.063039266
36	0xbdbc1298	-0.09183234
37	0x3da3b61d	0.0799372
38	0xbc98eae8	-0.0186667
39	0xbda009c1	-0.078143604
40	0x3d94700f	0.07247936
41	0x3c97b630	0.018519491
42	0x3d7f2c39	0.062298033
43	0xbc776421	-0.015099556
44	0xbc95b95c	-0.018276863
45	0xbd33921a	-0.043840505
46	0x3c5efa2d	0.013609451
47	0xbc6a8b66	-0.014315462
48	0xbcef3f3b	-0.029204955
49	0x3c680538	0.0141614005
50	0xbd9f3114	-0.07773033
51	0x3c6baada	0.014383996
52	0xbdc76015	-0.09735123
53	0x3dc14732	0.094374076
54	0x3bc9fb94	0.0061640237
55	0xbd63bd17	-0.055600252
56	0xbcf101b4	-0.029419757
57	0x3db24f60	0.08706546
58	0xbd33d436	-0.043903552
59	0xbcb20045	-0.021728644
60	0x3ce7756d	0.028254235
61	0x3c33a719	0.010965132
62	0xbdad0eb9	-0.08450074
63	0x3d1b3687	0.0378938
64	0xbd100783	-0.035163414
65	0x3bddf81f	0.006773963
66	0xbda6d446	-0.08145957
67	0xbd1ae8d1	-0.037819687
68	0x3dbf8cb7	0.09353011
69	0x3c366664	0.01113281
70	0x3c0da89f	0.008646159
71	0xbdcaca8e	-0.099019155
72	0x3d4d094f	0.050057705
73	0xbd4e8bd1	-0.050426308
74	0xbd8ae316	-0.067815945
75	0x3d33d63c	0.04390548
76	0x3c03c71d	0.008043078
77	0xbd7990c7	-0.060929086
78	0xbd81afad	-0.063323356
79	0xbda8fc77	-0.08251279
80	0x3d6efb68	0.05834523
81	0xbd72c294	-0.059267595
82	0x3d974ce4	0.073877126
83	0x3da43ed6	0.080197975
84	0x3d4af2b4	0.049547866
85	0xba00757b	-0.00049003185
86	0xbd62f8a3	-0.0554129
87	0xbdb277c4	-0.0871425
88	0x3ac7fd64	0.0015258011
89	0x3d8e723e	0.06955384
90	0x3cce34ae	0.025171604
91	0xbd816ba3	-0.06319358
92	0xbd864e40	-0.06557894
93	0xbd871df6	-0.065975115
94	0xbd9b4cbe	-0.07582997
95	0x3d335635	0.043783385
96	0x3d5000f3	0.050782155
97	0x3d01a6a8	0.031653076
98	0xbdc39731	-0.09550322
99	0x3cb2d6a1	0.021830859

attn_combine.weight f4 [100, 100]
0	0xbdb406df	-0.08790373
1	0x3d2be3ab	0.041965168
2	0xbd446a5c	-0.047952995
3	0xbcee2d33	-0.029074287
4	0x3d57a9a6	0.052652024
5	0x3cbba8ff	0.022907732
6	0xbd87b5a7	-0.06626444
7	0x3dc47227	0.09592085
8	0x3d3bd3ff	0.045856472
9	0xbdb53457	-0.08847874
10	0x3b8c8d85	0.0042893314
11	0x3dbf8f04	0.0935345
12	0xbcad78ad	-0.021175707
13	0x3af50a28	0.0018695043
14	0xbd841b78	-0.06450552
15	0xbd16f48b	-0.036854308
16	0xbd510827	-0.051033165
17	0xbc35d8ab	-0.011099021
18	0xbc190263	-0.009338948
19	0xbdc06efe	-0.0939617
20	0xbce3b2da	-0.027795244
21	0x3d6712f1	0.05641455
22	0x3d6235ce	0.055227093
23	0x3daba952	0.08381905
24	0xbc2ed46d	-0.010670763
25	0xbbcb6a88	-0.006207768
26	0x3d903e0a	0.07043083
27	0xbd8a451f	-0.06751465
28	0xbcf66488	-0.030077234
29	0xbd8a4fce	-0.06753503
30	0xbdb0817a	-0.08618446
31	0xbd8d3a02	-0.0689583
32	0x3d9fa250	0.077946305
33	0x3da5a273	0.08087625
34	0x3c203181	0.009777428
35	0xbd1bfd70	-0.038083494
36	0xbb0f4c11	-0.0021865407
37	0xbd177c25	-0.036983628
38	0xbdc7a5f7	-0.09748452
39	0xbca16098	-0.01969938
40	0xbd98ec73	-0.07466974
41	0x3d653274	0.05595632
42	0x3d8f175b	0.069868766
43	0x3d0058a4	0.031334534
44	0xbd2966e2	-0.041357882
45	0xbda45e03	-0.08025744
46	0xbce4329c	-0.027856164
47	0xbbdff0ae	-0.006834111
48	0xbd737aa9	-0.05944315
49	0xbd60526d	-0.054766107
50	0xbd99c930	-0.075090766
51	0xbd354ec7	-0.04426458
52	0x3ce45728	0.02787359
53	0xbda17144	-0.07882932
54	0xbd220b53	-0.03956158
55	0x3db1ec89	0.086876936
56	0x3d853253	0.06503739
57	0x3d0a70f8	0.03379914
58	0xbcbe3273	-0.023217415
59	0x3dc3653d	0.09540794
60	0x3d8bf009	0.068328924
61	0x3d7aad61	0.061200503
62	0xbbfdba3a	-0.007743147
63	0x3d02664e	0.031835847
64	0x3d2c4e5c	0.042066917
65	0x3d737e44	0.05944659
66	0xbd6dae75	-0.058027703
67	0xbac49fca	-0.0015001234
68	0x3cd3db74	0.02586148
69	0x3d9b8f20	0.07595658
70	0x3c889a11	0.016675027
71	0x3c5f4ce1	0.013629169
72	0xbcbacbb9	-0.02280222
73	0xbd94a790	-0.072585225
74	0x3dbb66be	0.09150456
75	0xbdd4183b	-0.10356184
76	0xbdbec574	-0.09315005
77	0x3d8a9480	0.067666054
78	0x3c68b29f	0.014202743
79	0x3d3846ac	0.044989273
80	0xbd3ec527	-0.046574738
81	0xbd945263	-0.072422765
82	0xbdbb049b	-0.09131738
83	0x3dc46036	0.09588663
84	0xbb5799d5	-0.0032898088
85	0x3d99a9a1	0.07503057
86	0x3d205d7c	0.039151654
87	0x3d8d5ee5	0.06902865
88	0x3d0388d4	0.03211291
89	0xbdc4b39c	-0.0960457
90	0xbd87c18f	-0.06628715
91	0xbcef74b8	-0.02923046
92	0x3dc12742	0.09431316
93	0xbd5cb999	-0.053887937
94	0x3dbf4be0	0.09340644
95	0xbd317de3	-0.043332946
96	0x3d5cfbad	0.053950954
97	0xbdc89e9b	-0.097958766
98	0x3ca34db2	0.019934509
99	0xbd06dbfe	-0.032924645
100	0xbdbab574	-0.09116641
101	0x3d506859	0.050880764
102	0x3dae3b7c	0.085074395
103	0xbda86f9c	-0.08224413
104	0xbce2a68b	-0.027667305
105	0xbd7186ab	-0.05896632
106	0xbcc12851	-0.023578795
107	0xbbc743b5	-0.0060810694
108	0xbd784fc2	-0.060622938
109	0xbcdf6e58	-0.027274296
110	0xbd901e1b	-0.07036992
111	0x3cab45b7	0.020907266
112	0xbd43f4fc	-0.047841057
113	0x3da72651	0.08161605
114	0xbd29d7d3	-0.04146559
115	0x3dad5e15	0.0846521
116	0x3dc76da1	0.09737707
117	0x3d65c3f6	0.056095086
118	0xbc97659b	-0.018481066
119	0xbc9fdc15	-0.019514123
120	0x3db3eb60	0.087851286
121	0x3c855f77	0.016280873
122	0x3dc4e070	0.096131206
123	0xbd9b46c8	-0.0758186
124	0x3d611a48	0.054956704
125	0x3d884c87	0.066552214
126	0x3c9e7280	0.019341707
127	0x3a06eb04	0.00051467144
128	0x3da9a3b0	0.08283174
129	0xbdb64668	-0.08900148
130	0x3b826848	0.0039797164
131	0x3a8d26b9	0.0010768987
132	0xbd7ec577	-0.062200036
133	0xbd023ba6	-0.031795166
134	0xbc2fbbe7	-0.010725952
135	0xbc682816	-0.0141697135
136	0x3d44d415	0.04805382
137	0xbd0f398f	-0.034967
138	0x3db516ef	0.08842265
139	0xbdb4c181	-0.088259704
140	0xbbf78820	-0.007554069
141	0x3da44832	0.08021583
142	0xbdbac55e	-0.09119676
143	0x3db767fd	0.08955381
144	0xbd75a49c	-0.059971437
145	0xbd89b978	-0.067248285
146	0xbd601872	-0.054710813
147	0x3da2b928	0.07945472
148	0x3db3979a	0.0876915
149	0xbc831383	-0.016000515
150	0xbd93cc58	-0.0721671
151	0xbd316c6c	-0.04331629
152	0xbd683d05	-0.056698818
153	0x3dc703a3	0.097174905
154	0x3d4e5057	0.050369587
155	0x3d95414c	0.07287845
156	0xbcdc9269	-0.026925283
157	0xbd829d5e	-0.06377672
158	0x3da2c860	0.07948375
159	0x3d8bd0a5	0.06826905
160	0xbce1a086	-0.027542364
161	0xbd253a2d	-0.040338684
162	0xbd12581b	-0.035728555
163	0x3c31f6d0	0.010862067
164	0x3cb5489d	0.022129351
165	0x3c36ccc0	0.011157215
166	0x3c872a70	0.016499728
167	0xbd991197	-0.07474058
168	0xbda563e0	-0.0807569
169	0xbdaa5413	-0.08316817
170	0x3cccb9b6	0.024990898
171	0x3d9353cb	0.071937166
172	0xbd19016a	-0.037354864
173	0xbc8029ce	-0.015644934
174	0x3baa72e1	0.005201683
175	0x3d9c841d	0.07642386
176	0xbda2d31c	-0.07950422
177	0x3d7e9687	0.062155273
178	0x3ceafd93	0.028685367
179	0xbbfee294	-0.007778475
180	0x3da16a04	0.07881549
181	0xbda6d084	-0.0814524
182	0x3db64d37	0.08901446
183	0xbdb51ecf	-0.08843767
184	0x3dc01e7e	0.09380816
185	0xbdcb24d3	-0.09919133
186	0xba318c0a	-0.00067728816
187	0xbd2c1c5d	-0.042019237
188	0xbb9ac2c9	-0.004722927
189	0xbd5935d9	-0.05302987
190	0x3d9a8e01	0.07546616
191	0x3dbcfb6e	0.09227644
192	0x3d9b7880	0.07591343
193	0xbd948f31	-0.07253874
194	0x3d93b9d0	0.07213175
195	0x3d1e1a34	0.038599208
196	0xbd06ba81	-0.032892708
197	0xbc5f9490	-0.01364626
198	0xbdaa6fe1	-0.083221205
199	0x3db20d82	0.08693983
200	0xbda7f959	-0.08201856
201	0x3d0ee722	0.034888394
202	0xbccfc48b	-0.025362274
203	0x3d809a02	0.06279375
204	0x3cdd7f41	0.027038218
205	0x3d18a405	0.037265796
206	0x3da6020c	0.08105859
207	0xbc2d135e	-0.0105636995
208	0xbd50bd39	-0.050961707
209	0x3cfbb9d6	0.030728262
210	0x3cc6f90b	0.024288675
211	0x3ca390b2	0.019966457
212	0xbc27e5f1	-0.010247693
213	0xbcd56dca	-0.026053328
214	0xbd3fd310	-0.046832144
215	0xbce41844	-0.027843602
216	0x3d6cc4d7	0.05780491
217	0xbce7c910	-0.028294116
218	0x3d45fa50	0.04833442
219	0xbdb882b8	-0.090093076
220	0x3a503e33	0.0007943839
221	0x3bfd92b4	0.0077384356
222	0x3d32983f	0.043602224
223	0xbd711ea8	-0.058867127
224	0xbd252814	-0.040321425
225	0xbd96ba24	-0.07359722
226	0x3d654f8c	0.055984065
227	0xbd86af35	-0.06576387
228	0xbd157ebe	-0.036497824
229	0x3d569519	0.052388284
230	0x3d9656ad	0.07340751
231	0xbd024a03	-0.031808864
232	0x3d9592c9	0.07303388
233	0x3dc8c8af	0.09803902
234	0x3d0a7b71	0.03380913
235	0xbd46847a	-0.048466183
236	0x3da0022d	0.07812915
237	0xbd3aced2	-0.045607395
238	0xbd8422f8	-0.06451982
239	0x3dae6ea6	0.08517198
240	0x3da6c585	0.081431426
241	0xbce7ebfb	-0.028310766
242	0xbd78301b	-0.060592752
243	0x3d80bc8d	0.06285963
244	0x3c9d5be7	0.019208862
245	0x3da4e5d5	0.080516495
246	0x3db8c1b5	0.09021322
247	0xbd38bf06	-0.04510405
248	0x3d1be650	0.03806144
249	0x3bdca45c	0.0067334604
250	0xbdb95c3f	-0.09050798
251	0x3d0da09c	0.034576997
252	0x3d6ed16a	0.05830518
253	0xbd967d4e	-0.07348119
254	0x3cd3f51d	0.025873715
255	0x3d391195	0.045182783

doc_linear.weight f4 [5, 100]
0	0x3e2152db	0.15754263
1	0x3cabee63	0.020987695
2	0x3ca82ec6	0.020530116
3	0xbc90c5c6	-0.01767243
4	0x3e0f65cc	0.14003676
5	0x3daa5080	0.083161354
6	0x3e4931f4	0.19647962
7	0xbcb86a66	-0.022511672
8	0x3d4ae39f	0.049533483
9	0x3d752394	0.059848383
10	0xbdc456a7	-0.0958684
11	0x3c3baa73	0.0114542125
12	0x3dac4990	0.084124684
13	0x3db597a4	0.08866814
14	0xbbd520c9	-0.0065041524
15	0xbd83d4d1	-0.06437076
16	0xbd94e4cb	-0.07270201
17	0x3dd93389	0.10605533
18	0xbc3a4fb8	-0.0113715455
19	0xbc618241	-0.013763965
20	0xbd8bffb9	-0.068358846
21	0x3e4c09ea	0.19925657
22	0x3d55c317	0.052188005
23	0x3c50e947	0.01275093
24	0x3d584170	0.05279678
25	0x3e297242	0.16547492
26	0xbc3a5894	-0.011373658
27	0x3dcf3272	0.101170436
28	0xbd9cad31	-0.07650221
29	0x3dd426a8	0.103589356
30	0x3dab5d4a	0.08367403
31	0xbdfd4fb1	-0.123687156
32	0x3d9b7d52	0.07592262
33	0xbda07818	-0.07835406
34	0x3dd9d05f	0.10635447
35	0x3dd9f695	0.10642735
36	0x3dd62159	0.10455579
37	0x3d70ec1c	0.05881892
38	0xbc745db0	-0.014914915
39	0x3d891a6a	0.06694491
40	0x3e2e9be2	0.17051652
41	0xbb1323f5	-0.0022451852
42	0x3dd5b07a	0.10434051
43	0xbd324dfc	-0.043531403
44	0x3d75cbf7	0.06000897
45	0xbd6fe4ee	-0.058567934
46	0xbd4d7b3e	-0.05016636
47	0xbda4b549	-0.0804239
48	0x3e042843	0.12905984
49	0x3e3073c3	0.1723166
50	0x3e093de7	0.1340252
51	0xbd0a3efb	-0.03375147
52	0xbdb99933	-0.090624236
53	0x3e0874cc	0.13325804
54	0xbd692562	-0.056920417
55	0x3d5b41a3	0.053529393
56	0x3df0f24f	0.11764967
57	0x3d955ae6	0.07292728
58	0xbdd08f49	-0.101835795
59	0x3dafa6b1	0.08576716
60	0xbc4332fb	-0.01191401
61	0xbdbd8be3	-0.09255197
62	0xbddd44e0	-0.108041525
63	0x3d51289d	0.051064122
64	0x3d9414db	0.0723054
65	0x3c88ff65	0.016723344
66	0x3dd03baf	0.10167634
67	0x3ce8ae4f	0.02840343
68	0x3e0f8674	0.14016134
69	0x3c4a7042	0.012355866
70	0x3dc8aa5a	0.09798117
71	0x3b33537d	0.0027362995
72	0xbdad0586	-0.08448319
73	0x3d0d49ba	0.03449414
74	0x3e0797e4	0.13241535
75	0x3c534578	0.012894981
76	0x3e1bd50f	0.15217994
77	0x3dd2c4af	0.10291421
78	0x3e6bd2e7	0.23029672
79	0xbe0ac5d1	-0.13552023
80	0x3e1632cf	0.1466782
81	0x3de5e0c0	0.11224508
82	0x3e44cb47	0.19218169
83	0xbce74807	-0.028232588
84	0xbd90bf75	-0.070677675
85	0x3e50cd29	0.20390762
86	0xbdfdb5ea	-0.12388213
87	0xbd145910	-0.03621775
88	0x3d225c2a	0.039638676
89	0xbd86871d	-0.065687396
90	0x3e196f02	0.14983752
91	0xbd101463	-0.035175692
92	0x3dca80ae	0.09887825
93	0x3dff7e8c	0.12475309
94	0xbda44a24	-0.08021954
95	0x3d63e2d6	0.05563625
96	0x3df87368	0.12131387
97	0x3e056924	0.13028389
98	0x3be0eba4	0.006864028
99	0x3d95aec4	0.073087245
100	0xbdd1f434	-0.10251656
101	0x3d3fcddc	0.046827182
102	0x3da74a17	0.081684284
103	0x3dabb4b4	0.08384076
104	0xbc9d30fc	-0.019188397
105	0x3d9e6cce	0.077355966
106	0xbc32dd03	-0.010916951
107	0x3c7f9deb	0.015601615
108	0xbdf37dc0	-0.11889219
109	0xbd961641	-0.07328463
110	0x3e0a7a2a	0.13523164
111	0xbe18ae10	-0.1491015
112	0xbd7ffa9a	-0.06249485
113	0xbc90daf4	-0.01768253
114	0x3cc7c393	0.02438525
115	0x3c17fade	0.00927612
116	0xbd898ccc	-0.06716308
117	0x3c7cf9ae	0.015440388
118	0x3d972f8a	0.07382114
119	0x3ddf127c	0.108921975
120	0x3dd28c79	0.10280699
121	0xbddea7fb	-0.108718835
122	0x3e2c44fc	0.1682319
123	0x3d7d8a02	0.061899193
124	0x3d278617	0.040899362
125	0xbcfd1097	-0.0308917
126	0x3ddfb626	0.10923414
127	0x3d37020f	0.044679698
128	0x3dd0cc1e	0.10195182
129	0x3db509df	0.088397734
130	0x3da76318	0.081731975
131	0x3e068cc7	0.1313964
132	0x3d6b4f69	0.05744878
133	0x3d99ba2c	0.075062126
134	0x3d0f3e87	0.03497174
135	0xbdc73bb0	-0.09728181
136	0x3d22344c	0.039600655
137	0x3da61f53	0.08111443
138	0x3e0e94e8	0.1392399
139	0xbcf36b55	-0.029714266
140	0xbd368101	-0.04455662
141	0x3d19cfe7	0.037551787
142	0xbdedb15b	-0.116060935
143	0xbc24c907	-0.010057694
144	0x3a07bc26	0.00051778776
145	0xbc430da2	-0.011905106
146	0xbd5ad33e	-0.053424112
147	0xbdb8c19b	-0.09021302
148	0xbced428f	-0.028962402
149	0x3abb4529	0.0014287579
150	0x3c983b30	0.01858291
151	0x3dd6507b	0.10464569
152	0xbd6cacba	-0.057781912
153	0x3d8f16a0	0.06986737
154	0x3d999264	0.07498625
155	0x3d3a641b	0.045505624
156	0x3dcf7086	0.10128884
157	0x3daf3cd7	0.08556526
158	0x3caa1b89	0.020765083
159	0x3c7cca4d	0.015429092
160	0xbd295e2c	-0.041349575
161	0x3e05b66d	0.13057871
162	0x3e54ce48	0.20781815
163	0xbd9021dc	-0.07037708
164	0x3e306b91	0.17228533
165	0x3d284e57	0.041090336
166	0xbd63aa78	-0.055582494
167	0xbbc0b4f4	-0.0058809463
168	0xbd11ad95	-0.03556593
169	0xbc81e99e	-0.015858468
170	0xbdc00b1c	-0.09377119
171	0x3dcf8406	0.10132603
172	0xbdeed11c	-0.11660978
173	0xbd965d3a	-0.07342
174	0xbd013600	-0.03154564
175	0x3c3d4790	0.011552706
176	0xbb0b7fb9	-0.0021285845
177	0xbda6de19	-0.081478305
178	0xbd15d574	-0.036580518
179	0x3e5c5932	0.215184
180	0xbdbddecf	-0.09271013
181	0xbc92ab65	-0.017903993
182	0x3baf85bf	0.00535652
183	0xbe00bbdd	-0.12571664
184	0xbdeaed90	-0.11471093
185	0x3cf73084	0.030174501
186	0xbe098d6e	-0.13432857
187	0x3dde46c9	0.10853345
188	0xbd3d3272	-0.046190687
189	0x3d2e2f85	0.042525787
190	0xbdf6e35f	-0.12055086
191	0x3dc673be	0.09690045
192	0x3d85461c	0.06507513
193	0xbd3e0f28	-0.046401173
194	0x3d9428b6	0.072343275
195	0x3d644a5c	0.055734977
196	0xbd4df787	-0.05028489
197	0xbe0157a5	-0.1263109
198	0x3d67bb74	0.056575254
199	0xbddc6fa5	-0.10763482
200	0xbe075c95	-0.13218911
201	0xbccf133e	-0.02527773
202	0x3d35dc55	0.044399578
203	0x3b9a518b	0.0047094277
204	0x3c3256ce	0.010884954
205	0x3bc086e6	0.005875456
206	0xbd99f8e9	-0.07518179
207	0xbd73dd05	-0.059536953
208	0xbd9f8715	-0.07789437
209	0x3d18e12d	0.03732412
210	0xbacda4f7	-0.0015689422
211	0xbd847b01	-0.06468774
212	0x3ca55a9d	0.02018481
213	0x3bf6a1c4	0.007526608
214	0x3d402700	0.046912193
215	0xbd57e1dc	-0.05270563
216	0x3d0e9622	0.034811147
217	0x3b69c624	0.003567108
218	0xbd7eabc1	-0.062175516
219	0xbdaa9f5f	-0.08331179
220	0x3d2597ae	0.040427856
221	0xbd0b2adc	-0.03397642
222	0x3d55de85	0.052214164
223	0x3d12ffc9	0.035888467
224	0xbb8b7686	-0.0042560725
225	0xbb820931	-0.003968381
226	0x3d1d9c12	0.03847892
227	0xbc8b5f30	-0.017013162
228	0xbd8cc6a7	-0.068738274
229	0xbc159b7a	-0.009131307
230	0x3b570b21	0.003281303
231	0xbdf81228	-0.12112838
232	0xbdc9a15e	-0.098452315
233	0xbdc7fb00	-0.09764671
234	0xbdb3df96	-0.0878288
235	0xbe004bb1	-0.12528874
236	0xbc8a38f6	-0.016872864
237	0xbd6bb591	-0.057546202
238	0xbd1bdee4	-0.038054362
239	0x3c0bd3d4	0.0085343905
240	0xbdc41227	-0.09573775
241	0xbc799e95	-0.015235563
242	0xbd158858	-0.03650698
243	0xbdc90313	-0.098150395
244	0xbda79d0c	-0.08184251
245	0xbe0b9b69	-0.13633503
246	0xbcbcd332	-0.023049925
247	0xbdbc6c5b	-0.09200355
248	0x3d100bba	0.035167433
249	0xbd7a657f	-0.06113195
250	0x3d487e12	0.048948355
251	0xbb7da22f	-0.0038701405
252	0x3c4f3d9b	0.012648965
253	0xbda20e6d	-0.07912908
254	0x3b5d9df3	0.003381607
255	0xbceab922	-0.028652731

doc_linear.bias f4 [5]
0	0x3e69dbe8	0.22837794
1	0xbc9f8fbc	-0.019477718
2	0xbe6ff9a2	-0.23435071
3	0x3c245b58	0.010031544
4	0xbd13c6ee	-0.036078386
