weights/sent_attn_model_yelp_preprocessed1536422109.7474444.pth (torch_old, 395375 bytes, 8 tensors)

embed.weight f4 [89, 200]
0	0x3f72130b	0.9456031
1	0xbea9c4cf	-0.33157966
2	0x3f029e8a	0.5102316
3	0x3f6223e4	0.88336015
4	0xbf4f7c9f	-0.8104953
5	0xbf1d0e20	-0.6134968
6	0x3fd2410e	1.6426103
7	0x3f759f62	0.95946324
8	0xbd1a468d	-0.03766494
9	0xbf91042d	-1.1329399
10	0x3ead8e0d	0.3389744
11	0xbf619349	-0.88115364
12	0xbf7f7521	-0.997881
13	0xbe4a65d7	-0.19765411
14	0x3f7b8105	0.98243743
15	0x3ea6c1c9	0.3256972
16	0x3f1f0900	0.6212311
17	0x3f5a2a58	0.8522086
18	0xbfb9c435	-1.4513003
19	0x3f2c27c5	0.67248183
20	0x3fc312b0	1.5240078
21	0xbeaf6ee0	-0.34264278
22	0x3f05b1ab	0.52224225
23	0x3d7788ce	0.0604332
24	0xbfc0e8c2	-1.5071032
25	0x3eb88a6b	0.36043105
26	0xbfd74f62	-1.6821101
27	0xbf93a664	-1.1535153
28	0x3f6b499f	0.9190921
29	0xbf38d682	-0.7220231
30	0xbf9c99ec	-1.2234473
31	0xbf8a9897	-1.0827817
32	0xbf5ccd40	-0.86250687
33	0xbf5c6849	-0.86096627
34	0x3e5d5a98	0.2161659
35	0xbe02fc47	-0.12791549
36	0x3ee211cf	0.44154212
37	0x3f2fe5a2	0.68709767
38	0xbf5a8921	-0.8536549
39	0xbe98980a	-0.29803497
40	0xbfa52764	-1.2902646
41	0x3dbfbeda	0.09362574
42	0xbf7e9ad0	-0.99454975
43	0x3f70ac46	0.9401287
44	0x3fc6daf4	1.5535569
45	0x3f0d4d1d	0.5519579
46	0xbf4ea44f	-0.80719465
47	0xbf944430	-1.1583309
48	0xbec47eed	-0.38378087
49	0xbe6b141c	-0.2295689
50	0xbf9f86a3	-1.2462963
51	0xbfb29117	-1.3950528
52	0x3ef37f1f	0.47557923
53	0xbf94bb57	-1.1619672
54	0xbbe547fc	-0.0069971066
55	0x3d07b597	0.033132162
56	0xbfa05deb	-1.2528661
57	0x3f6906f4	0.91026235
58	0xbc51a5e7	-0.012795902
59	0xbffe1b77	-1.9852132
60	0x3fb6d93b	1.4285043
61	0xbfa19333	-1.2623047
62	0x3f85c33a	1.0450203
63	0xbfea9b9a	-1.8328736
64	0xbf28626f	-0.657752
65	0xbf5d302b	-0.86401623
66	0xbf30d7c1	-0.69079214
67	0xbf64e05f	-0.89404863
68	0xbfa9c202	-1.3262331
69	0x401b4f86	2.4267287
70	0x3d48b28c	0.0489984
71	0xbf658ff8	-0.89672804
72	0xbe91568a	-0.28386337
73	0x3e021125	0.12701853
74	0xbf968170	-1.1758251
75	0xbf9b50e6	-1.2134063
76	0xbf20524f	-0.6262559
77	0xbf9bee50	-1.2182102
78	0x3f0fb6c2	0.5613824
79	0xbf850df7	-1.0394887
80	0x3ea1d4da	0.31607705
81	0x3fe4c3d9	1.7872268
82	0xbec7e1ab	-0.39039358
83	0xbd1a4929	-0.037667427
84	0xbf655a18	-0.895906
85	0x3f8e00c0	1.1093979
86	0x3f94e399	1.1631957
87	0x3e8a4368	0.27004552
88	0x3e92e56d	0.28690663
89	0xc00d1dbc	-2.2049398
90	0xbe971e2f	-0.29515216
91	0xbf757400	-0.95880127
92	0x3f501906	0.8128818
93	0x3e3fabbe	0.18717858
94	0x3c274f78	0.010211818
95	0x3f284390	0.6572809
96	0x400626cd	2.0961182
97	0x3f7d62de	0.98978984
98	0x3f725d14	0.94673276
99	0x3f8eb572	1.1149123
100	0xbf64a126	-0.89308393
101	0xbf245ee7	-0.6420731
102	0xbf222fac	-0.6335399
103	0x3fde83f3	1.7384018
104	0xbd3ef79a	-0.04662285
105	0x3ed98afa	0.42488843
106	0xbf3b3762	-0.7313138
107	0xbee44ec1	-0.44591334
108	0xc0017e69	-2.0233405
109	0x3dc36c7a	0.09542175
110	0xbf8d9b39	-1.1062995
111	0xbf606246	-0.87649953
112	0x3ef9f554	0.48819983
113	0xbec1328e	-0.37733883
114	0x3e14e517	0.14540516
115	0xbc7cfafb	-0.015440698
116	0x4020f7ec	2.515132
117	0xbe71e47d	-0.23622318
118	0xbf023f06	-0.50877416
119	0x3f31c218	0.6943679
120	0xbea8f4f3	-0.3299938
121	0x3d9b4fdf	0.075835936
122	0x3eeebc61	0.46628097
123	0xbf7e6293	-0.9936916
124	0x3fac6c6d	1.3470589
125	0x3e0da971	0.13834168
126	0x3fa419da	1.2820389
127	0x3e8f369f	0.2797136
128	0x3ea91db8	0.33030486
129	0xbf0502a4	-0.51957154
130	0x3c9d1623	0.019175595
131	0xbfbfa679	-1.4972678
132	0x3f103e82	0.5634538
133	0x3fa6780f	1.3005389
134	0x3f063c91	0.52436167
135	0x3f49b6cc	0.7879455
136	0xbe18d02a	-0.14923158
137	0xbe93e46c	-0.2888521
138	0x3f195496	0.5989469
139	0x3f86fe27	1.0546311
140	0xbf8de410	-1.1085224
141	0xbf3c53ec	-0.73565555
142	0xbece74f1	-0.40323594
143	0x3f33ba61	0.70206267
144	0x3ec51bb4	0.38497698
145	0xbddfcdbd	-0.10927913
146	0x3fbaa1a0	1.4580574
147	0x3f694fe3	0.9113752
148	0x3f9dec0b	1.233766
149	0xbfd1facb	-1.6404661
150	0xbe9658f9	-0.29364756
151	0x3f87c458	1.0606794
152	0xbec46480	-0.38357925
153	0x3ec9fe87	0.39452
154	0x3eeb5ff5	0.45971647
155	0xbf15a92c	-0.5846126
156	0x3f36438f	0.71196836
157	0x3cc4a89b	0.024006179
158	0xbfa1a974	-1.2629838
159	0xbd57fe36	-0.05273267
160	0xbe9a0d3b	-0.3008822
161	0x3f8c2b23	1.0950664
162	0xbf5a41ca	-0.85256636
163	0x3fd5a6ce	1.669153
164	0xbf053fce	-0.52050483
165	0xbfc288b0	-1.5197964
166	0xbffbf76a	-1.968488
167	0x3ffd6ffa	1.9799798
168	0x3f51d38c	0.8196342
169	0xbfc0a916	-1.5051601
170	0xbfe19ae4	-1.7625394
171	0x3fc518cc	1.5398192
172	0xbf28f089	-0.6599203
173	0xbfbcc1b9	-1.474662
174	0xc00f023d	-2.2345116
175	0x3e7d92e9	0.24763073
176	0x3ff758e9	1.9324008
177	0xbed6cdb2	-0.41953808
178	0x403eacd2	2.979298
179	0x3dcefe7e	0.10107134
180	0x3ec017b8	0.37518096
181	0xbf313ca2	-0.69233143
182	0xbf3aa6a6	-0.72910535
183	0xbea577e5	-0.32318035
184	0x3f16b5ff	0.58871454
185	0xbdcfd856	-0.10148685
186	0xbf4fdb6e	-0.811942
187	0xbbda3eb0	-0.006660305
188	0xbf687087	-0.90796703
189	0xbf7016dd	-0.93784887
190	0xbef8fe0e	-0.48631328
191	0x3e818677	0.252979
192	0x3efa71f2	0.48915058
193	0x3e91fe88	0.28514504
194	0xbf351ba2	-0.7074529
195	0xbe71dbf2	-0.23619059
196	0xbdcaaf78	-0.09896749
197	0x3f48dc51	0.78461176
198	0xbf1956d2	-0.598981
199	0x3cabdd0f	0.020979432
200	0x3fbbb54e	1.4664705
201	0xbdf0eaf4	-0.11763564
202	0x3ee99814	0.4562384
203	0x3cb7b273	0.022423958
204	0x3d0854df	0.033284064
205	0x3fdd340f	1.7281512
206	0x4025cfe9	2.5908148
207	0x3f854c6e	1.041395
208	0xbf3e138a	-0.74248564
209	0xbf37c2bd	-0.7178152
210	0x402cbb65	2.6989377
211	0x3fcee506	1.6163642
212	0x3f20fa04	0.62881494
213	0xbd891820	-0.066940546
214	0xbf4c3842	-0.7977334
215	0xbebf9be1	-0.37423614
216	0x3ed6f1f5	0.41981474
217	0xbf2c3e89	-0.6728292
218	0xbede9e0d	-0.43479958
219	0x3ee2ee9b	0.44322667
220	0xbeecfe3c	-0.46287715
221	0x3fce3ae1	1.6111718
222	0xbdb02fb7	-0.08602851
223	0xbf01e98d	-0.50746995
224	0xbf3df586	-0.74202764
225	0x3ebbe2ab	0.3669637
226	0xbe53482e	-0.20633003
227	0x3f600ba1	0.87517744
228	0xbf1eabbc	-0.61980796
229	0x40030af1	2.0475428
230	0xbe50a162	-0.20374063
231	0xbe74afab	-0.23895137
232	0x3fcbf1bd	1.5933148
233	0xbec28b06	-0.3799669
234	0x3e69a2e2	0.22816041
235	0x3e4f9bdc	0.202743
236	0xbfc452b9	-1.5337745
237	0xbdeecdbd	-0.11660335
238	0x3f7cafba	0.9870564
239	0x3f75c433	0.960025
240	0xbeaa9571	-0.3331714
241	0x3f756aab	0.9586589
242	0xbe5d7228	-0.21625578
243	0xbec1eecb	-0.37877497
244	0xbfa1f7bf	-1.2653731
245	0x3eb49ed7	0.35277435
246	0xbd84c5d8	-0.06483048
247	0xbf0e17af	-0.5550489
248	0xbfada1dd	-1.3565022
249	0x3d829b91	0.06377328
250	0x3eed2ac2	0.46321684
251	0xbfaf0956	-1.3674724
252	0x3dbd2ff9	0.09237666
253	0x3f48bbe6	0.7841171
254	0xbf137d10	-0.57612705
255	0xbdba0fc5	-0.09085039

sentCNN.weight f4 [100, 1, 3, 200]
0	0x3d07c95f	0.033151027
1	0x3b35acc0	0.0027721375
2	0x3d160df6	0.036634408
3	0x3d184bb2	0.037181564
4	0xbc9521ee	-0.018204655
5	0xbbabd15d	-0.005243464
6	0xbb53bf9e	-0.0032310258
7	0xbc9f6f2d	-0.019462192
8	0xbaaeb3c9	-0.0013328727
9	0x3cb77de1	0.02239889
10	0xbcd875c8	-0.02642335
11	0x3c1d5e57	0.009605012
12	0xbc94c7cf	-0.018161682
13	0x3d001b9c	0.03127633
14	0xbc35fd02	-0.011107685
15	0xbd111879	-0.03542373
16	0xbd25be0e	-0.040464453
17	0xbbd37bef	-0.006453983
18	0xbcecccbe	-0.028906222
19	0x3d00996a	0.031396307
20	0x3d28a8a0	0.04117644
21	0x3c886f5b	0.01665466
22	0x3c3a8d24	0.01138619
23	0x3cc835b8	0.024439678
24	0x3bc5a589	0.006031696
25	0x3c51eefb	0.012813325
26	0x3d069bd3	0.03286345
27	0xbc4ced5f	-0.012507766
28	0xbc608cfd	-0.013705489
29	0xbcb344ec	-0.02188345
30	0xbc54ab2d	-0.012980265
31	0x3c16ce28	0.009204425
32	0xbce1bf14	-0.027556933
33	0x3c3cceca	0.011523912
34	0xbc2d503d	-0.010578212
35	0xbd1ff475	-0.03905149
36	0x3ca266d2	0.01982442
37	0xbcc710d2	-0.024300013
38	0xbc97927d	-0.018502468
39	0x3d0dce3d	0.034620512
40	0xbc8285da	-0.015932966
41	0xbcd08374	-0.025453307
42	0x3ce4ff68	0.027953818
43	0xbcb8125f	-0.022469698
44	0x3cd77718	0.026301906
45	0x3d04235b	0.03226028
46	0x3c82c770	0.01596424
47	0xbc829c75	-0.015943745
48	0x3c01db77	0.00792586
49	0xbc2a8c57	-0.010409436
50	0x3d06fc62	0.032955535
51	0x3b8a2569	0.0042158854
52	0xbcd81b31	-0.026380153
53	0x3d239304	0.039935127
54	0x3c25f67d	0.010129568
55	0x3b29a83d	0.0025887631
56	0xbbd2267d	-0.0064132796
57	0x3ce2f619	0.02770524
58	0x3c976bdc	0.018484049
59	0xbd02ecba	-0.03196404
60	0x3c505db5	0.012717654
61	0x3c89ed5a	0.01683681
62	0xbd0b596f	-0.034020837
63	0x3d0a3c9a	0.0337492
64	0xbd081556	-0.033223473
65	0xbc9b5998	-0.01896362
66	0x3cd90470	0.026491374
67	0x3b6398e3	0.0034728579
68	0x3c20264a	0.009774754
69	0x3cd3d584	0.025858648
70	0x3cf9cd37	0.030493362
71	0xbb8d7bbc	-0.004317729
72	0xbc7c37f8	-0.015394203
73	0x3c14aa8f	0.009073867
74	0x3be66a53	0.007031718
75	0xbd1c37cb	-0.038139146
76	0x3cbd702f	0.023124782
77	0x3c8363ea	0.016038854
78	0x3c264eb3	0.010150599
79	0xbce05cbc	-0.02738797
80	0xbb5292f4	-0.0032131048
81	0xbca3b1a1	-0.019982161
82	0x3cae0903	0.021244531
83	0xbc0f07c7	-0.008729882
84	0x3d040d08	0.03223899
85	0x3b026410	0.0019896068
86	0xbce24c2a	-0.027624208
87	0x38c6f110	9.486277e-05
88	0x3bd06ede	0.0063608726
89	0x3aad7a94	0.0013235384
90	0x3cd2b5f5	0.02572153
91	0xbccd9650	-0.025096089
92	0x3c03ceaa	0.008044878
93	0x3c023d23	0.007949146
94	0xbd0f5451	-0.03499252
95	0xbd1e4bfd	-0.038646687
96	0xbce75cb4	-0.028242446
97	0x3c57d99c	0.013174441
98	0xbc5337f6	-0.01289176
99	0xbc814ee0	-0.01578468
100	0x3cf3c929	0.029759007
101	0x3c938b73	0.01801083
102	0x3d1cb4f8	0.038258523
103	0x3c7d9755	0.015477975
104	0x3c5e2edb	0.013560976
105	0x3c06cb9b	0.008227254
106	0x3cd42d96	0.025900643
107	0x3d018ada	0.03162656
108	0xbbc1065e	-0.0058906516
109	0x3c9b55e8	0.018961862
110	0x3aa93a95	0.0012911136
111	0xbd26f8d9	-0.040764663
112	0xbc82faed	-0.015988791
113	0x3cd0a028	0.025466993
114	0x3c17c4d9	0.009263241
115	0xbd2a8e41	-0.04163957
116	0x3d01296a	0.031533636
117	0x3c0bf3d3	0.008542019
118	0xbcde744d	-0.027155066
119	0xbd19fd7e	-0.037595265
120	0x3d0564e5	0.032566924
121	0xbccc4385	-0.02493454
122	0xbc88853f	-0.0166651
123	0x3cf95ca6	0.030439686
124	0x3c878533	0.016543007
125	0x3cd7e45b	0.026354006
126	0x3cabc23b	0.02096664
127	0xbcdb6b1f	-0.026784478
128	0x3d0d14f9	0.03444383
129	0x38fb3691	0.000119787765
130	0xbc93be27	-0.018035008
131	0x3d181ca2	0.03713668
132	0x3ca7e4ca	0.020494837
133	0x3cacae06	0.021079075
134	0x3c839cad	0.01606592
135	0x3cbc93b1	0.023019644
136	0xbca86a4f	-0.020558504
137	0x3d12d19e	0.035844438
138	0x3c901656	0.017588776
139	0x3cb73e07	0.022368444
140	0xbcd5c00d	-0.026092554
141	0xbd0c5b76	-0.03426691
142	0xbc485ce0	-0.012229174
143	0x3cf80c56	0.03027932
144	0xbca88ef6	-0.020575982
145	0x3c8a78d5	0.01690332
146	0xbcdb75f9	-0.026789652
147	0x3c4ba12b	0.012428562
148	0xbc6a9ed4	-0.014320094
149	0xbcf55ea0	-0.029952347
150	0x3b714af8	0.0036818366
151	0xba0bdd5b	-0.0005335414
152	0xbc8eb702	-0.01742125
153	0x3cd50fb1	0.026008459
154	0x3cd01711	0.025401624
155	0xbd1e7007	-0.038681056
156	0x3c0a06ea	0.0084245
157	0xbc6f56f1	-0.014608131
158	0xbd0c8b40	-0.034312487
159	0x3cf3b932	0.029751394
160	0xbb2df76b	-0.0026545178
161	0x3c8ca07f	0.017166374
162	0xbc39ce90	-0.011340752
163	0x3be357d1	0.0069379588
164	0x3c48a9cc	0.012247514
165	0xbd18a8c7	-0.037270334
166	0xbc28c70c	-0.010301363
167	0x3d09a1c5	0.03360154
168	0x3c525536	0.012837699
169	0xbd18afb6	-0.037276946
170	0xbcd5d053	-0.026100313
171	0x3bbc2958	0.0057422332
172	0xbcb9ae4a	-0.022666115
173	0x3c21f0e5	0.009884094
174	0xbb3619cf	-0.002778638
175	0x3d1b2fd8	0.037887424
176	0x3cf19aec	0.029492818
177	0x3c217cfe	0.009856461
178	0xbba50884	-0.0050364155
179	0x3c2b21a5	0.010445033
180	0x3c46973b	0.012121017
181	0xbc9f1747	-0.01942028
182	0xbd1fb9e7	-0.03899565
183	0xbd0cfb46	-0.03441932
184	0x3c18f7b7	0.009336404
185	0xbcaac7f3	-0.020847296
186	0x3d109120	0.035294652
187	0x3d0c2c8a	0.034222163
188	0x3d17ae9b	0.03703175
189	0x3cc5caf6	0.02414463
190	0xbca5f888	-0.02026011
191	0x3c5e1676	0.01355516
192	0xbd22e58c	-0.039769694
193	0xbcf995ae	-0.03046688
194	0x3d1a531e	0.037676923
195	0x3d045525	0.032307763
196	0x3cd81610	0.026377708
197	0xbd1337f6	-0.03594204
198	0x3c95e368	0.018296912
199	0xbb83389c	-0.004004551
200	0x3cb421d2	0.021988783
201	0xbc74ac25	-0.014933621
202	0xbcea7ac9	-0.028623002
203	0xbbbc17a6	-0.005740124
204	0x3d00e027	0.03146377
205	0xbcabf9fe	-0.020993229
206	0x3c325a95	0.010885854
207	0x3c8c6a0e	0.017140415
208	0xbb996d30	-0.0046822056
209	0x3cb6daf1	0.022321196
210	0x3c99b201	0.018761637
211	0xbce4d44e	-0.027933266
212	0xbb9ff2e4	-0.0048812497
213	0xbc13d52c	-0.009022992
214	0x3ba92e7d	0.0051630125
215	0xbb629dba	-0.0034578876
216	0x3c4157c0	0.011800706
217	0xbcde4f03	-0.027137285
218	0x3bb51cb2	0.0055271024
219	0x3cca5753	0.024699843
220	0xbc7ae60c	-0.0153136365
221	0x3cf4f994	0.029904164
222	0xbc859e91	-0.016310962
223	0xbd1b1d92	-0.037869997
224	0xbb6b9c8b	-0.0035951461
225	0x39d5cc73	0.00040778852
226	0xbbc92827	-0.0061388197
227	0x3c14b991	0.009077446
228	0xbd10a031	-0.03530902
229	0x3c57bc56	0.013167461
230	0x3c26461d	0.010148552
231	0x3c8d7106	0.017265808
232	0x3c12bf1e	0.008956699
233	0xbd10dc60	-0.035366416
234	0xbc90b5d2	-0.017664824
235	0xbc8bbd90	-0.017058164
236	0x3cc98657	0.024600191
237	0xbc9d3678	-0.019191012
238	0x3c57c021	0.013168366
239	0x3d06c35c	0.032901153
240	0x3d1ac326	0.037783764
241	0xbd01c80e	-0.031684928
242	0xbcbb549a	-0.02286749
243	0xbcd616f7	-0.026133997
244	0xbcbe7bb1	-0.02325234
245	0xb986d4c5	-0.00025716997
246	0x3d0f429a	0.034975626
247	0x3b9a9960	0.0047179908
248	0x3d06232d	0.03274839
249	0xbd1c0eeb	-0.038100164
250	0xbc18cfad	-0.0093268575
251	0xbb3f1312	-0.0029155654
252	0xbccc7e86	-0.024962675
253	0x3d045db5	0.03231593
254	0xbca7c48d	-0.020479465
255	0x3caaef38	0.020866022

sentCNN.bias f4 [100]
0	0xbbcbf49e	-0.006224229
1	0xbd2a1462	-0.041523345
2	0xbd1ac53f	-0.037785765
3	0x3c6d1d1d	0.014472273
4	0xbb06ca81	-0.002056748
5	0xbd097602	-0.033559807
6	0xbd3a2e8e	-0.045454554
7	0xbccab9d2	-0.02474681
8	0xbc7e637b	-0.015526648
9	0xbd000cc2	-0.031262167
10	0xbd0fb2fc	-0.035082802
11	0x3ce064b7	0.027391775
12	0x3c8b742b	0.017023167
13	0x3a4adc85	0.00077385484
14	0x3ce7eec8	0.028312102
15	0xbc99fe39	-0.01879798
16	0xbd093176	-0.033494435
17	0x3b3502c2	0.0027620052
18	0xbbaf4178	-0.0053483807
19	0x3c39805a	0.011322105
20	0x3c1f1d73	0.009711611
21	0xbcef42e4	-0.0292067
22	0x3d209858	0.039207786
23	0xbcf99d61	-0.030470552
24	0xbc21e207	-0.009880549
25	0xbba3982e	-0.0049925065
26	0x3c8ab1fe	0.016930576
27	0xbc8f4762	-0.017490093
28	0x3c0d4b1d	0.008623865
29	0xbc45ddaa	-0.012076775
30	0xbc296718	-0.010339521
31	0x3d3a2f86	0.045455478
32	0x3ba5c2f0	0.0050586388
33	0xbc8734d8	-0.01650469
34	0x3ca91b83	0.020643001
35	0xba09347a	-0.0005233955
36	0x3cdbcc35	0.026830772
37	0xbd0472de	-0.03233611
38	0x3d049f65	0.032378573
39	0x3d0524d1	0.032505814
40	0x3cf61dd0	0.030043513
41	0x3cc7f097	0.024406714
42	0x3d0ef539	0.03490183
43	0xbbfacaff	-0.0076535936
44	0x3bd77e55	0.0065763392
45	0x3cb196b5	0.021678308
46	0x3d06f7eb	0.032951277
47	0xbcd50114	-0.02600149
48	0xbd30a4e4	-0.043126002
49	0xbbf5f3f9	-0.0075058904
50	0x3cd8c500	0.026461124
51	0xbcfc3a00	-0.030789375
52	0xbcfedcfd	-0.031111235
53	0xbcf14dfb	-0.02945613
54	0x3d2c5f08	0.042082816
55	0x3c2c79e6	0.01052711
56	0xbc8266e8	-0.01591821
57	0x3b4e23f2	0.003145453
58	0xbc4813ef	-0.012211784
59	0xbcd4d477	-0.025980217
60	0xbd01b440	-0.03166604
61	0x3cbe6ed2	0.023246203
62	0xbc83ba58	-0.016080067
63	0x3b3bcaa9	0.002865473
64	0xbd12ccc2	-0.035839804
65	0xbc89b6c5	-0.016810784
66	0xbd06a1a7	-0.032869007
67	0x3c5a0b64	0.01330838
68	0x3c6c7ab1	0.014433549
69	0x3cf02f99	0.029319571
70	0x3c5c3cc5	0.013442223
71	0x3d02241e	0.031772725
72	0x3d378f70	0.044814527
73	0x3d0bd2f2	0.03413672
74	0x3be7f2a3	0.007078485
75	0xbd1548d4	-0.036446407
76	0xbc9eca5d	-0.019383604
77	0x3d1208cb	0.035652917
78	0x3b0ec5fe	0.0021785493
79	0xbcc4b682	-0.024012808
80	0xbb325c0c	-0.0027215509
81	0x3c390d58	0.011294685
82	0x3bb9d228	0.0056708045
83	0x38b277d3	8.5100204e-05
84	0xbc3b32b0	-0.011425659
85	0xbd39c959	-0.045358036
86	0x3d09dc72	0.0336575
87	0x3b48edab	0.003065924
88	0x39a87a0b	0.00032134386
89	0x3c50a5d5	0.01273485
90	0x3bd99849	0.0066404683
91	0xbc615a2e	-0.013754411
92	0xbcf4ef3e	-0.029899236
93	0xbd0c4937	-0.03424951
94	0x3d175546	0.036946557
95	0x3c1ef614	0.009702224
96	0xbd125426	-0.03572478
97	0xbc82929e	-0.015939053
98	0xbc843e3e	-0.01614296
99	0x3d160e86	0.036634944

sentattn.weight f4 [100, 100]
0	0xbd40c6e5	-0.04706468
1	0xbafb0426	-0.0019151017
2	0x3dae0937	0.08497851
3	0x3db4aef6	0.08822434
4	0xbd05586d	-0.032555033
5	0x3d46ed37	0.04856607
6	0xbd4ef8e6	-0.050530337
7	0xbc90f7d9	-0.017696308
8	0xbcd71f15	-0.026259938
9	0xbd961ec8	-0.0733009
10	0x3db395a5	0.08768777
11	0xbd82f955	-0.063952126
12	0xbd6a4505	-0.05719473
13	0x3d41deb4	0.047331527
14	0xbd0fd0cc	-0.035111234
15	0xbd0ebab2	-0.034846015
16	0xbd3df2bf	-0.04637408
17	0x3d8adc7c	0.06780335
18	0xbb61e7f5	-0.0034470533
19	0x3c192a16	0.009348413
20	0xbdbf7d18	-0.093500316
21	0xbd9b8ee6	-0.07595615
22	0xbdb424e8	-0.08796102
23	0xbcf0b44b	-0.029382845
24	0x3c5dc5b9	0.01353591
25	0x3c35ae13	0.011088866
26	0xbce11c23	-0.027479237
27	0x3d91271c	0.07087538
28	0x3d46a85b	0.0485004
29	0x3d6567d6	0.05600723
30	0xbcf3cc5e	-0.029760536
31	0xbd553a00	-0.052057266
32	0xbc3d5a93	-0.011557239
33	0x3d93020e	0.07178126
34	0xbdc98595	-0.09839932
35	0xbdd4b705	-0.10386471
36	0xbd1b0e8d	-0.037855674
37	0x3da19e2d	0.07891498
38	0x3d88c5e6	0.06678371
39	0x3db21d38	0.08696979
40	0x3d088109	0.033326183
41	0xbcb9eb63	-0.022695249
42	0xbb3c7dd3	-0.002876152
43	0xbd1e851a	-0.038701154
44	0x3c9a978a	0.018871088
45	0x3d80b5b0	0.06284654
46	0x3d924388	0.07141787
47	0x3c5ffd65	0.013671254
48	0xbd9ff3e6	-0.07810192
49	0xbce087f1	-0.027408572
50	0x3d69887d	0.05701493
51	0xbd6b60f0	-0.057465494
52	0x3dc5f922	0.09666659
53	0xbdb7fbfb	-0.08983608
54	0xbcf65bc6	-0.030073058
55	0xbcc113ab	-0.023568949
56	0x3d595d85	0.053067703
57	0xbd71feac	-0.059080765
58	0x3da61240	0.0810895
59	0xbdba6f99	-0.09103317
60	0xbd8865ea	-0.066600636
61	0x3cfc544e	0.030801918
62	0x3db936da	0.09043665
63	0x3d84d411	0.06485761
64	0xbcf0b890	-0.029384881
65	0xbda41331	-0.08011473
66	0xbdbee43d	-0.09320877
67	0x3dc3259e	0.09528659
68	0xbdb51515	-0.08841912
69	0x3d3ac593	0.045598578
70	0x3d378fad	0.044814754
71	0x3dace66c	0.08442387
72	0x3c278b27	0.010226048
73	0xbbd3fd02	-0.00646937
74	0x3db7a69c	0.08967325
75	0x3c8ac30d	0.01693871
76	0xbc1096a9	-0.008824983
77	0x3cadd77a	0.021220911
78	0xbc512ce0	-0.012767047
79	0x3dadf92b	0.08494791
80	0xbb94b65d	-0.004538341
81	0x3cca5795	0.024699965
82	0x3d4e8e2a	0.050428547
83	0x3d3e2cee	0.046429567
84	0x3d803b3c	0.06261298
85	0x3d4c6882	0.049904354
86	0xbd95d06c	-0.07315144
87	0x3ceed6ef	0.029155223
88	0xbca7b240	-0.020470738
89	0xbdae47ae	-0.085097656
90	0x3d930eef	0.07180583
91	0x3d21638c	0.039401576
92	0xbd735dc3	-0.05941559
93	0xbd20ff0d	-0.039305735
94	0xbd693586	-0.05693581
95	0xbd9a90ac	-0.07547125
96	0xbc7ca50e	-0.0154202115
97	0xbdc7c6a5	-0.09754685
98	0x3d7bce67	0.061476137
99	0xbd02f1ae	-0.031968765
100	0xbbe52257	-0.006992619
101	0xbc47ab9d	-0.012186912
102	0x3c2fdd26	0.010733878
103	0xbd86814c	-0.0656763
104	0x3ce83126	0.028343748
105	0xbdba0d95	-0.09084622
106	0xbd1c48c6	-0.03815534
107	0x3dbb582d	0.091476776
108	0x3d957c04	0.07299045
109	0x3d5aa1a5	0.053376812
110	0xbc73e0a1	-0.014885099
111	0x3d4d8a57	0.05018076
112	0x3d830d4c	0.063990206
113	0xbd85f610	-0.06541073
114	0x3d81c995	0.06337277
115	0xbcff9f34	-0.031203844
116	0x3d88ef75	0.06686298
117	0xbd16f577	-0.036855187
118	0x3c864ac3	0.016393071
119	0xbdb0bf44	-0.08630231
120	0xbd00f590	-0.031484187
121	0x3d3094fe	0.04311084
122	0xbc24b90b	-0.010053883
123	0xbdb033cf	-0.08603632
124	0x3da2d334	0.0795044
125	0x3d4300c7	0.047608163
126	0x3dbcb45e	0.0921409
127	0x3d21f023	0.039535653
128	0xbdb7b47d	-0.08969972
129	0xbd308b04	-0.043101326
130	0x3d363222	0.044481404
131	0xbd9fa757	-0.077955894
132	0x3ca21a51	0.01978794
133	0xbd1c8d0d	-0.038220454
134	0xbc21be46	-0.009872025
135	0xbdb19b4e	-0.086722
136	0xbccbec6d	-0.02489301
137	0x3d45a8a5	0.048256535
138	0x3d65bc82	0.05608798
139	0xbc05b583	-0.008160952
140	0x3d4833b7	0.048877444
141	0xbd4bbdaf	-0.049741443
142	0xbcf3853a	-0.029726613
143	0xbd592818	-0.053016752
144	0x3d525a3c	0.051355585
145	0x3b9a67db	0.0047120876
146	0xbdc2db20	-0.09514451
147	0x3cda535d	0.026651079
148	0x3c8327ab	0.016010126
149	0xbd9d7a43	-0.07689335
150	0xbd8a8319	-0.06763286
151	0x3db2c4f8	0.08728975
152	0x3d8f2a67	0.069905095
153	0xbdc7e9bd	-0.09761379
154	0xbdaadbfb	-0.08342739
155	0x3d9abd71	0.07555664
156	0xbccdc65f	-0.025119005
157	0xbd8f267a	-0.06989761
158	0xbd007609	-0.031362567
159	0x3d894122	0.06701876
160	0xbadafdcf	-0.0016707721
161	0xbd06638f	-0.03280979
162	0x3dc20b1a	0.09474774
163	0x3d023c49	0.031795774
164	0xbd46db73	-0.048549127
165	0xbd96a339	-0.07355351
166	0xbcf7a047	-0.030227793
167	0xbd298fc4	-0.04139687
168	0x3cbb5d90	0.022871763
169	0x3da2b460	0.0794456
170	0xbd883a03	-0.0665169
171	0x3c9a310a	0.018822212
172	0x3dbbde7b	0.09173294
173	0xbd2f647c	-0.04282044
174	0x3d1f9ef3	0.038969945
175	0xbd05eb11	-0.03269488
176	0x3dc527f3	0.0962676
177	0xbd0b57e9	-0.034019385
178	0xbcbfb68f	-0.02340248
179	0x3d32e71d	0.043677438
180	0x3dbb3b0d	0.091421224
181	0x3be6c067	0.007041979
182	0xbd9eb35d	-0.077490546
183	0xbc4bec58	-0.012446485
184	0x3d9f67b3	0.07783451
185	0xbdb01efc	-0.0859966
186	0x3d6067ba	0.05478642
187	0xbdc77b8f	-0.09740364
188	0xbdbe86d4	-0.0930306
189	0x3db5488e	0.08851729
190	0x3cd7e5ba	0.02635466
191	0xbda0d19d	-0.078524806
192	0xbd60ff07	-0.054930713
193	0x3cc8ff98	0.02453594
194	0xbcee09b5	-0.029057363
195	0xbc57560d	-0.013143075
196	0xbda5a86c	-0.080887645
197	0xbb9294a7	-0.004473287
198	0xbc28b56d	-0.0102971615
199	0x3d00763b	0.031362753
200	0x3d349508	0.04408744
201	0xbd98c928	-0.074602425
202	0xbda2be75	-0.07946483
203	0x3d941937	0.07231372
204	0x3d52d0b5	0.05146857
205	0xbd81ba96	-0.063344166
206	0xbd855e7c	-0.06512162
207	0xbd8b5c94	-0.06804767
208	0xbdbaf5fa	-0.091289476
209	0x3d1aa77d	0.037757386
210	0xbc805ee4	-0.015670247
211	0x3d0ceb6c	0.034404203
212	0xbc928074	-0.017883517
213	0x3dc9593d	0.09831474
214	0x3cf3de1d	0.029768998
215	0x3cb36eb2	0.02190337
216	0xbd796e12	-0.060895987
217	0x3afe3e62	0.0019397254
218	0xbdb4be5b	-0.0882537
219	0xbda2b6e6	-0.07945041
220	0xbd5b29c4	-0.053506628
221	0xbc752ead	-0.014964742
222	0x3c816fea	0.015800435
223	0x3d9cafdf	0.07650732
224	0xbd2f2012	-0.042755194
225	0xbd99677b	-0.074904405
226	0x3b5ef6ef	0.0034021696
227	0x3db1f860	0.08689952
228	0x3d933817	0.07188433
229	0xbbc54faa	-0.0060214596
230	0xbb9b1203	-0.004732372
231	0xbd301cc6	-0.04299619
232	0x3cef6e5a	0.029227424
233	0x3dad8de3	0.08474328
234	0xbda20f11	-0.0791303
235	0xbd727676	-0.059195004
236	0x3d857517	0.06516474
237	0x3ca3ecfe	0.020010468
238	0x3d05fe9a	0.03271351
239	0xbdb43606	-0.08799367
240	0x3d0114f3	0.03151412
241	0x3d7245c9	0.059148584
242	0xbcf81048	-0.030281201
243	0x3da4c997	0.08046263
244	0x3d8505a5	0.06495217
245	0x3d624a1f	0.05524647
246	0x3cdd7c55	0.027036825
247	0x3d5925cf	0.053014573
248	0xbdbf7be9	-0.09349806
249	0xbb87fb25	-0.004149812
250	0x3da59c6e	0.08086477
251	0x3cb7555c	0.02237957
252	0x3d72d09c	0.059280977
253	0xbd84db14	-0.06487098
254	0x3d361f7d	0.044463623
255	0xbd2474ff	-0.04015064

sentattn.bias f4 [100]
0	0x3ca3f6e2	0.020015184
1	0x3c871014	0.016487159
2	0x3dac25dd	0.08405659
3	0x3c28a1a2	0.0102924425
4	0xbcf797f1	-0.030223818
5	0x3d9781dd	0.07397816
6	0xbdb1a8cc	-0.086747736
7	0xbd7fefae	-0.062484436
8	0xbdb5c387	-0.088751845
9	0xbd539a4c	-0.05166082
10	0x3d90cd6d	0.07070432
11	0xbc92622f	-0.017869083
12	0xbd64d48c	-0.055866763
13	0xbd5912c2	-0.052996404
14	0x3d7569d6	0.059915386
15	0xbd6ab79a	-0.057304002
16	0xbd874233	-0.066044234
17	0x3dbb150b	0.09134873
18	0x3d9d87ff	0.07691955
19	0xbdb8ed4b	-0.09029635
20	0xbce2f2ad	-0.027703607
21	0x3dca71f2	0.098850146
22	0xbdad9229	-0.084751435
23	0x3d3b159e	0.045674913
24	0xbda2df91	-0.07952798
25	0xbda820db	-0.08209392
26	0x3d4843ef	0.04889291
27	0xbae278c9	-0.0017278428
28	0xbd00dce0	-0.031460643
29	0xbdc6d876	-0.097092554
30	0x3c960e22	0.018317286
31	0x3d33bdc7	0.043882158
32	0xbc214e31	-0.009845302
33	0x3cf62f76	0.030051928
34	0xbd840e86	-0.064480826
35	0x3c8f69de	0.017506536
36	0xbd04002a	-0.03222672
37	0x3d93ab9d	0.07210467
38	0x3ca5f1e5	0.020256946
39	0x3b82c9f9	0.003991362
40	0x3d2ecb99	0.042674635
41	0xbd13c25e	-0.036074035
42	0xba14f4c8	-0.0005682227
43	0xbc31ed2a	-0.010859767
44	0xbc048978	-0.008089416
45	0xbd7d72b1	-0.061876956
46	0xbadcd664	-0.0016848561
47	0xbd1bb4fb	-0.038014393
48	0xbc417597	-0.011807821
49	0xbc6035c4	-0.013684694
50	0x3d24330b	0.04008774
51	0xbb09e31d	-0.002103991
52	0xbd31298b	-0.04325251
53	0xbd5a9d56	-0.053372703
54	0x3d06e718	0.032935232
55	0x3bb6f764	0.0055836905
56	0xbc3f207a	-0.011665458
57	0x3db65978	0.089037836
58	0x3db9484c	0.09046993
59	0xbd16eeb3	-0.036848735
60	0x3da9d947	0.082933955
61	0xbd6e7588	-0.058217555
62	0x3daf4afa	0.085592225
63	0xbcd1ac74	-0.025594927
64	0xbd4a56fa	-0.049399354
65	0x3d8bbf6d	0.06823621
66	0xbdb89b61	-0.09014011
67	0xbdc771ce	-0.097385034
68	0xbc4af742	-0.012388052
69	0x3dca7a44	0.098866016
70	0xbb40401e	-0.0029335092
71	0xbda768b1	-0.08174265
72	0xbd500d31	-0.05079383
73	0xbdc76ba1	-0.097373255
74	0x3cbe4c77	0.02322982
75	0xbdabe26c	-0.08392796
76	0xbd3e1a35	-0.04641171
77	0xbd37fcf3	-0.044918966
78	0xbd869ba6	-0.06572656
79	0x3dc2d001	0.0951233
80	0x3d97b27c	0.0740709
81	0xbd67f6bf	-0.0566318
82	0x3d4b966d	0.049704004
83	0x3ce164cf	0.02751389
84	0xbd17ad62	-0.037030585
85	0x3d1399ae	0.036035232
86	0x3da31b08	0.0796414
87	0xbdc450f6	-0.095857546
88	0x3d37e64a	0.044897355
89	0x3d6a20a8	0.05716005
90	0xbdacb46a	-0.08432849
91	0x3d2599c5	0.04042985
92	0xbcf670b9	-0.030083047
93	0xbd1acb71	-0.037791673
94	0x3b67c3f7	0.0035364607
95	0xbae02de9	-0.0017103526
96	0x3dc4d5a4	0.09611061
97	0x3d5186c8	0.051153928
98	0xbc122dbf	-0.0089220395
99	0xbac77416	-0.0015217091

attn_combine.weight f4 [100, 100]
0	0xbdc28efd	-0.09499929
1	0xbc2337d2	-0.009962039
2	0x3daf52b9	0.085607
3	0xbd8c4c28	-0.06850463
4	0x3d01a3eb	0.031650465
5	0x3d2abebb	0.0416858
6	0x3c35ca6a	0.011095623
7	0xbdbf644e	-0.093453035
8	0xbc08971d	-0.008336809
9	0x3dafb30c	0.08579072
10	0x3d4acaa8	0.049509674
11	0xbd6e909b	-0.058243375
12	0x3d60dee3	0.05490006
13	0xbd59c503	-0.0531664
14	0xbdbe5df0	-0.09295261
15	0xbce854fd	-0.028360838
16	0x3c63909b	0.013889457
17	0xbd84b7e1	-0.064803846
18	0xbdb1eb9a	-0.086875156
19	0xbd478802	-0.04871369
20	0x3caf5d7f	0.021406887
21	0x3d8acb8d	0.067771055
22	0xbcd31c9d	-0.02577048
23	0xbd9075d2	-0.070537224
24	0xbd722b9d	-0.059123624
25	0x3d9df162	0.07712056
26	0xbd02af54	-0.031905487
27	0x3d9beb79	0.07613272
28	0x3d320a28	0.043466717
29	0x3b0c705e	0.002142928
30	0xbd482df6	-0.048871957
31	0xbd88364f	-0.066509835
32	0xbd5e7e0f	-0.054319438
33	0xbcbb240e	-0.02284434
34	0xbd099996	-0.033593737
35	0x3dc8d713	0.09806647
36	0xbd7dde7f	-0.061979767
37	0xbd466636	-0.04843732
38	0xbd10b9a0	-0.035333276
39	0x3c90e843	0.017688876
40	0xbca30b25	-0.019902775
41	0xbd4dd37a	-0.050250508
42	0x3c9fa4c1	0.01948774
43	0x3d8cd147	0.06875854
44	0x3d9c0674	0.07618418
45	0xbd8fbe64	-0.07018736
46	0x3d1bfc4a	0.0380824
47	0xbccd59fe	-0.025067326
48	0x3db0c541	0.08631373
49	0xbd21f959	-0.039544437
50	0x3d0b8b2e	0.03406828
51	0x3d25b597	0.04045638
52	0xbd55b837	-0.052177634
53	0x3d758e4d	0.05995016
54	0xbda8e191	-0.082461484
55	0x3d03c30a	0.032168426
56	0x3d6eeeb3	0.05833311
57	0xbc8e48d3	-0.01736871
58	0x3d5f6554	0.054539993
59	0x3db17836	0.086655065
60	0x3dc17101	0.09445382
61	0x3c142e98	0.009044312
62	0xbd038c19	-0.03211603
63	0x3d9db55b	0.077006064
64	0x3d948c96	0.07253377
65	0xbd58154e	-0.052754693
66	0x3ce1c949	0.0275618
67	0x3cfae1ff	0.030625341
68	0xbd8fcb4b	-0.07021197
69	0x3d88c111	0.066774495
70	0xbd939cc8	-0.07207638
71	0xbd38e793	-0.04514272
72	0x3db9b3fc	0.090675324
73	0x3cfae81f	0.030628262
74	0xbdbde7e3	-0.092727445
75	0xbd57bc3a	-0.05266974
76	0x3d8e3a37	0.06944697
77	0xbd87c604	-0.06629565
78	0x3d9847a7	0.074355416
79	0x3d8156f2	0.063154116
80	0xbd08eed8	-0.033430904
81	0xbdb209e8	-0.08693296
82	0x3dc4979c	0.0959923
83	0x3da0f991	0.07860101
84	0x3c44b0ac	0.0120050125
85	0x3d73da65	0.05953445
86	0x3d7cff8f	0.061767157
87	0x3bec8fec	0.0072193053
88	0xbd445c11	-0.047939364
89	0x3d9d71b2	0.07687701
90	0x3d157d72	0.036496587
91	0x3d9dde10	0.07708371
92	0x3dafe9fe	0.08589552
93	0xbc71bf5d	-0.014755097
94	0xbc93f51b	-0.018061211
95	0x3d970afc	0.07375142
96	0x3c9b845e	0.018984016
97	0x3d9d9274	0.07693949
98	0xbdb41bf7	-0.08794396
99	0x3c199177	0.00937306
100	0x3c01278d	0.007882965
101	0xbdad717f	-0.08468913
102	0x3d984c6e	0.07436453
103	0xbcb282f8	-0.021790966
104	0xbcf55516	-0.029947799
105	0x3c757067	0.014980412
106	0xb9ce3457	-0.00039330378
107	0xbd85e6cb	-0.06538161
108	0xbdbea4ac	-0.093087524
109	0xbcd9aa44	-0.026570447
110	0x3d13ae8c	0.036055133
111	0xbb2a88fe	-0.0026021595
112	0x3da01cb8	0.07817978
113	0x3dc743d0	0.09729731
114	0x3daf50ee	0.08560358
115	0x3cf860e8	0.030319646
116	0x3cf7fc66	0.03027172
117	0xbc08e15c	-0.008354511
118	0xbc07f0fd	-0.008297202
119	0x3dc6aaa0	0.09700513
120	0xbbd972f3	-0.0066360175
121	0xbd2d72c4	-0.042345777
122	0x3db11485	0.08646492
123	0x3d67dfa3	0.05660976
124	0xbc8f38c3	-0.01748312
125	0xbc2e0296	-0.010620734
126	0xbd898464	-0.06714705
127	0x3dc0f0fc	0.09420964
128	0x3d0c508c	0.034256503
129	0x3d098bda	0.03358064
130	0xbd3bf1ab	-0.04588477
131	0xbd3c3c97	-0.04595622
132	0xbda2a2eb	-0.079412304
133	0x3d99586a	0.07487567
134	0xbce9bfb8	-0.028533801
135	0x3d589de4	0.05288495
136	0xbd4da87f	-0.05020952
137	0x3ca20ec3	0.01978243
138	0x3c3a9540	0.011388123
139	0xbda57231	-0.08078421
140	0xbd4b29b3	-0.049600314
141	0x3d84e911	0.064897664
142	0xbcfc5dbd	-0.030806417
143	0x3da97c4c	0.08275661
144	0xbd9d1153	-0.0766932
145	0x3d7cf880	0.061760426
146	0x3d23e9b9	0.040017817
147	0xbdb12577	-0.08649724
148	0x3d93c789	0.07215793
149	0xbcce5dfa	-0.025191296
150	0xbdc3a09f	-0.095521204
151	0xbd393a88	-0.045221835
152	0xbc8d8a8c	-0.017277978
153	0xbd5438ff	-0.05181217
154	0x3d4e1619	0.050314043
155	0x3d9ad180	0.0755949
156	0xbdbe9d06	-0.093072936
157	0x3c90ce7d	0.017676586
158	0xbd1b0d04	-0.03785421
159	0xbdc44fd0	-0.095855355
160	0x3d38cde4	0.045118228
161	0x3d91073b	0.07081457
162	0xbce32155	-0.027725855
163	0x3dbcbde2	0.09215905
164	0x3d65b77a	0.05608318
165	0xbb644e44	-0.003483669
166	0x3d96aa89	0.07356746
167	0x3cfcfedb	0.030883243
168	0xbda5bbe0	-0.08092475
169	0xbdbedd09	-0.09319503
170	0x3cd07851	0.025447996
171	0x3d73dae1	0.05953491
172	0xbdb1f40b	-0.086891256
173	0x3d1eb544	0.038747087
174	0xbd2c4411	-0.0420571
175	0xbd1dd0b9	-0.03852913
176	0xbdca6a91	-0.09883607
177	0x3a2d45cd	0.00066098274
178	0x3da69df3	0.08135595
179	0xbdaa922e	-0.08328663
180	0x3d29ee41	0.041486982
181	0x3ccbcc48	0.024877682
182	0x3cfba613	0.030718839
183	0xbd7231f7	-0.05912968
184	0xbce2bbae	-0.027677383
185	0xbdc9d2df	-0.098546736
186	0xbd48dcef	-0.049038824
187	0x3d1ebb3b	0.038752776
188	0x3c641003	0.013919833
189	0xbd9e77d5	-0.077377
190	0x3da0f7f1	0.07859791
191	0x3d8d3365	0.06894568
192	0x3db744ba	0.089486554
193	0xbd9f72e2	-0.07785584
194	0xbdac46ca	-0.084119394
195	0x3d945e97	0.07244604
196	0xbdc3da7a	-0.095631555
197	0x3d111112	0.03541667
198	0x3d9af8db	0.07566997
199	0xbdc721f9	-0.09723277
200	0x3d2fa48e	0.04288154
201	0x3c27f3bd	0.010250983
202	0x3d479b98	0.04873237
203	0xbc1dd6f9	-0.009633773
204	0x3da80ac2	0.08205177
205	0xbd84ad1b	-0.0647833
206	0xbce36442	-0.027757768
207	0x3da1921e	0.07889198
208	0xbd8570c7	-0.06515651
209	0xbcd22691	-0.025653156
210	0xbc590e0a	-0.013247976
211	0x3dc93bf8	0.09825891
212	0xbd416686	-0.047216915
213	0xbba49939	-0.0050231484
214	0xbd9944fc	-0.07483861
215	0xbd25dbbb	-0.040492754
216	0xbd8a1797	-0.06742781
217	0xbd004547	-0.031316068
218	0x3d8878bf	0.066636555
219	0xbd9d564b	-0.07682475
220	0x3cd0545e	0.025430854
221	0xbd812bd7	-0.0630719
222	0x3da0700f	0.078338735
223	0x3dac5ea7	0.08416491
224	0xbd53fd40	-0.05175519
225	0x3d490e85	0.049086113
226	0xbd060741	-0.03272176
227	0xbdbf7de7	-0.09350186
228	0xbdc94d77	-0.09829228
229	0x3d6bd3bf	0.057574984
230	0x3db76cd4	0.08956304
231	0x3cc9d9a5	0.024639914
232	0x3d1cf47f	0.038319107
233	0x3d8ca6fe	0.06867789
234	0x3db0f746	0.08640914
235	0xb98d1aa3	-0.00026913462
236	0x3cb7e4f4	0.02244804
237	0x3ce0f99d	0.027462775
238	0x3cb44d4a	0.02200951
239	0xbd5ae931	-0.053445045
240	0xbd12fe32	-0.03588695
241	0xbdc2e7c3	-0.09516861
242	0x3d41a9a3	0.04728092
243	0xbce9bff4	-0.028533913
244	0x3d49d5a5	0.049276013
245	0xbdaddcbc	-0.08489367
246	0x3d8da7ff	0.06916808
247	0x3dcb318d	0.099215604
248	0xbdab3076	-0.083588526
249	0xbd7e9769	-0.062156115
250	0x3d94e022	0.072693124
251	0xbd6aa395	-0.05728491
252	0x3db38d7f	0.087672226
253	0xbd9121d4	-0.0708653
254	0xbdc560cd	-0.09637604
255	0x3cfe42b1	0.03103766

doc_linear.weight f4 [5, 100]
0	0x3dd66fb0	0.104705215
1	0xbc6cf507	-0.014462716
2	0x3cc668ac	0.024219833
3	0xbd707259	-0.0587028
4	0xbd068983	-0.032845985
5	0xbd9f212a	-0.077699974
6	0xbcf075f5	-0.029353121
7	0x3db7f096	0.08981435
8	0x3d821cd0	0.06353152
9	0x3dbd4be6	0.09242992
10	0x3e3c622e	0.18396828
11	0xbda0954d	-0.07840977
12	0x3c57d937	0.013174347
13	0x3d0abbc5	0.033870477
14	0x3e0be9db	0.13663428
15	0x3e0ac917	0.13553272
16	0x3c99c719	0.018771695
17	0xbde231d7	-0.110446624
18	0x3d160c97	0.0366331
19	0x3e0ece8d	0.1394598
20	0xbdc3a637	-0.09553187
21	0x3e16d6e7	0.14730416
22	0xbdb415e3	-0.08793237
23	0xbc06dae0	-0.008230895
24	0x3e02dca3	0.12779479
25	0xbd1c76c2	-0.038199194
26	0xbd9a1395	-0.07523266
27	0x3dc35026	0.095367715
28	0x3b6c6c4b	0.003607529
29	0x3e4aa3a0	0.1978898
30	0x3dad5bb5	0.08464757
31	0x3e38c745	0.18044765
32	0xbd213bc9	-0.039363656
33	0x3e3c07b8	0.1836232
34	0xbc391de8	-0.011298634
35	0xbe135464	-0.14387661
36	0xbd15978e	-0.036521487
37	0x3d2f3c46	0.04278209
38	0xbd1ab824	-0.037773266
39	0xbd98021c	-0.07422277
40	0xbd37ebbb	-0.044902544
41	0xbcb6e8f5	-0.02232788
42	0x3e24733c	0.16059583
43	0xbc2adffc	-0.010429379
44	0x3dd412dd	0.103551604
45	0x3e4f1f9d	0.20226903
46	0xbdc9c530	-0.09852064
47	0x3d350844	0.044197336
48	0xbd444258	-0.047914833
49	0x3e0e57a2	0.13900617
50	0x3db93e2d	0.09045062
51	0xbe013233	-0.12616806
52	0x3cb4689e	0.022022542
53	0xbbeaab0c	-0.0071615037
54	0x3e24e35f	0.1610236
55	0x3d7f3aea	0.062312044
56	0xbe066c59	-0.13127269
57	0x3e59ad23	0.21257453
58	0x3e1afa63	0.15134577
59	0x3d66b178	0.05632159
60	0xbcf13466	-0.02944393
61	0xbdd1bf81	-0.102416046
62	0x3e142dc1	0.14470579
63	0x3e5e774e	0.21725199
64	0x3d013584	0.031545177
65	0x3d1fb644	0.03899218
66	0x3db4947f	0.08817386
67	0x3dd3d119	0.103426166
68	0x3d70169d	0.058615316
69	0x3d0eef4c	0.03489618
70	0x3ca861af	0.020554392
71	0x3e0b91ea	0.1362988
72	0x3e1869d9	0.14884128
73	0x3c6b0938	0.01434546
74	0xbcecf370	-0.028924674
75	0x3bccd7d2	0.0062513137
76	0x3dbc7a5d	0.092030264
77	0x3e0ba29e	0.13636252
78	0x3e1460a6	0.14489993
79	0xbd2b8e67	-0.041883852
80	0x3e28d1e3	0.16486315
81	0x3e3ee6b2	0.18642691
82	0x3d791766	0.06081333
83	0x3e004a0c	0.12528247
84	0xbd813dcb	-0.06310614
85	0xbdd6eddb	-0.10494586
86	0x3cfd3b66	0.030912112
87	0x3cd8b83a	0.026455034
88	0x3d037579	0.032094453
89	0xbc9f0fbe	-0.019416686
90	0x3dd8764d	0.10569439
91	0x3e0b27c6	0.13589391
92	0x3ccc6b1b	0.024953416
93	0xbb7966e0	-0.0038055703
94	0xbd542c9c	-0.051800355
95	0x3e000f7a	0.12505904
96	0x3decde8a	0.115658835
97	0x3cdc4570	0.02688858
98	0x3e26324d	0.16230126
99	0x3e25c66e	0.16188976
100	0x3d817ab7	0.06322234
101	0xbd165584	-0.036702648
102	0xbdde3331	-0.10849608
103	0xbe128321	-0.14307834
104	0xbd6e5458	-0.058185905
105	0x3dde0d49	0.10842378
106	0x3de93e4c	0.11388835
107	0x3d666dbd	0.056257
108	0x3d032520	0.032017827
109	0xbde101f0	-0.10986698
110	0xbde35d78	-0.11101812
111	0x3e1fdec8	0.15612328
112	0xbe059ffa	-0.13049307
113	0xbceacb01	-0.028661253
114	0xbdd70a73	-0.1050004
115	0xbd9fcaec	-0.07802376
116	0x3d8c4f48	0.06851059
117	0x3e12eb61	0.14347602
118	0xbd05a952	-0.03263218
119	0x3da1261e	0.078685984
120	0x3ce8a22e	0.028397646
121	0x3d51d281	0.051226143
122	0xbdeddb42	-0.11614086
123	0xbd8ed2c6	-0.069737956
124	0xbdb341a1	-0.08752752
125	0x3d9646d7	0.073377304
126	0xbd865727	-0.06559592
127	0x3e0af245	0.13568981
128	0xbc420d52	-0.011843996
129	0xbca6f52c	-0.020380579
130	0x3dc5987b	0.09648224
131	0x3da65a13	0.08122649
132	0x3e1deefc	0.15423197
133	0xbcb04beb	-0.021520576
134	0x3d2d964e	0.04237967
135	0x3d973853	0.0738379
136	0x3c9b60e4	0.0189671
137	0xbdee6eef	-0.11642253
138	0x3ced6a9c	0.0289815
139	0xbdb6ba63	-0.08922269
140	0x3dcc6cfa	0.09981723
141	0x3c7341ee	0.014847262
142	0x3d8ad9ea	0.06779845
143	0x3dac620e	0.0841714
144	0x3deb6f38	0.11495823
145	0xbd95e607	-0.07319265
146	0x3e055332	0.13020018
147	0xbbc31e4f	-0.005954541
148	0x3bf9cbd4	0.007623175
149	0xbda99f95	-0.08282391
150	0xbd92bc39	-0.07164807
151	0x3db6dc01	0.08928681
152	0x3d8bd960	0.0682857
153	0xbd990172	-0.07470979
154	0x3d5ee629	0.054418717
155	0x3aefd179	0.0018296681
156	0x3dc3458d	0.0953475
157	0xbaba4b2e	-0.0014213079
158	0xbde2c35f	-0.1107242
159	0x3e065f5f	0.13122319
160	0xbdcafc52	-0.099114075
161	0x3e1d40c3	0.15356736
162	0x3dcf1477	0.10111325
163	0x3d2dcf40	0.042433977
164	0x3e0c1a85	0.13681991
165	0x3de94448	0.11389977
166	0xbcd89d2b	-0.026442131
167	0xbcaf5e8a	-0.021407384
168	0x3dc08478	0.094002664
169	0x3de7968f	0.11308014
170	0x3c9cb71a	0.019130278
171	0xbc8199bd	-0.015820378
172	0xbdab5dd8	-0.08367509
173	0x3e253acc	0.1613571
174	0xbd88b698	-0.06675452
175	0xbdbf3a9e	-0.09337352
176	0x3d8544d7	0.06507271
177	0x3d0c86dc	0.0343083
178	0xbc75bdaf	-0.014998837
179	0x3c852fc1	0.016258122
180	0xbdcb5268	-0.09927827
181	0xbe13aa74	-0.14420491
182	0xbdceac6a	-0.10091479
183	0xbdaba544	-0.08381131
184	0xbcecc5b2	-0.028902862
185	0xbd3dad1f	-0.04630768
186	0x3d3a21f6	0.045442544
187	0x3dab0784	0.08351043
188	0xbde85939	-0.11345143
189	0x3cb40990	0.021977216
190	0xbe33a5e3	-0.1754375
191	0x3d5840f7	0.05279633
192	0xbd0bc0f0	-0.034119546
193	0xbc8a9a88	-0.01691939
194	0x3c934be7	0.017980529
195	0xbda09d33	-0.07842483
196	0xbe09e95a	-0.13467923
197	0x3e59ee01	0.21282198
198	0xbd2ae7cb	-0.04172496
199	0xbdb81f27	-0.08990317
200	0x3cee4d75	0.029089669
201	0xbdafbf3f	-0.08581399
202	0xbd8df606	-0.06931691
203	0xbe24b521	-0.1608472
204	0xbd912baa	-0.070884064
205	0x38e50d72	0.00010922075
206	0xbcd335cd	-0.02578249
207	0xbd65e3c7	-0.05612543
208	0xbdab74eb	-0.0837191
209	0xbcf8a329	-0.030351238
210	0x3c00ed78	0.007869117
211	0x3c8c79f8	0.017148003
212	0xbd18bfee	-0.037292413
213	0xbd9e6b84	-0.07735351
214	0xbd431640	-0.04762864
215	0xbe1598cd	-0.1460907
216	0x3d50fb53	0.05102093
217	0xbdbc909b	-0.09207269
218	0x3d7b0e8d	0.061293174
219	0xbde72793	-0.11286845
220	0x3d608301	0.054812435
221	0xbd626043	-0.055267584
222	0xbe03cf51	-0.12872054
223	0xbcbc9d5c	-0.023024254
224	0xbca08c06	-0.019598018
225	0x3ce7f4d4	0.028314985
226	0xbde12298	-0.10992926
227	0xbde0b31a	-0.10971661
228	0xbd8ac70f	-0.06776249
229	0xbda7b7b1	-0.08189333
230	0xbd89214c	-0.06695804
231	0xbdb65df7	-0.08904641
232	0xbd03f7a3	-0.032218587
233	0x3d449020	0.04798901
234	0xbd9fb47c	-0.077980965
235	0xbd26e272	-0.0407433
236	0xbc924ae7	-0.017857982
237	0x3c50346d	0.012707812
238	0xbdebcf67	-0.11514168
239	0xbdee5b3e	-0.11638497
240	0xbd803ac7	-0.06261211
241	0xbc045932	-0.008077906
242	0x3d19366e	0.037405424
243	0xbd801e30	-0.06255758
244	0xbbedb3d1	-0.007254102
245	0xbd224d8f	-0.039624747
246	0xbcc92ba4	-0.024556942
247	0x3c14f325	0.009091173
248	0x3c6d2db0	0.014476225
249	0x3d0cefeb	0.03440849
250	0xbd173fee	-0.036926202
251	0xbdc9c1b3	-0.09851398
252	0x3ce5a796	0.028034013
253	0x3d3cc967	0.04609051
254	0xbe12baf7	-0.14329134
255	0xbda22f6b	-0.079192005

doc_linear.bias f4 [5]
0	0x3e408629	0.18801178
1	0xbddc716a	-0.107638195
2	0xbe19774d	-0.14986916
3	0x3b8f850d	0.0043798746
4	0xbd87b4f4	-0.06626311
