weights/sent_attn_model_yelp_preprocessed1536422164.270147.pth (torch_old, 395375 bytes, 8 tensors)

embed.weight f4 [89, 200]
000000 d6 22 81 3e 12 3b 06 bf 00 55 06 bf 82 7f ad 3e
       0.2522189 -0.52433884 -0.5247345 0.33886343
000010 f8 6b 62 3e b1 80 30 3f e0 73 42 3f f5 64 64 bf
       0.221115 0.6894637 0.7595806 -0.8921655
000020 3b d5 22 3f 9a 26 a6 3d 08 38 a9 3e fe 85 4c 3f
       0.63606614 0.081128314 0.3305056 0.79891956
000030 d6 ff 35 be c2 1c 83 3e 84 8a c9 bf 96 11 c2 3f
       -0.17773375 0.25607878 -1.5745397 1.5161617
000040 fd 3a aa bf e5 2a ff 3d 8e 15 7c bf 72 09 b1 3f
       -1.3299252 0.12459353 -0.9847039 1.3831007
000050 17 06 4b be d3 ab 88 3e 38 eb 6b 3e f5 89 8c 3f
       -0.19826542 0.2669359 0.23038948 1.0979601
000060 b0 b5 c5 3e 57 0a 65 3f 41 1c 2f 3f 32 6e c7 3e
       0.3861518 0.894689 0.6840249 0.3895126
000070 b5 18 2c bf e0 39 d7 bf 37 a0 c2 3e d9 ac bd 3f
       -0.672252 -1.6814537 0.3801286 1.4818374
000080 37 1a 3b bd 9f b3 90 be 2b e2 65 3e e8 84 06 3f
       -0.045679297 -0.2826204 0.22449557 0.5254655
000090 1a 19 ac bc 1a a0 fd be d4 ea 2b 3e da f1 22 3f
       -0.021008063 -0.4953621 0.16788799 0.63650286
0000a0 f3 12 77 3f 62 80 c3 3f 49 db 83 bf f7 08 cb bd
       0.9651329 1.5273554 -1.0301296 -0.09913819
0000b0 ae ba 34 bf 09 4c f1 bf 64 b6 61 be d7 92 21 c0
       -0.7059735 -1.8851329 -0.22042233 -2.5245874
0000c0 db 97 36 3e 62 34 18 bf 95 a9 a8 3f 63 48 3c 3f
       0.17831366 -0.5945493 1.3176752 0.73547953
0000d0 00 2c b2 be b5 de 31 3e 4b 34 b2 3f 54 8b d7 bf
       -0.34799194 0.17370112 1.3922209 -1.6839395
0000e0 0e b2 d3 3f 1a 93 97 3f 58 74 3b 3f a4 b8 4b bf
       1.6538713 1.1841767 0.732244 -0.79578614
0000f0 8d dc fb be a4 cf 16 3f b0 5d 8f bf b0 8a 22 be
       -0.49191704 0.58910584 -1.1200466 -0.15873218
000100 8c bd 37 bf 91 2a aa 3f 20 37 0c 3f 3c c2 b1 bf
       -0.717736 1.329424 0.54771614 -1.3887401
000110 b2 de 0c 3e e7 53 aa bf c6 29 d4 3e 01 6f 46 3f
       0.13756827 -1.3306855 0.4143812 0.7751313
000120 85 56 d1 3f ca f2 47 bf e8 3b 17 3f 9d 64 e2 3e
       1.6354529 -0.7810484 0.59075785 0.44217387
000130 c8 b4 24 bf de d5 a3 be 2d 97 aa bf a3 c6 b3 be
       -0.6433835 -0.31999105 -1.3327385 -0.35112485
000140 ef a0 34 bf d0 db 11 40 b8 bf 7c bf 70 50 85 3e
       -0.70558065 2.2790413 -0.9873004 0.2603793
000150 b9 aa 79 3f 40 f6 c2 3f df 8f 1b 3f 69 b7 dd be
       0.9752613 1.52314 0.60766405 -0.43303993
000160 ab 04 0e 3f 99 87 f1 bf 91 9d 9d be d4 ed 73 3d
       0.5547587 -1.8869506 -0.30784276 0.059552982
000170 85 5b c4 3e e9 08 62 bf d0 0a b3 bf 8c cd 05 bf
       0.38351074 -0.88294846 -1.3987675 -0.52266765
000180 6f c5 4f 3e a6 30 76 bf 88 aa 19 3e f5 d3 61 3e
       0.20290159 -0.9616798 0.15006459 0.22053511
000190 11 39 d8 3f bf 16 20 bf d9 c5 e7 be 52 ef c0 bf
       1.6892415 -0.6253471 -0.45268133 -1.5073035
0001a0 42 20 29 3e 9d 0b bc bf fc 13 be 3e 21 d9 00 bf
       0.16516212 -1.4691044 0.37124622 -0.5033131
0001b0 fd 5a cc bc f8 7a 8a bf 4f 97 87 be b7 2d 77 bd
       -0.02494573 -1.0818777 -0.26482627 -0.06034633
0001c0 87 2a 0f 3e e2 d3 a6 bf 93 47 84 3f 99 4a 8d bf
       0.13981067 -1.3033412 1.0334343 -1.103839
0001d0 30 c6 c3 be ae 07 b3 be 6c cc 11 be 94 c4 f3 be
       -0.38237143 -0.34966797 -0.14238137 -0.47610915
0001e0 d0 a5 50 bf 4d 39 a2 bd 23 93 00 be 19 23 89 bf
       -0.8150301 -0.079210855 -0.12556128 -1.0713836
0001f0 00 0d cb bf 95 d8 47 3f c6 72 45 3e 1d 96 b4 be
       -1.5863342 0.7806485 0.19282064 -0.35270777
000200 f6 5d 5e bf 8f 93 c2 bf b2 ca 1a bf ca 87 84 bf
       -0.86862123 -1.5201281 -0.6046554 -1.035394
000210 ce 82 78 bf 6e bb 14 40 f2 43 15 bf 97 3f 84 be
       -0.9707459 2.3239398 -0.583068 -0.25829765
000220 d2 61 b8 bf f8 11 fe bf d9 0e 15 be 21 e3 bf be
       -1.4404852 -1.9849234 -0.14556445 -0.37477973
000230 e7 f1 9c bd da 7e 4d bf 35 f6 de 3e 91 85 67 3f
       -0.07663327 -0.80271685 0.43547216 0.9043818
000240 ec 7d 23 3d d9 27 6e 3e 3c bb 0e 3f a0 e9 a8 bf
       0.03991501 0.23257388 0.55754447 -1.3196297
000250 34 ef 7b 3f e9 24 a0 be 39 95 b4 3f 7b f4 8a bf
       0.9841187 -0.3127816 1.4108039 -1.085586
000260 d3 9e 11 c0 4b 42 b9 be dd d8 94 be 17 71 af be
       -2.2753189 -0.3618339 -0.29071704 -0.34265968
000270 7d 0d 77 3f 7f bc 53 3f f9 9d 92 3e 4e 49 4e 3e
       0.96504956 0.827095 0.2863615 0.20145151
000280 02 12 03 3f 73 b6 e3 3f 41 40 80 bf 15 a8 19 bf
       0.5119935 1.7790054 -1.0019609 -0.600221
000290 cf ba 40 be 51 da 54 bf bc 4a 0c 3f da 83 c8 bf
       -0.18821262 -0.83145624 0.54801536 -1.5665238
0002a0 c8 94 e8 bd 26 b5 b8 be 6c 32 0d 3e ae 08 f1 be
       -0.11356503 -0.36075705 0.13788766 -0.47076935
0002b0 2c 97 79 bf b3 1b 11 c0 51 c9 a9 3f 3c 41 66 3f
       -0.97496295 -2.2673156 1.3264562 0.8994329
0002c0 db 5b 93 3f b9 97 01 3f 4a 7f 2d bf 5a a9 4f be
       1.1512407 0.50622135 -0.6777235 -0.20279446
0002d0 89 7e 15 bf bd b7 a7 3d 8f 06 a4 bf d5 bb 05 40
       -0.583962 0.08189342 -1.2814502 2.0895894
0002e0 f7 07 e1 be d8 48 9d 3e cb 02 3a bf 51 60 59 bf
       -0.4395139 0.30719638 -0.7266051 -0.8491259
0002f0 55 e6 71 3f 4c e1 1f 3d 63 2f aa be 74 10 88 bf
       0.94492084 0.03903322 -0.33239278 -1.0630021
000300 c6 47 a9 3d 2c 56 52 3f 01 f6 f8 bf 5a 5a 88 3f
       0.08265643 0.8216274 -1.9450074 1.0652573
000310 b4 32 08 3f 36 fb c4 3e 44 bc 16 bf a9 25 5b bf
       0.53202367 0.3847291 -0.5888102 -0.8560434
000320 83 61 4d 3e 34 84 8c 3f 35 4f c5 3e bd 3c a8 bf
       0.20056729 1.0977845 0.38536993 -1.3143536
000330 39 74 c3 3f 75 dc 4e bf 6a 21 6c bf bc 71 a6 3f
       1.5269843 -0.8080514 -0.92238486 1.3003459
000340 fd b6 90 bf 8c d1 e2 bd 79 4f 53 bf 1b 37 1d 3f
       -1.1305844 -0.11075124 -0.8254314 0.6141221
000350 05 61 20 c0 b6 d1 15 be 42 27 52 3f 0b fc ec be
       -2.5059216 -0.1463078 0.8209115 -0.46286044
000360 96 6a 5e 3e 2c 3a 40 bd 0a 4c 53 be ca 35 49 bf
       0.21720347 -0.046930477 -0.20634475 -0.785977
000370 79 92 cb be 0a 9b 3a c0 df 85 dc be 45 20 3c 3e
       -0.39760187 -2.9157128 -0.43070886 0.18371685
000380 d3 b8 b6 3f 67 cf f3 3f 7c 92 e8 be 9a 68 0d 3f
       1.4275154 1.9047669 -0.4542426 0.55237734
000390 e7 9d 40 bf fb 9d a8 3e 5f 74 59 3f e3 1d a8 be
       -0.7524094 0.3293303 0.84943193 -0.32835302
0003a0 a8 70 b3 bf 11 bc 73 bf a9 67 b1 bf 48 02 70 3e
       -1.4018755 -0.9520884 -1.385976 0.2343837
0003b0 b3 3e f8 3e 82 80 42 bf 16 d2 f8 be 75 94 8b bf
       0.48485336 -0.7597734 -0.48597783 -1.090468
0003c0 a5 0d 62 3f 47 9c 5d bf 71 26 0a 3e 28 73 78 bd
       0.8830207 -0.86566585 0.13491227 -0.060656697
0003d0 ca 90 99 bf 4b 1f bf 3c 9f c2 16 bf 3e 05 3c bf
       -1.1997311 0.023330351 -0.5889072 -0.734455
0003e0 36 7e 0f 3f d6 07 54 3d 50 a6 bf 3e b9 e3 85 bd
       0.5605196 0.051765285 0.37431574 -0.06537575
0003f0 40 11 c4 bb 36 a6 31 3e fe 9d 00 c0 51 3c 36 be
       -0.0059835017 0.1734856 -2.009643 -0.17796446

sentCNN.weight f4 [100, 1, 3, 200]
000000 0e 34 d1 bc a4 f2 0c 3d 6d 61 c9 bc 69 ce fc 3c
       -0.025537517 0.034411088 -0.024582589 0.030860143
000010 5c e7 3b 3d 30 25 b3 3b 39 8c 8f 3a b0 5b 54 ba
       0.04587494 0.0054670796 0.0010951824 -0.00081008207
000020 d8 1b 6e 3b b8 81 91 bc c8 8f 69 3d bb 43 f3 3c
       0.0036332514 -0.01776205 0.057021886 0.029695382
000030 e8 4e 48 bc b4 3b 94 3c 57 a9 e2 bc 7d c7 aa bc
       -0.012225844 0.018094875 -0.027668638 -0.020847077
000040 8c 20 75 3c 27 e4 00 bb 34 c9 92 bc db d0 88 bc
       0.014961373 -0.001966724 -0.017918207 -0.016701153
000050 1b 0e 81 3c 1f 94 0a 3c b9 bc 56 3c 58 0e 10 bb
       0.015753796 0.008458166 0.013106518 -0.0021981206
000060 64 ac 4d bc e5 c9 19 bd 30 cb 8e 3c a4 44 c7 bc
       -0.012553308 -0.037546057 0.017430872 -0.024324723
000070 91 a6 6c 3c a6 c6 b3 bb d7 62 c1 3c 55 df 17 3c
       0.014444009 -0.005486327 0.0236067 0.009269555
000080 01 32 fc bc 44 10 14 3d d0 2c 29 bd 9d e6 0e 3d
       -0.030785562 0.036148325 -0.041302502 0.0348879
000090 1b d3 a5 3c ac 6c 9f bc 4e 5f c1 3c 66 2c 1a bd
       0.020242264 -0.019460998 0.023605015 -0.037639998
0000a0 33 65 05 bd 74 da 8e 3b 1a 91 6b 3b c8 bb be 3a
       -0.032567214 0.0043595377 0.0035944642 0.0014551813
0000b0 7f 0a dc 3b b6 92 13 bb ca ad d0 3c 1b 4d d1 3c
       0.0067151184 -0.0022517866 0.025473494 0.025549462
0000c0 fe 73 af 3b 17 37 fc 3c 24 49 77 3c 55 fd 05 3d
       0.0053544035 0.030787988 0.015093122 0.0327123
0000d0 fe e0 28 3d 13 ef aa bc f4 81 5f bc ee 12 31 bd
       0.041230194 -0.020865953 -0.013641823 -0.043230943
0000e0 9c a6 cf ba 23 da 00 3d e7 17 9d 3c 9b 2a 9a 3c
       -0.00158425 0.03145803 0.019176437 0.018819144
0000f0 a6 5c c6 3c 74 d3 06 3d 15 a5 f0 bb e0 a1 47 3c
       0.0242141 0.0329165 -0.007343898 0.01218459
000100 77 5e 4b bd 6f e8 9c 3c e0 40 c8 bc e3 cf c0 3c
       -0.049650636 0.019153802 -0.024444997 0.023536628
000110 28 64 42 3d 85 a6 de 3c b2 69 2c 3c 7a a6 d7 bc
       0.047458798 0.027179012 0.010523247 -0.0263245
000120 70 b5 0f bc cd 4b 00 3d 2e 87 f4 3c 9b b5 98 bb
       -0.008771285 0.03132229 0.029849615 -0.004660321
000130 9f ca 85 3b dd 03 9e bc f9 c9 47 3b b5 e3 00 3d
       0.004082992 -0.019288952 0.0030485375 0.03146716
000140 97 04 6c bc 2a e1 fc bc 9a 67 71 3c 1c 7a 4a bc
       -0.014405391 -0.030869085 0.014734173 -0.012358215
000150 82 45 e2 bb 43 71 1b 3d 92 ea a0 3c a4 75 7b 3c
       -0.0069052586 0.03794981 0.019643102 0.015347872
000160 e1 1d b6 3c 59 48 ab bc 86 9d ee 3c 2a 1c 01 bd
       0.022231044 -0.020908521 0.029127847 -0.031521
000170 fb 50 bf 3c 5a 8a 13 3a a7 c0 db ba 29 45 5d bb
       0.023354044 0.0005628221 -0.0016765789 -0.0033763146
000180 0a 99 d3 3c 5f 1f e8 3b ab 99 71 3c fc 44 2f bd
       0.02582981 0.007083818 0.01474611 -0.042790398
000190 55 16 45 3d bb 53 dc 3c d0 31 b6 3c fb a3 84 bc
       0.048117 0.026895395 0.02224055 -0.016191473
0001a0 1f ab f8 bb 6f 68 32 bd a6 62 7c bc 0b 7f 0f bd
       -0.0075887586 -0.043556627 -0.015404379 -0.035033267
0001b0 63 2d e4 3a e7 63 80 3c b3 c0 06 bd 77 41 50 bc
       0.0017408546 0.015672637 -0.032898616 -0.012710921
0001c0 5a cc fb 3c 7e 6a 6e 3c 9f cb ff bb f3 ab 35 bd
       0.03073709 0.014551757 -0.007806256 -0.044353437
0001d0 55 73 a7 3b d2 b9 6b bc 24 e8 07 3c 54 1f 3a 3d
       0.005110184 -0.014387565 0.008295093 0.045440033
0001e0 94 a1 d8 bc 8c de c4 bc f3 2d 05 bd 23 a8 82 bc
       -0.026444234 -0.0240319 -0.032514524 -0.015949314
0001f0 a2 99 9e bc 8c a5 bf bc 77 5d 02 bd 7d 84 97 3c
       -0.019360367 -0.023394369 -0.031827416 0.018495793
000200 36 6d f6 bc 60 8d a5 bc 56 63 2f 3c 02 d9 ae 3c
       -0.030081373 -0.020209014 0.010704836 0.021343712
000210 2d e9 1b 3c 19 25 7e 3b c2 a8 db 3b 1f 60 0f 3d
       0.009516043 0.0038779436 0.006703467 0.035003778
000220 15 be 7e b9 dd 32 09 bd 8a aa d7 ba 00 f4 de bc
       -0.00024294139 -0.033495773 -0.0016454023 -0.027215958
000230 c1 35 13 3c 55 5f 8d bc c1 d2 28 3c 72 82 9c bc
       0.008984984 -0.017257372 0.010304154 -0.01910517
000240 c3 25 31 3d fa a4 5a bb 32 47 d3 bc c6 4f 51 bc
       0.043248903 -0.0033362494 -0.025790785 -0.012775367
000250 20 89 9b bc 60 72 a2 3b e8 34 f8 3b f3 21 4d 3b
       -0.018986285 0.004957482 0.0075746663 0.0031300753
000260 81 88 57 3c 9e be 2d 3d 49 44 06 bd 6b 20 fc bc
       0.013155104 0.042418115 -0.032779966 -0.030777177
000270 74 84 8a bb 7b 13 68 bc 78 e5 a8 bc 93 6d 23 bd
       -0.0042272154 -0.014164801 -0.020617232 -0.03989942
000280 7e bf c8 bc 09 e4 e6 3a d6 84 b2 3c 7d 7e 03 3d
       -0.024505373 0.0017615567 0.021791857 0.03210305
000290 cf 1a 92 3c 63 bb 32 3d 84 11 8b 3b 43 31 43 3d
       0.017835049 0.043635737 0.0042440314 0.0476544
0002a0 2b 12 16 3d 70 9a 0f 3d 8c 84 47 bc ee bb d8 3c
       0.03663842 0.035059392 -0.012177598 0.0264568
0002b0 4b bb b2 bc 40 6b 2d 3d 28 6d 37 bc b5 9f 06 bd
       -0.021817824 0.04233861 -0.0111954585 -0.032867152
0002c0 78 9d 47 3c 5a 44 23 bc c4 44 be 3c 3d 7a c8 3c
       0.01218354 -0.009965027 0.02322615 0.02447235
0002d0 1d 88 e6 bb 29 55 8c bc bd 65 d8 bc f2 3f 27 bc
       -0.007035269 -0.017130451 -0.0264157 -0.010208117
0002e0 6a 1a 95 bc 38 01 5f 3c 4a cd 44 3d 97 10 d7 bc
       -0.018201072 0.01361113 0.04804734 -0.026253028
0002f0 6d c4 cc 3c 40 3f 05 bd be 30 96 3c 80 44 27 bd
       0.024996007 -0.032531023 0.018333789 -0.04083681
000300 85 37 5b bd 37 17 02 3d f6 72 0c bd a5 24 5e bb
       -0.053519744 0.03176042 -0.034289323 -0.0033896354
000310 18 f8 cf 3c c6 8a 13 bd 43 4c 6e bc ca 93 10 bd
       0.025386855 -0.036021017 -0.014544549 -0.035297193
000320 a7 ad 1f 3c 4c 48 60 3b f0 b6 93 3c d6 9f 9a bc
       0.009745992 0.003422278 0.018031567 -0.018875044
000330 b6 7f 00 bd 45 95 2e bc 79 8c 81 3c 13 fe bc 3c
       -0.031371795 -0.010655706 0.015814053 0.02307037
000340 af 97 27 bd 6a f9 2d 3d 86 e1 6a bc d5 88 5e 3c
       -0.04091614 0.042474188 -0.014335996 0.013582428
000350 c9 bc 84 bc 49 36 ea bc c6 4b ca 3c c5 fc 2e bc
       -0.016203301 -0.028590338 0.024694335 -0.010680382
000360 e6 db b5 3c 7b 0e 00 3c 55 d3 07 bd 96 4d 41 3c
       0.022199582 0.007815952 -0.033160526 0.011798283
000370 85 d0 f1 bc c2 cd f1 bc 4e 57 e3 bc d9 e6 02 bc
       -0.029518375 -0.029517058 -0.027751591 -0.007989609
000380 9e dd 2e 3c ec 9b b6 3c fb 47 ab 3c 8a 9e 74 3c
       0.010672955 0.022291146 0.020908346 0.014930377
000390 1c 2f 5d bb a2 b5 a5 3c f5 1a 60 3c 8d 0a a6 3c
       -0.0033750003 0.02022821 0.013678302 0.020268703
0003a0 3e 89 12 bd 0c b5 20 3d ed 5f 34 bc f7 d9 f1 3c
       -0.035775416 0.03923516 -0.011009199 0.029522879
0003b0 a5 ef 85 3c 63 94 31 3c d7 35 d6 bc ec 8b c6 b9
       0.016349623 0.010838601 -0.02614872 -0.00037869753
0003c0 1e c1 1d bc 01 51 4c 3d cc 78 c4 3c 27 d9 4c bc
       -0.009628562 0.04988194 0.023983382 -0.012502945
0003d0 08 5c b8 bc 4b 8e 84 bc 4e 44 93 bc c2 3f a2 3c
       -0.022504821 -0.016181132 -0.017976906 0.019805793
0003e0 76 99 52 3b 5c f3 de bc cd e6 71 bc b1 71 ab bc
       0.0032134927 -0.027215652 -0.0147645 -0.020928236
0003f0 29 84 dc bc de cc 83 bc 27 30 1f 3d 15 d3 1e bd
       -0.026918488 -0.0160889 0.03886428 -0.038775522

sentCNN.bias f4 [100]
000000 69 f8 f7 3b 8b 2a 4c b9 22 79 46 bc 1e e4 12 3d
       0.0075674546 -0.00019470805 -0.012113841 0.03586208
000010 55 ba 99 bc d0 1f 0b 3d 58 27 c5 3c 91 84 0d 3c
       -0.018765608 0.033965886 0.024066612 0.008637563
000020 e9 8c fb bc f6 79 f9 3c 01 08 85 bb d6 54 0e 3d
       -0.03070684 0.030453663 -0.004059792 0.034748875
000030 c1 ea 1e 3d 9a e3 95 3c 5b 9d 1d bd 0a 17 a8 bc
       0.038798098 0.018297005 -0.038480144 -0.020518798
000040 40 bb d7 3c dd 69 ce bc 11 78 be 3c f0 dd 0b 3c
       0.026334405 -0.025196964 0.023250611 0.008536801
000050 57 2f 11 bc d8 6c 94 3c 21 c9 91 bb f6 1e 82 3c
       -0.008861384 0.018118307 -0.0044490253 0.015883904
000060 13 7c e4 bc 68 2f c9 bc 45 ac d0 bc 6f a3 02 3d
       -0.027891194 -0.024558738 -0.02547277 0.031894144
000070 ba 3f 76 3c 5d 2b 98 bc 20 c7 f9 bc 05 71 01 3d
       0.015029842 -0.018575365 -0.030490458 0.031601924
000080 ed 49 cd 3c 29 33 10 3b 2e b1 04 3c e2 39 b1 3c
       0.025059665 0.002200315 0.008098884 0.021634046
000090 84 8a 1a 3d b3 6d ff bc ef 8c 7a 3c cc 8c 26 3d
       0.037729755 -0.031180238 0.01529239 0.040661618
0000a0 4d 31 97 bc 68 4d a7 bb d2 01 23 3d ab 8e b0 bb
       -0.018456126 -0.005105663 0.039796658 -0.005388101
0000b0 85 f9 37 bc 8e e6 fd 3c 80 1b 4c bc e0 5c 0b 3c
       -0.011228924 0.030993726 -0.012457728 0.00850603
0000c0 92 93 57 bc d9 2b 95 bc b7 e1 fb bc b9 5d 8f 3c
       -0.013157742 -0.018209385 -0.030747278 0.017500745
0000d0 b3 e8 02 3d 0b ad 14 3d ce 0d f3 bc 76 1b 8e 3c
       0.0319602 0.03629784 -0.029669669 0.017347079
0000e0 f2 5f e4 bc 75 9d d7 bc 31 39 23 bd 77 4a 7d 3b
       -0.027877782 -0.026320199 -0.039849464 0.003864912
0000f0 32 ac 09 3d 22 6b 93 3c 27 2c df bc 04 13 cb bc
       0.033611484 0.01799542 -0.027242733 -0.02478934
000100 69 d5 c4 3c 19 44 85 3b dc 3d e1 3b 2b 6c 97 3b
       0.024027543 0.0040669558 0.0068738293 0.004621049
000110 cb 33 cd bc ee 86 8d ba 34 59 99 bc cd f3 bc bc
       -0.02504911 -0.0010797658 -0.018719293 -0.023065472
000120 f0 99 19 bd 78 c3 d5 3c b2 1a 99 3c 78 24 88 3b
       -0.037500322 0.026094183 0.018689487 0.004154738
000130 72 27 a3 bc 5e fd b0 3c 2f a4 1d bd 2e 19 0c 3d
       -0.01991627 0.02160519 -0.038486656 0.0342037
000140 38 1f 04 bd a8 40 6a 3c 67 e3 9c bc 87 c9 b1 bc
       -0.032256335 0.014297642 -0.019151403 -0.021702541
000150 4f f8 2b bd 4b a9 15 bd 72 7b 00 bd de 97 6f 3c
       -0.041984852 -0.036538403 -0.031367727 0.01462361
000160 25 31 e0 3c 84 3d 2d 3c 0b 86 d4 bc 59 e4 80 3b
       0.027367184 0.0105737485 -0.025942823 0.003933471
000170 9b 9e 2e 3d 30 74 18 3c 44 15 39 bd 2b 5b 1a 3c
       0.042631727 0.009305045 -0.045186296 0.00942115
000180 85 68 cb 3b 35 0a 0e bd 51 bc 8a bc b8 94 fc bb
       0.006207528 -0.034677703 -0.0169355 -0.0077081583

sentattn.weight f4 [100, 100]
000000 3e 30 81 3d ce 41 ea 36 59 72 21 3d 76 9d c2 bd
       0.063080296 6.981404e-06 0.03941569 -0.095026895
000010 0f f2 ad bd 0b 19 ba 3d e6 b0 58 bd 19 ac b4 3d
       -0.08493435 0.09086808 -0.05290308 0.088218875
000020 60 58 e8 bc c6 ea 91 bd 88 b0 8a bd b2 bc a5 bc
       -0.028362453 -0.071248576 -0.06771952 -0.020231578
000030 c4 30 9a bc 58 55 40 bd 9c 7b 66 bd fe bc 51 bd
       -0.018822081 -0.04695639 -0.056270227 -0.051205628
000040 d9 0c ab 3d 3a 1e b0 bc 7c 2c 6a bc 68 ff af 3d
       0.0835206 -0.021498788 -0.014292832 0.08593637
000050 6a 21 c2 3d 57 43 2d 3d ba b6 88 bd 00 9a 8c 3d
       0.094790295 0.04230055 -0.06675477 0.06865311
000060 ab 9a 7b bc b2 2a 8b 3d 0b ee 69 bd 38 e3 9f 3d
       -0.0153567 0.06795253 -0.05711178 0.078070104
000070 81 e3 08 3d 29 28 b5 bd 7c e1 19 bc 3d 8d 94 bd
       0.03342009 -0.088455506 -0.009392139 -0.072535016
000080 08 82 6f 3d 3b 3c 22 bd 63 72 c4 bd 38 9f 08 bd
       0.058473617 -0.03960822 -0.0959213 -0.033354968
000090 a5 5c 8c bc 3e 41 9f 3d bd c9 19 3b da 2e a5 3d
       -0.01713402 0.07776116 0.0023466193 0.08065577
0000a0 ed 98 b4 3d bf 8f ce 3d 5a d0 4f bd 7b c3 98 3d
       0.08818231 0.10086011 -0.05073581 0.0745916
0000b0 53 73 2a 3d cd 69 53 3d d8 b6 c4 3d 0a 69 c5 bd
       0.041613888 0.05161457 0.09605187 -0.09639175
0000c0 26 e9 f4 bc 02 ad b8 bc 3f 6d 8b 3d bb ea 5e bb
       -0.02989633 -0.022543434 0.068079464 -0.0034014422
0000d0 8e 8a 25 3c 1e 0c 06 3d de 44 74 bd 56 83 9b bc
       0.010103835 0.0327264 -0.05963599 -0.018983524
0000e0 71 39 bd 3d d6 f7 c6 3d 74 b8 53 bd f8 4f 87 bc
       0.09239472 0.0971524 -0.05168958 -0.016517624
0000f0 b4 28 4d 3d 4c fb 0a bd 21 34 e7 3c fa ef 5c bd
       0.050087646 -0.03393106 0.0282231 -0.053939797
000100 51 34 fc bc 5f 29 10 bd 3d 7d 9a bc 9b d1 96 bc
       -0.030786665 -0.035195705 -0.018858546 -0.018410495
000110 50 92 3e 3d 2b 6e 81 bd f5 8d 83 3d 97 19 0b 3d
       0.046526253 -0.06319841 0.064235605 0.03395995
000120 96 45 82 3d eb cc bd 3d a9 9a 3e bd da 2a 74 bd
       0.06360929 0.092676006 -0.046534214 -0.05961118
000130 cf 79 6f 3d 33 1e 43 3d 9c 78 a3 3d 39 91 49 bd
       0.058465775 0.047636222 0.07981989 -0.04921076
000140 0a 75 c4 3d 0a b1 bd bd 7b 31 64 bd de 95 94 3d
       0.09592636 -0.09262283 -0.05571125 0.072551474
000150 30 08 c4 bd a5 c2 a2 bc cb f0 90 3d c4 9a ae ba
       -0.09571874 -0.019868204 0.070771776 -0.001332127
000160 27 e7 34 bc 7b 1b b3 bd 12 82 0e 3d b3 f4 88 bd
       -0.011041439 -0.08745476 0.034792013 -0.06687298
000170 86 7f af 3d bb a3 6d 3c 91 71 90 bc 7d c6 3f 3d
       0.08569245 0.014504368 -0.017632278 0.046820153
000180 ff d6 bf 3d 96 e9 9f 3d cc 3c 75 3d f6 bd 46 3d
       0.09367179 0.07808225 0.059872434 0.048521005
000190 53 29 cf bd 76 ad 3f bd e4 7d 01 3d ce ef 5b 3d
       -0.10115304 -0.046796285 0.0316142 0.053695492
0001a0 7a 68 7a bd c2 8e 8e 3d e0 73 47 bd e4 3a aa bd
       -0.061134793 0.06960823 -0.04869449 -0.08312014
0001b0 47 1f ac 3d d7 9f 0e 3d 5d e2 61 3d 79 dd 8c bc
       0.08404403 0.034820404 0.055147517 -0.01719545
0001c0 11 3b 1d 3d a0 99 94 bd 6f d7 d1 3c da 29 bc bd
       0.03838641 -0.07255864 0.025615422 -0.0918767
0001d0 66 53 72 bc e8 7c cb bd 23 63 22 bd 23 8b c6 3d
       -0.014790392 -0.09935933 -0.039645325 0.09694507
0001e0 89 d2 9d 3d ae 4d c3 bc 84 70 89 3d a8 88 32 bd
       0.07706172 -0.023840751 0.06710914 -0.043587357
0001f0 34 51 90 3d 17 c4 88 3d 2b bc 4d bb 3e 96 8a bd
       0.07046738 0.06678026 -0.0031392674 -0.06766938
000200 4c 41 94 3d 8b 7b 93 3d 3f 5d 55 ba 60 7d 94 3d
       0.07239017 0.07201298 -0.00081392 0.07250476
000210 3b 60 f7 bc 91 80 99 bd b1 40 07 bd 00 ad 8f 3d
       -0.030197253 -0.07495225 -0.03302068 0.07015419
000220 94 30 73 bc 0a a2 70 bd 67 02 a0 3c 22 2e 79 3c
       -0.014843125 -0.058748282 0.019532396 0.015208753
000230 cf ff 96 3c 27 e1 aa 3d 7f 15 89 bb 71 34 38 bd
       0.018432526 0.08343726 -0.0041834707 -0.044971887
000240 c9 3d b4 bd 04 8d 3c 3c 82 82 48 3d 48 b4 e5 bc
       -0.08800847 0.01150823 0.048952587 -0.028040066
000250 28 c4 9a 3d 18 f8 5e bd 6c fd 39 bd 4c 7d 81 3b
       0.07556945 -0.05443582 -0.045407698 0.003951704
000260 86 d6 72 3c ae 52 13 bd 46 08 be 3d 52 7c a5 bd
       0.014821654 -0.03596752 0.09278922 -0.08080353
000270 46 97 8f 3d a0 dd 8a 3d 1b 4a 6b bd 57 0a c8 3b
       0.07011275 0.06780553 -0.05744372 0.006104748
000280 16 12 bd 3d 5c 8b 8c 3d 31 80 25 3d 73 29 ef bc
       0.09231965 0.06862518 0.040405456 -0.02919457
000290 a1 42 84 3d 03 ba 06 bd 77 83 9c 3a 59 26 8d bc
       0.06458021 -0.03289224 0.0011941035 -0.0172302
0002a0 85 81 14 3c 73 06 c5 bc 72 92 72 3d 55 df b3 3d
       0.009064083 -0.024050927 0.059221692 0.087828316
0002b0 bb d4 1c bd ab 62 55 3d 03 4f e8 bc ab 8c 03 bb
       -0.038288813 0.05209605 -0.028357988 -0.0020072858
0002c0 70 62 e4 bc 84 48 4d bd ab 29 0f 3d 86 05 0a bd
       -0.02787897 -0.050117984 0.034951847 -0.033696674
0002d0 67 2d 8e bc 50 7d cd bc 5c eb bc 3d db 87 bb 3d
       -0.017355634 -0.025084168 0.09224579 0.09156772
0002e0 80 a9 a8 3c 23 b7 ba bd 8d cf 90 bd 74 0c 5a 3d
       0.020588636 -0.09116962 -0.07070837 0.053234532
0002f0 b8 b0 33 3d 2c d5 08 bc 7b a4 6e 3d 4a 8f 36 3d
       0.043869704 -0.008351605 0.05826233 0.044570245
000300 e5 88 bf bd a3 0a 8b bd 8b f8 a1 3d 27 6a 83 bc
       -0.093522824 -0.06789138 0.07908734 -0.016041828
000310 45 d4 b9 bd 98 6f 74 bd ff 56 52 bd 37 db a1 3d
       -0.0907369 -0.059676737 -0.051352497 0.0790314
000320 57 ce a6 3d f8 94 b6 bd aa 3d 73 bd 17 54 0e bc
       0.08144825 -0.08915132 -0.05938498 -0.008687041
000330 30 3c c4 bc 39 83 2a 3b 26 09 a0 3c ae fb c4 3d
       -0.02395448 0.0026018156 0.019535612 0.096183166
000340 6e e6 15 bd 8d df a7 bd 49 d0 c7 bd 55 6c 84 bd
       -0.036596708 -0.08196936 -0.09756524 -0.06465975
000350 3d 52 77 3d ce 4b 97 bc 83 43 c2 3b 27 de 1c 3c
       0.060381163 -0.018468764 0.005928458 0.00957445
000360 82 0c 83 3c 18 a1 cb bc 2a b9 56 3d 3c b2 c6 3d
       0.015997175 -0.024857089 0.05242268 0.09701964
000370 00 c9 8e bd 80 14 a1 bd 87 0f 2b 3d b6 77 1e bd
       -0.069719315 -0.07865238 0.041762855 -0.038688384
000380 97 05 58 3d 10 02 9e bd f0 cb 98 3d 4a fc bb bc
       0.052739706 -0.07715237 0.07460773 -0.02294745
000390 fa 69 92 3d 65 30 42 bb c2 de e3 bc 8f 2b 12 3d
       0.0714912 -0.0029630896 -0.02781618 0.035686072
0003a0 92 0f bf 3d b8 76 be bd d2 c2 73 3d 83 66 ac bd
       0.09329142 -0.092999876 0.059511967 -0.0841799
0003b0 e4 5c ec 3b 6a a3 94 3b 5f a8 1b bc 61 22 3b bd
       0.007213222 0.004536082 -0.009500592 -0.045687083
0003c0 20 fe 84 3d 61 4b 58 bd 12 7e 02 bd a3 d9 9e 3d
       0.06493783 -0.052806262 -0.03185851 0.07756355
0003d0 ec 39 c2 3d a6 b5 9b 3d fe 3e b1 3d 28 ae ae 3d
       0.09483704 0.07603006 0.08654593 0.085293114
0003e0 7b 0f e3 3c 6f 3e 19 bd 95 72 13 bd f0 07 29 bd
       0.027717343 -0.037413057 -0.035997946 -0.041267335
0003f0 2f 45 5d bd 5c 6e 94 bd d3 b3 a4 bd 39 bd 22 bd
       -0.054021057 -0.07247612 -0.08042111 -0.039731238

sentattn.bias f4 [100]
000000 8d d0 10 bd 86 25 38 bc 96 41 ad 3d fb 05 9e 3c
       -0.03535514 -0.011239415 0.08459775 0.019289961
000010 3c fc 41 3d 2c 59 87 bd c5 24 c1 3d 5d 74 cb 3d
       0.04735969 -0.06608805 0.09430841 0.09934304
000020 53 78 74 3d ba 14 ef 3b 82 d5 7c 3c 4f 7a 20 3b
       0.059685063 0.007296172 0.015431764 0.0024486964
000030 68 70 1e bd dd 3b ab bd 2f 3b 78 3d b6 d6 ba 3c
       -0.038681418 -0.083610274 0.060603317 0.02280746
000040 99 bd bd 3d ac e0 3f 3d 9b 16 88 3d 8c 72 43 3c
       0.092646785 0.046845123 0.06644937 0.011929166
000050 20 19 9d 3d 37 cc e2 bb b5 3a a0 bd d9 6c a3 3b
       0.07670808 -0.006921317 -0.078236975 0.004987341
000060 c2 2c ca 3b 01 90 94 3d 6d 32 5d 3d 07 85 b8 3c
       0.0061698863 0.07254029 0.054003168 0.02252437
000070 f8 fb 9d 3c bd 34 a9 bd ae b7 8f 3d 0e 67 8c 3c
       0.019285187 -0.08262012 0.07017456 0.017138984
000080 8a 1f c0 3d 22 f7 bf 3d 70 61 88 bb 2a 2c 2e 3d
       0.093810156 0.09373309 -0.004162006 0.042522587
000090 90 8a a3 3d f6 d0 7c bd 65 eb 2a bc 52 58 df bc
       0.07985413 -0.06172272 -0.010432099 -0.027263794
0000a0 02 1d ba 3d 54 44 8d bd b1 33 43 bd 40 ef a4 3d
       0.09087564 -0.06897798 -0.04765672 0.08053446
0000b0 81 18 af 3d 8c 9c ba bd 00 69 00 bd 74 e8 bd 3d
       0.085495956 -0.0911189 -0.031350136 0.092728525
0000c0 3b 8d c4 bd 27 07 bf 3d 59 21 84 3d 8d 12 27 3d
       -0.0959725 0.09327536 0.06451673 0.040789176
0000d0 52 7b c4 bb a2 dc 20 3d 3e 51 9f bd f3 52 c5 3c
       -0.0059961462 0.03927291 -0.077791676 0.024087405
0000e0 3b 5f 9a 3d f4 ad b6 3d 40 e4 be bc 55 71 8c bb
       0.07537695 0.08919898 -0.023302197 -0.004285971
0000f0 6e fb d1 ba 9a 56 a5 bc d2 78 81 3d 31 98 07 bc
       -0.0016020366 -0.020182896 0.06321873 -0.008276031
000100 ec f2 13 bd d8 d3 17 bc 14 b4 c7 3d 76 fc 9f bc
       -0.03612034 -0.009266816 0.09751144 -0.019529562
000110 5f fd 3e bd 9a d2 9d bd 25 ad 46 3d 1d b0 c7 3d
       -0.046628352 -0.07706185 0.048504967 0.09750388
000120 9d e6 d8 3c ac 06 6c bd 14 54 61 bd 41 1f 8e bd
       0.026477152 -0.05762355 -0.055011824 -0.06939555
000130 10 63 7d bd 57 3a 00 bd 28 23 b1 3d e8 25 c8 bd
       -0.06186205 -0.031305637 0.08649284 -0.09772855
000140 92 7d 12 3c 41 55 12 39 c8 d7 c5 bc 98 08 b6 bd
       0.008941071 0.00013955405 -0.024150744 -0.08888358
000150 4d 04 3f 3d 1e 09 21 bd 4f 74 f6 3c 04 e0 93 3d
       0.04663496 -0.039315335 0.030084757 0.07220462
000160 97 90 48 3d 50 0d ab 3d 9e 85 cf bc ab 90 a3 3d
       0.048966017 0.083521485 -0.025332268 0.079865776
000170 86 3d 42 bd a9 84 c5 3d 23 a6 88 bd d6 ad 43 bd
       -0.047421955 0.096444435 -0.06672313 -0.047773205
000180 09 64 29 3d 39 69 9c 3d bb 76 43 bd 66 0a c3 ba
       0.041355167 0.07637257 -0.047720652 -0.0014880418

attn_combine.weight f4 [100, 100]
000000 aa d9 b4 bd 67 a9 8f 3d 81 d6 cc 3d 3e a1 64 bc
       -0.088305786 0.07014733 0.10001851 -0.013954459
000010 7f 78 3c bc 3b ec 9d 3d 63 f4 c0 bd 83 55 40 bd
       -0.011503338 0.07711073 -0.09421613 -0.04695655
000020 af 8c cc 3d cf 18 b2 3d 7d be 53 bd 73 35 d0 bc
       0.09987771 0.08696138 -0.051695336 -0.025416112
000030 b8 e6 ef 3c eb 16 8b bc 31 a5 48 bd 6c 8c 43 bd
       0.02928482 -0.016978702 -0.048985664 -0.04774134
000040 93 4d 1d 3d c6 84 8e 3d 3f 59 f8 bc 25 9b 45 bd
       0.03840406 0.06958918 -0.030315993 -0.04824366
000050 0e f3 cb bd 8d 64 9b bd 84 1d c5 bc bd 57 88 bd
       -0.099584684 -0.07587538 -0.024061926 -0.0665736
000060 80 c5 90 3d 21 92 c9 bd 49 1d ee 3a 29 97 03 3c
       0.0706892 -0.09842325 0.0018166687 0.008031645
000070 c9 e3 c4 3d fc 0c 10 bd 17 8e 81 3d f5 ab 25 bd
       0.09613759 -0.035168633 0.063259296 -0.040447194
000080 01 99 e8 bc 60 25 08 bd ea 00 91 3d 0a a4 a1 bd
       -0.02839327 -0.03323877 0.070802525 -0.07892616
000090 90 56 b8 3c 58 35 61 bd 87 44 5c bc dd 7a 94 bc
       0.022502214 -0.054982513 -0.013444073 -0.018124992
0000a0 45 fe 49 bd 4f d5 c7 bd a8 c0 a9 3d 29 51 81 3c
       -0.049314756 -0.09757482 0.082886994 0.01578577
0000b0 ed be ad bd 08 33 cd 3c 79 e2 44 3c b5 8e 0d 3d
       -0.08483682 0.025048748 0.012016886 0.034559924
0000c0 af b0 b5 bd 64 f7 b1 3c 1a 89 0c bd 35 0c ad bc
       -0.0887159 0.02172441 -0.034310438 -0.021123985
0000d0 14 71 b6 3d f2 fd bc bd 40 79 d6 3c 7b ac 8b 3b
       0.08908287 -0.09228124 0.026180863 0.0042625046
0000e0 60 7b 87 bd ea d4 90 bc d7 5e e8 3b 1e fc 42 bc
       -0.06615329 -0.01767965 0.007091384 -0.01190093
0000f0 33 fa 93 bd 03 ef ab 3d 48 b2 16 3d 04 30 73 3d
       -0.07225456 0.08395197 0.036791116 0.059371963
000100 6b 5f c3 bd 98 0f 31 bd af 91 b8 3d dd 19 c6 bd
       -0.09539684 -0.043227762 0.09012162 -0.09672902
000110 03 49 0e 3c d8 d1 aa 3c ea 20 6b bd b8 87 78 3d
       0.0086844 0.020852014 -0.057404436 0.060676306
000120 5a 20 bf bd 4c b4 50 3c 61 9e 8c bb 24 22 53 bd
       -0.093323424 0.012738299 -0.004291341 -0.05154623
000130 a3 03 a1 bd d0 27 92 3d 85 18 a8 3d a1 41 4c 3c
       -0.07862022 0.071365 0.08207802 0.012466819
000140 93 9d b7 bd b8 8f 56 bc 1d 64 f5 bc 31 f2 6d bd
       -0.08965602 -0.013095789 -0.029954964 -0.0580923
000150 e7 3d b0 3d a3 c0 bf bd fc 83 b2 bc eb f7 e9 bc
       0.08605557 -0.093629144 -0.02179145 -0.0285606
000160 8d 8b 8f 3d 93 c1 67 bd db dc 8b bd 0a 86 89 3d
       0.07009039 -0.05658109 -0.06829234 0.06715019
000170 07 ee 68 bd 0a bd b3 bc ad 0d c7 3c be 59 ca bd
       -0.056867626 -0.021940727 0.024298513 -0.09880398
000180 ad a3 10 bd bb a5 b9 bd 87 35 51 bc 74 4c b0 3c
       -0.035312343 -0.09064814 -0.01276911 0.02152083
000190 bb 04 cf 3a 35 85 62 bd 14 ed ae bd 00 b8 8c bc
       0.0015794256 -0.055302817 -0.08541313 -0.017177582
0001a0 75 f0 28 bd 4d e3 90 bd cb ed 9f bd 4e 9e 36 bd
       -0.041244943 -0.07074604 -0.07809027 -0.044584565
0001b0 3d 6d c8 bd fa f8 bf bd e8 8a 16 bd f6 c7 87 3d
       -0.097864605 -0.093736604 -0.036753565 0.066299364
0001c0 49 e2 12 3c a6 14 f5 bc c1 bd 7d bd e1 ee 8c bd
       0.008965083 -0.029917073 -0.06194854 -0.068815
0001d0 30 fc 34 3d 5a ac 85 3d 43 a5 3f 3d be 31 5e bd
       0.044185817 0.06527014 0.046788465 -0.054246657
0001e0 e0 ab 49 3d 7c cd cd 3c ea 15 d3 3c c3 42 84 3d
       0.04923618 0.025122397 0.025767285 0.06458046
0001f0 af 6d f3 bc dc 89 8a 3d f7 af 30 bd d1 31 5b 3d
       -0.029715387 0.06764576 -0.043136563 0.053514306
000200 f6 6a 49 3d 8f 7d 2b 3d 00 3d 86 bd d5 7e 6f 3d
       0.04917427 0.04186779 -0.065546036 0.058470566
000210 8e fc 23 bd 37 f2 92 bc f8 95 21 3c c7 6c 22 3c
       -0.040035777 -0.017937763 0.0098624155 0.00991363
000220 5d 3d 2a 3d 30 43 3d bd 04 d9 87 3d c4 d7 8c bd
       0.041562427 -0.046206653 0.06633189 -0.068770915
000230 c4 e3 f9 bc 15 c6 47 3d 9e ed b7 3b 7f 20 8f 3d
       -0.030504115 0.04877289 0.005613043 0.0698862
000240 07 62 1a bc 90 33 e5 bb f6 2f e5 bc b4 91 98 bd
       -0.009422786 -0.006994672 -0.027976971 -0.07449666
000250 e9 93 d5 bc 4a 89 30 bd 9e 9c a1 bc c0 63 81 bd
       -0.026071506 -0.04309968 -0.019728001 -0.06317854
000260 4f 9c 90 3b d9 4f 2a 3c 7c 81 20 3d a2 36 d4 3b
       0.0044131647 0.010395014 0.039185986 0.0064762393
000270 89 bb a1 bd fe 3f 20 bd e1 33 1f bc ce 66 03 3d
       -0.078970976 -0.039123528 -0.009716959 0.032080464
000280 1d 15 ef 3c f3 4a 70 3d bc 57 cd 3d 37 fb 54 bd
       0.029184872 0.058665227 0.100265 -0.05199739
000290 4b 07 25 3d 86 a6 8b bc 44 93 f3 3b 28 12 76 3d
       0.04029016 -0.017047178 0.007433327 0.06007591
0002a0 e8 33 02 3c da c5 66 bd c7 58 3e bd e8 93 9a 3c
       0.007946946 -0.05634103 -0.046471383 0.018869355
0002b0 ab 7b 8c 3d 52 9f 88 bd 66 1f 83 3d 02 02 5d 3d
       0.06859525 -0.06671013 0.06402473 0.053956993
0002c0 28 52 a8 bd c2 a0 6e 3d 7c 8b 24 bc b2 27 c5 bd
       -0.08218795 0.05825878 -0.010043021 -0.09626712
0002d0 cc 31 0f 3b f0 65 cc bc d9 c2 9d bc 39 d7 e0 bc
       0.002184975 -0.024950951 -0.01925795 -0.027446376
0002e0 e6 d6 91 3d c6 22 06 3d 7c b8 d4 3c 86 b6 b5 bd
       0.07121067 0.032748006 0.025966875 -0.08872704
0002f0 33 72 17 bd 63 e4 09 bd f0 2d a6 bd 46 b1 bb bd
       -0.036974143 -0.033665072 -0.08114231 -0.091646716
000300 28 a7 34 bb 20 a0 c9 3d 09 26 ca bd 51 75 62 bb
       -0.0027565453 0.098449945 -0.09870536 -0.003455479
000310 1c 5c 26 3d f8 0d a6 3c ad d5 d1 3c 80 7d 41 3d
       0.040615186 0.020270333 0.025614584 0.047238827
000320 a2 10 4c bd a2 d9 ec bc b2 73 b6 3d 4a 34 5f bc
       -0.04982055 -0.02891237 0.08908786 -0.0136233065
000330 2d 13 39 bd 86 f9 30 bd f6 61 e2 3c d9 d0 99 bc
       -0.045184303 -0.043206714 0.027634602 -0.018776344
000340 e3 fa c9 3c be 31 ee 3c 36 4f a7 3d 98 8d 16 3d
       0.024655765 0.029076453 0.08169405 0.036756128
000350 34 eb c1 3b 9c f9 48 3d f0 f1 95 bd df a4 91 bd
       0.005917931 0.04906617 -0.073215365 -0.07111525
000360 14 0a 98 bd 45 98 91 3c 4f b9 64 bb 4c a5 7b 3d
       -0.07423797 0.017772803 -0.0034900492 0.061436936
000370 09 9d b8 3d 4e ff 06 bd 23 e5 ed 3c c8 66 c4 3d
       0.09014327 -0.03295832 0.029039925 0.095899165
000380 f0 8a 20 bb 55 59 a8 3d e6 f7 a1 bd 12 3c 1f bc
       -0.0024496876 0.08220164 -0.07908611 -0.009718912
000390 e5 39 37 bd c8 1d c5 3d 20 0b a7 bc 80 b7 dc 3b
       -0.044732947 0.09624821 -0.020391047 0.006735742
0003a0 22 eb 8d 3d 82 82 08 3c bc 1f aa 3c 43 df b4 bd
       0.06929614 0.008331897 0.020767085 -0.08831646
0003b0 50 03 a1 ba 6b 1b 13 3c da 77 48 3d 1b 93 29 3d
       -0.0012284312 0.008978705 0.048942424 0.041400056
0003c0 d7 8b a5 3d 9e af d9 3c f2 8f c7 bc 0a 32 9e 3d
       0.08083313 0.026572999 -0.02436063 0.07724388
0003d0 05 6b fd 3c 09 f4 82 3a d9 fe 2b 3b 30 78 e4 bb
       0.03093482 0.0009990941 0.002624443 -0.0069723353
0003e0 33 03 52 3c 6d de 62 3d 55 a8 87 3d e9 cd 3f 3d
       0.012818146 0.055387903 0.06623904 0.04682723
0003f0 ad 39 a6 bd c4 71 61 bc 08 a1 c0 bd ee 51 88 3b
       -0.081164695 -0.013760034 -0.09405714 0.0041601574

doc_linear.weight f4 [5, 100]
000000 71 47 e4 3d b5 76 c0 bd ca 95 c4 3d 1d 8e c6 bd
       0.11146439 -0.093976416 0.095988825 -0.09695075
000010 ae fd 4c bb dd 4c 2c 3e 91 e3 83 bd 33 cb f5 3d
       -0.0031279135 0.16826196 -0.06439889 0.12001648
000020 25 b7 65 3d c6 26 43 3e a8 ee 83 bd ec b8 00 bb
       0.056082863 0.1905776 -0.064420044 -0.0019641472
000030 cf 7c 85 3d 8a 12 a4 bd 76 2d ac bd 20 83 85 3d
       0.06517946 -0.080113485 -0.084071085 0.06519151
000040 90 cf 66 bd dd 33 94 3c 25 71 be 3b cb a5 00 be
       -0.05635029 0.018091137 0.0058118277 -0.12563245
000050 0b e3 18 3e 44 60 95 3d dd 11 45 3e 3b f6 8f 3d
       0.1493036 0.07293752 0.19245096 0.070293866
000060 44 57 73 bc 00 f2 43 bd 22 90 c4 3c 7b 7c 22 3d
       -0.014852349 -0.04783821 0.02399451 0.039669495
000070 b5 7e 28 3d 6b 38 88 3d b4 4c ce 3d 83 9f 61 3d
       0.041136462 0.06651386 0.10073224 0.055083763
000080 82 0a 05 3d 0c 0e ec bc 3e 7e d6 3d 51 1e 24 3b
       0.032480724 -0.028815292 0.104732975 0.0025042484
000090 07 d9 b2 bd 06 62 19 be 41 66 22 bd 5b ac 29 bd
       -0.08732801 -0.14978799 -0.0396483 -0.041424137
0000a0 f9 a8 1a 3d 4c 74 96 bd fb d2 c1 3d f8 a6 1c 3e
       0.0377588 -0.073464006 0.094640695 0.15298069
0000b0 03 b5 09 be 48 2d 21 3d af 77 5e bd 79 b0 01 3d
       -0.13447957 0.039349824 -0.054313358 0.031662438
0000c0 38 19 a3 3d 71 48 e9 bd 08 80 19 be 8e 54 18 3e
       0.079637945 -0.1139077 -0.14990246 0.14876005
0000d0 8a 51 2e 3e fb 01 ce 3d 77 25 17 bd 84 92 e3 bd
       0.17023292 0.100589715 -0.036900964 -0.1111193
0000e0 05 8a 17 3d 95 93 ce 3d 3d 34 a3 bc c2 21 e4 bd
       0.03699686 0.10086743 -0.01992237 -0.11139251
0000f0 d0 16 d6 3d 61 ba 1c be 77 d7 8b 3d 5b 84 10 be
       0.1045357 -0.15305473 0.06828206 -0.1411299
000100 44 99 d3 3d bd 79 f2 3d bd 5e e5 bd c4 23 14 3d
       0.103319675 0.11839626 -0.111997105 0.03616692
000110 e1 66 d6 ba 70 87 f9 3d fd e7 f5 bc 2d 2d 69 bd
       -0.0016357565 0.12184036 -0.030017847 -0.05692785
000120 90 a1 34 3c f7 1c 0f 3e d3 4b d6 3d 3b 82 94 3d
       0.011024848 0.13975893 0.10463681 0.07251402
000130 d9 cc 09 3e f9 09 7a bd 31 d5 24 3e a3 74 bb 3d
       0.1345705 -0.061044667 0.16096951 0.09153106
000140 38 3a a9 bd ad 6f 38 3e 3e 3a 1e 3e 27 4f 69 3d
       -0.082630575 0.18011351 0.15451905 0.05696025
000150 2e 1f a7 bd a1 b9 2f 3c 7a c4 3e bd 56 11 fb 3d
       -0.08160244 0.01072541 -0.046574093 0.12259166
000160 28 7c 79 bc 1f 4b 7c 3d f3 e9 54 bd 18 bf 00 be
       -0.015227355 0.06159508 -0.051980924 -0.12572896
000170 91 74 c3 3d 22 28 c9 b9 86 ae c0 bd a2 b8 2a 3d
       0.09543718 -0.0003836761 -0.09408288 0.041679986
000180 c1 e6 28 3e 0a 87 37 3e 23 fa 19 3e 45 c9 d9 bc
       0.16494276 0.17922607 0.15036826 -0.02658523
000190 86 bb e9 3d bb a2 53 bd d6 e0 03 bc 28 bb c0 3d
       0.114127204 -0.051668864 -0.0080492105 0.09410697
0001a0 bd 36 2b 3d 68 f9 d9 bd 4a d0 4c 3d 7a 97 c2 3a
       0.04180025 -0.106432736 0.050003327 0.0014846169
0001b0 c6 a3 ca bd 10 e5 aa bd d3 3a 5e bd 75 e3 68 bd
       -0.098945186 -0.083444715 -0.054255318 -0.056857545
0001c0 48 63 7c bd ff 27 f2 bd 2b 5c 98 3d 9f dc 8a bc
       -0.06161812 -0.11824035 0.07439455 -0.016950903
0001d0 63 c8 79 bd 44 d8 cc 3d 77 42 34 3e bf 52 8f 3c
       -0.06098212 0.10002187 0.1760348 0.017495511
0001e0 4a 67 ef bc db cf e2 3c 02 f2 d6 bd 9f b3 43 3d
       -0.029224057 0.027687004 -0.10495378 0.047778722
0001f0 3b 0c 10 bd ec 3a f2 bd b6 f2 c7 bd b5 e5 c1 bd
       -0.035167914 -0.11827645 -0.0976309 -0.09467641
000200 b7 32 19 bd b3 aa 88 bd bd c4 47 bd 3f a2 d8 3d
       -0.03740188 -0.06673183 -0.04877161 0.10577821
000210 65 9c 01 be 95 11 13 3d 61 5f a9 bd 91 b2 97 3c
       -0.12657316 0.03590544 -0.08270145 0.018517764
000220 ec 8e 24 3d f1 ed 05 3e bf 37 fb bd 43 f4 88 3c
       0.040175363 0.13079049 -0.12266492 0.016718036
000230 ae 31 c0 bd 1d 47 46 3e c2 40 79 bd 0c 2c 96 bd
       -0.09384476 0.19363065 -0.060852773 -0.0733262
000240 86 0b f4 bd d9 f2 9d bd 27 e6 b3 3d f5 de 5b bd
       -0.119162604 -0.07712335 0.087841325 -0.053679425
000250 d9 86 c2 bd 20 7e 6c 3d bf d9 18 3e 31 f1 1c bb
       -0.094983764 0.05773747 0.14926814 -0.0023947472
000260 28 9c 71 bd 13 ca e9 3d 13 b2 27 bd 02 6e bc 3c
       -0.058986813 0.11415496 -0.04094131 0.023001675
000270 28 f0 e9 3c f4 ac 84 bd f1 1b 3d bd 49 50 d3 bd
       0.028556898 -0.06478301 -0.046169225 -0.103180476
000280 5f 82 9b 3d c4 db f8 bb cc c1 7c bc b9 28 a2 3d
       0.07593226 -0.0075945575 -0.015427064 0.079179235
000290 47 9f 87 3d 6b 0a eb bd 6e 4b b4 3c dd 51 c8 bd
       0.066221766 -0.114765964 0.022008624 -0.09781239
0002a0 1e 36 bd 3d e9 b6 9b bd 00 bd 6b bd ac 08 41 bd
       0.09238838 -0.07603247 -0.05755329 -0.04712741
0002b0 5e c5 d2 bd 79 82 d6 3d 1a 03 84 bd cd 16 86 bd
       -0.10291551 0.104741044 -0.06445904 -0.06547318
0002c0 a4 3c b9 3d 35 8b 43 bd 9f 17 9d bd d7 b5 78 3d
       0.090447694 -0.04774018 -0.07670521 0.06072029
0002d0 ef 82 7f 3d 50 d3 d5 bd af 5f be 3d eb 13 7d bd
       0.062380727 -0.10440695 0.09295594 -0.061786573
0002e0 a7 af dd 3d 5b 89 46 3e 51 27 39 3e 70 c5 01 3d
       0.10824519 0.19388334 0.18081404 0.03168243
0002f0 02 b3 af bd 98 5f 80 bd ef 91 5b 3d 1d 18 e8 3d
       -0.08579065 -0.06268233 0.05360597 0.11332724
000300 f5 cc 36 bd c9 c5 06 bd e9 b2 1b bd 56 bb 31 3d
       -0.044629056 -0.032903466 -0.03801242 0.043391548
000310 13 1f 4e bd c4 8d 3a bd f9 d4 fc 3d ac 9d f3 bd
       -0.050322603 -0.045545354 0.12345309 -0.11895308
000320 75 c5 89 bd 61 d3 0e bd 5f ec d4 bd 29 8a 46 bd
       -0.06727115 -0.034869555 -0.10396647 -0.048471604
000330 73 07 a3 bd dc 08 c7 bd 0f 36 a4 bc 7b 7d 00 3c
       -0.07960405 -0.09718487 -0.020045308 0.007842417
000340 c5 58 17 3d 95 4b 72 bc 1b 4d cf bd 86 64 ba bd
       0.03694989 -0.014788528 -0.101221286 -0.091012046
000350 ee 2b 5d 3c 4c fe 88 bc 41 7e 13 bd 7f 7b fe bd
       0.013499243 -0.01672282 -0.036009077 -0.12425899
000360 29 21 07 bd df 73 ba bd f6 42 47 3d 09 a8 8a 3c
       -0.03299061 -0.09104132 0.048647843 0.016925829
000370 ab 13 7d 3d af c1 95 bd 9c 48 04 bd 2b 80 1d 3d
       0.061786335 -0.07312333 -0.03229581 0.03845231
000380 64 ad eb bd 6b b1 d3 bd 64 58 f9 bc 76 0e 91 bb
       -0.11507681 -0.10336574 -0.030437656 -0.0044267727
000390 8a f2 e4 3c 2f 3b 39 3c c0 e7 14 ba f8 b9 22 bc
       0.027947683 0.011305614 -0.00056802854 -0.009932034
0003a0 98 48 91 bd 50 7a c3 bc 1b 94 8f bd 07 03 09 bb
       -0.07093924 -0.023862034 -0.07010671 -0.0020906345
0003b0 5a 64 8e bd 93 4e 90 3c de 44 b6 bd a5 66 cf bd
       -0.06952734 0.017615592 -0.08899854 -0.10127
0003c0 46 55 9e 3c 39 f8 4c bd 5c e0 01 be c5 bc 1a be
       0.01932777 -0.05004141 -0.12683243 -0.15111072
0003d0 00 ad 82 3c 6d b6 fe bd a3 ac 51 3d c7 39 6f bd
       0.015951633 -0.12437139 0.05119003 -0.05840471
0003e0 2e 3a da 3b c5 98 b3 bd 57 c4 d2 bd 68 94 09 be
       0.0066597676 -0.08769373 -0.10291355 -0.13435519
0003f0 76 a2 68 bd e0 07 53 bd d8 45 0f be ef 53 d3 bd
       -0.05679556 -0.051521182 -0.13991487 -0.103187434

doc_linear.bias f4 [5]
000000 b6 dd 2d 3e 5d 9f a4 3c 5e bf 8d be 52 c9 48 bd
       0.16979107 0.020095522 -0.27685064 -0.04902012
000010 d8 03 7e bb
       -0.0038759615
